SavedNetwork/10_10_1_99.pth (torch_old, 86556 bytes, 30 tensors)

feature_extract.mlps.0.linears.0.weight f4 [64, 2]
-0.30406305 0.41658476 0.49225435 -0.24525206 0.069524676 -0.42792726 -0.53169656 0.35139745
0.50639087 -0.025051558 -0.69588447 -0.19742987 -0.4283882 -0.18661544 -0.2153189 -0.57502306
-0.3775943 0.29271233 -0.36256573 -0.32716748 -0.4041381 0.5459395 -0.31642592 -0.21305141
-0.13518764 0.6694918 -0.41582525 0.24514663 0.6123741 0.14281996 0.70743823 -0.3417362
0.53283656 -0.62712085 0.38402015 -0.5301069 -0.5545625 0.12735572 -0.014045408 0.21690132
0.017690655 0.012188492 -0.34585026 0.22537337 -0.20729908 0.1495301 0.019008826 -0.04449915
-0.3185066 0.50042593 -0.6321409 -0.01712868 0.38166347 -0.17766315 0.46759537 -0.49190807
-0.6141755 -0.3192297 -0.51632464 -0.026465733 -0.28831425 0.22214253 0.42969856 0.13221022
-0.02339632 -0.26194012 -0.3640722 0.5508445 0.51453733 0.3554119 -0.32026452 -0.2593857
0.08220261 0.04720354 -0.047652442 -0.4298108 -0.47583172 0.36458623 0.39967242 0.5641541
0.6588456 -0.16498773 -0.064049914 0.021181345 0.14198019 0.14466777 0.023094833 -0.34050944
-0.011271082 0.3801881 0.3310267 0.6317557 0.31904724 -0.67377937 0.29099405 -0.55492777
0.5480217 -0.56112146 -0.54521537 0.17330174 0.13628404 0.5091986 -0.4667101 0.5475752
0.12114791 -0.12338345 -0.5103519 0.3326543 0.0918357 0.5584968 -0.40069064 0.60774356
-0.4834073 -0.40737337 0.3918479 -0.09286885 -0.42754427 -0.054426406 0.6846988 -0.038832832
0.23846965 -0.16994745 0.1657315 0.6852347 0.3477958 -0.48714998 -0.4175235 -0.10662669
00000000: 27ae 9bbe 994a d53e c308 fc3e 5b23 7bbe
00000010: f462 8e3d 4819 dbbe 441d 08bf 5eea b33e
00000020: d5a2 013f ed38 cdbc 7c25 32bf 0e2b 4abe
00000030: b355 dbbe 1e18 3fbe 8f7c 5cbe b634 13bf
00000040: 0a54 c1be 64de 953e 37a2 b9be 7f82 a7be
00000050: 30eb cebe b1c2 0b3f 9402 a2be 262a 5abe
00000060: a16e 0abe d163 2b3f 0ce7 d4be b807 7b3e
00000070: 8dc4 1c3f 653f 123e ac1a 353f 0cf8 aebe
00000080: fa67 083f fe8a 20bf 4a9e c43e 16b5 07bf
00000090: cff7 0dbf 8a69 023e b61e 66bc 611b 5e3e
000000a0: feeb 903c 3eb2 473c 4913 b1be 47c8 663e
000000b0: 3646 54be 6b1e 193e 66b8 9b3c be44 36bd
000000c0: 4c13 a3be ea1b 003f fcd3 21bf 7251 8cbc
000000d0: 6569 c33e 54ed 35be a968 ef3e 60db fbbe
000000e0: 9b3a 1dbf 1372 a3be da2d 04bf aace d8bc
000000f0: ed9d 93be 5579 633e 7301 dc3e 1e62 073e
00000100: a4a9 bfbc 041d 86be ac67 babe 2504 0d3f
00000110: b8b8 033f 8cf8 b53e b6f9 a3be 34ce 84be
00000120: d859 a83d 8058 413d 352f 43bd 2910 dcbe
00000130: 37a0 f3be 0cab ba3e dda1 cc3e 676c 103f
00000140: 1baa 283f 8bf2 28be 9a2c 83bd 8084 ad3c
00000150: 4163 113e ca23 143e 6031 bd3c 4157 aebe
00000160: 58aa 38bc 04a8 c23e 557c a93e beba 213f
00000170: 295a a33e ce7c 2cbf 2cfd 943e bf0f 0ebf
00000180: 264b 0c3f a8a5 0fbf 3c93 0bbf 0376 313e
00000190: 0b8e 0b3e d75a 023f a0f4 eebe e32d 0c3f
000001a0: 651c f83d 76b0 fcbd 6ca6 02bf aa51 aa3e
000001b0: 5b14 bc3d a5f9 0e3f 5327 cdbe 1595 1b3f
000001c0: 2981 f7be 3e93 d0be 4aa0 c83e 0632 bebd
000001d0: 15e7 dabe 39ee 5ebd 6c48 2f3f 2d0f 1fbd
000001e0: 6331 743e b406 2ebe 85b5 293e 8b6b 2f3f
000001f0: 4b12 b23e b96b f9be a4c5 d5be 185f dabd

feature_extract.mlps.0.linears.0.bias f4 [64]
0.3204805 -0.39027107 -0.0500725 0.348938 -0.34617254 -0.38251868 0.01466315 -0.5790204
0.29453894 -0.19493715 0.56229466 0.052761637 0.33841014 -0.12212277 -0.25277638 -0.3060859
0.34526706 0.64250624 0.2563517 -0.16238253 0.3680109 -0.53489625 -0.60902846 -0.2316523
0.3148814 -0.076229185 -0.48843473 -0.58649796 0.35264963 -0.3662818 -0.2866407 0.6295687
0.102915846 -0.41294548 0.057119258 0.38824785 -0.33248323 -0.4419571 -0.6607668 -0.59842646
-0.5279445 0.36683142 0.0641564 0.21511514 0.4021635 0.6382744 -0.18970372 0.6320403
0.112029456 0.56732464 -0.6604142 -0.30937943 -0.2656201 0.5163063 0.4170089 -0.69717795
-0.39991164 -0.54792446 -0.6967407 -0.65498626 0.33970043 0.24866465 -0.055542707 -0.033340123
00000000: 0516 a43e 9cd1 c7be d218 4dbd 00a8 b23e
00000010: 873d b1be 7dd9 c3be b53d 703c ae3a 14bf
00000020: cfcd 963e 9b9d 47be 8bf2 0f3f 961c 583d
00000030: 1844 ad3e 811b fabd e86b 81be 4bb7 9cbe
00000040: d8c6 b03e 4a7b 243f 8840 833e 9b47 26be
00000050: ed6b bc3e f6ee 08bf 4ae9 1bbf 4336 6dbe
00000060: 2338 a13e 0c1e 9cbd 1e14 fabe bb24 16bf
00000070: 7e8e b43e 4a89 bbbe 92c2 92be 6a2b 213f
00000080: 8bc5 d23d 976d d3be e2f5 693d 6cc8 c63e
00000090: 3e3b aabe 3348 e2be 0328 29bf 7a32 19bf
000000a0: 5f27 07bf 54d1 bb3e 6e64 833d 2547 5c3e
000000b0: 60e8 cd3e f365 233f b141 42be 65cd 213f
000000c0: b36f e53d 303c 113f e810 29bf fb66 9ebe
000000d0: 5cff 87be a62c 043f 3182 d53e 417a 32bf
000000e0: 38c1 ccbe c744 0cbf 995d 32bf 2ead 27bf
000000f0: 37ed ad3e f2a1 7e3e c080 63bd a78f 08bd

feature_extract.mlps.0.linears.1.weight f4 [64, 64]
-0.074885555 0.06346612 -0.09570639 -0.09728108 -0.11244841 -0.04940382 -0.089500315 0.09540506
-0.12513816 0.026244448 0.018679079 0.0133359395 0.050550334 0.114148505 0.055621084 0.02922411
-0.044545494 -0.0066734995 0.11802219 0.03783836 -0.04303985 -0.017539032 -0.11303815 -0.0876584
0.06547959 0.019198997 0.09006119 0.08173683 -0.007965454 0.11041711 0.03379505 0.08147022
0.093980715 0.1064603 -0.090659745 -0.003583035 0.05708993 -0.09535136 0.020335188 -0.1157388
-0.06482172 -0.053755324 -0.07018906 0.04657864 0.091312155 -0.11684719 0.09596562 -0.035017364
-0.008701079 -0.020900099 -0.03442116 -0.011969975 -0.0315142 -0.087041214 -0.004401736 0.047089607
0.03724998 0.059399333 -0.03112745 0.001188592 0.08297896 0.10853638 -0.1117293 0.09963426
0.09332763 -0.080055706 -0.043815866 0.048640084 0.07863329 -0.11832524 0.008022871 -0.009537611
-0.006317487 0.09996682 0.007917009 -0.054638214 0.09231139 -0.032010417 0.08669221 0.10943323
0.0479125 -0.07631904 -0.05599169 -0.097610734 -0.06621453 -0.11669201 0.0047661406 -0.04790665
0.10994787 0.025391988 -0.05084027 -0.121048264 0.059892915 -0.111193456 -0.044524953 0.049844325
0.055156488 -0.03532815 0.08282406 -0.06413557 -0.07496847 0.07698381 0.007602688 0.047801606
0.016686967 0.03951373 -0.07561538 0.035965 -0.01794084 -0.08489943 0.11875964 0.075139284
0.0021834928 0.11837956 -0.119447224 0.08676516 -0.0018521947 -0.078532115 0.12365939 0.1123939
-0.052748024 -0.0615248 -0.04942546 -0.041391503 0.037944272 0.048464257 0.024084238 -0.12156052
-0.067640655 -0.044524275 -0.01867105 -0.010177716 0.00915559 -0.021722315 -0.09545089 0.036833707
-0.09840135 -0.101208426 0.021767607 0.11193229 -0.04674301 -0.10527701 0.006533559 0.04802148
0.035070986 -0.0032034905 -0.073722735 0.0091516785 0.014978704 -0.111172915 0.045329507 0.027603656
0.05648107 0.0890663 -0.05676972 0.051473275 0.09087098 -0.118021645 -0.105852745 0.019318234
-0.053899363 0.0841499 0.13019578 -0.016620152 0.018530786 -0.085409544 0.11388254 -0.025413133
-0.069509104 -0.12076584 -0.07021148 -0.016659444 -0.05854605 0.0035120004 0.0025348454 -0.006642176
0.003368796 -0.011193303 0.06905438 -0.10562652 -0.088161424 -0.018357502 -0.062463053 0.09548231
0.07815867 0.04009382 -0.040955853 0.0033276938 0.09089566 0.013794584 0.098391384 0.103372544
0.020108175 0.0881755 -0.0070031574 -0.015916293 -0.009399547 -0.10248722 0.105431 0.12226869
-0.01795735 -0.08615465 -0.038925227 -0.0054815826 -0.10058337 0.05116923 -0.0772888 0.065552235
0.021418773 0.08221179 0.065179996 0.09935734 0.10702299 0.07242209 -0.07573153 -0.07686349
0.048179872 0.11069987 -0.07882993 -0.08322661 -0.119324125 0.03165662 -0.08113225 -0.06372398
0.033800907 -0.07004938 0.09281702 -0.013049594 0.025754465 0.03542442 0.009460625 0.073919505
-0.11313288 0.08145633 0.05285319 0.011205716 0.06632265 0.09719495 -0.06160632 0.11438503
-0.025568873 -0.10721825 0.053986374 -0.07375105 0.006155281 -0.0891589 0.017145913 0.015415059
-0.11395704 -0.05543279 -0.04536699 -0.0963859 0.025975758 -0.048233196 0.0069099995 0.0699637
00000000: 995d 99bd 86fa 813d b601 c4bd 4e3b c7bd
00000010: 5a4b e6bd a95b 4abd f14b b7bd ba63 c33d
00000020: 3824 00be 99fe d63c de04 993c fc7e 5a3c
00000030: de0d 4f3d b1c6 e93d efd2 633d 6767 ef3c
00000040: 5675 36bd 5fad dabb 9eb5 f13d 65fc 1a3d
00000050: 8e4a 30bd 04ae 8fbc 8c80 e7bd 3f86 b3bd
00000060: 2a1a 863d 3747 9d3c 0072 b83d a465 a73d
00000070: 8981 02bc 5e22 e23d ae6c 0a3d dcd9 a63d
00000080: f678 c03d dc07 da3d d1ab b9bd 5ad1 6abb
00000090: 21d7 693d 9347 c3bd fb95 a63c 7708 edbd
000000a0: 40c1 84bd 8b2e 5cbd 48bf 8fbd 3ec9 3e3d
000000b0: de01 bb3d 944d efbd 9f89 c43d 5e6e 0fbd
000000c0: f88e 0ebc af36 abbc 34fd 0cbd b71d 44bc
000000d0: 0915 01bd aa42 b2bd 703c 90bb 08e1 403d
000000e0: 6f93 183d b74c 733d fefe febc 88ca 9b3a
000000f0: dff0 a93d 5248 de3d 55d2 e4bd 0c0d cc3d
00000100: 8e22 bf3d 3ff4 a3bd 4478 33bd d33a 473d
00000110: 7e0a a13d 8154 f2bd 5c72 033c a443 1cbc
00000120: ec02 cfbb 67bb cc3d 58b6 013c 52cc 5fbd
00000130: c10d bd3d 5b1d 03bd af8b b13d 871e e03d
00000140: e63f 443d 284d 9cbd 8b57 65bd 23e8 c7bd
00000150: 7c9b 87bd 38fc eebd 492d 9c3b c339 44bd
00000160: 592c e13d dc02 d03c e33d 50bd 27e8 f7bd
00000170: 4652 753d 65b9 e3bd cc5f 36bd 9029 4c3d
00000180: c5eb 613d 40b4 10bd a99f a93d 8259 83bd
00000190: 1289 99bd b0a9 9d3d f81f f93b 9ecb 433d
000001a0: 1bb3 883c 26d9 213d 3ddc 9abd 0950 133d
000001b0: abf8 92bc c1df adbd 4138 f33d a0e2 993d
000001c0: ee18 0f3b fc70 f23d bfa0 f4bd efb1 b13d
000001d0: 57c5 f2ba 72d5 a0bd 2241 fd3d c62e e63d
000001e0: 500e 58bd 6e01 7cbd 5a72 4abd 238a 29bd
000001f0: 746b 1b3d 7582 463d 4f4c c53c b9f4 f8bd
00000200: 2f87 8abd 165f 36bd 08f4 98bc 6fc0 26bc
00000210: 5401 163c fff2 b1bc c27b c3bd f1de 163d
00000220: a686 c9bd 5d46 cfbd fb51 b23c c23c e53d
00000230: 9975 3fbd 799b d7bd 7717 d63b 2cb2 443d
00000240: 98a6 0f3d a7f1 51bb f2fb 96bd ecf0 153c
00000250: 3d69 753c a0ae e3bd 6fab 393d 1021 e23c
00000260: b258 673d 6468 b63d 5e87 68bd a4d5 523d
00000270: 901a ba3d 55b5 f1bd 53c9 d8bd 4641 9e3c
00000280: 94c5 5cbd c856 ac3d 0b52 053e fc26 88bc
00000290: e0cd 973c 33eb aebd 403b e93d 342f d0bc
000002a0: ca5a 8ebd 1554 f7bd 09cb 8fbd 6379 88bc
000002b0: fccd 6fbd 9729 663b a61f 263b 9ca6 d9bb
000002c0: 05c7 5c3b 1e64 37bc 626c 8d3d b852 d8bd
000002d0: fa8d b4bd 7962 96bc 42d9 7fbd 3b8c c33d
000002e0: a711 a03d 6b39 243d 53c1 27bd 7015 5a3b
000002f0: 8127 ba3d ae02 623c 6c81 c93d fcb4 d33d
00000300: e6b9 a43c 5b95 b43d be7a e5bb e362 82bc
00000310: 8f00 1abc d2e4 d1bd 35ec d73d 0268 fa3d
00000320: 4b1b 93bc d971 b0bd 0f70 1fbd d99e b3bb
00000330: a7fe cdbd d496 513d 9749 9ebd 4040 863d
00000340: 6c76 af3c a85e a83d 177d 853d dc7b cb3d
00000350: df2e db3d 0852 943d 2219 9bbd 9b6a 9dbd
00000360: 4258 453d 9db6 e23d 9671 a1bd b772 aabd
00000370: 3560 f4bd 5faa 013d aa28 a6bd b881 82bd
00000380: d272 0a3d 0d76 8fbd da16 be3d f7cd 55bc
00000390: 07fb d23c 3219 113d bd00 1b3c 1c63 973d
000003a0: 36b2 e7bd 94d2 a63d 967c 583d 2e98 373c
000003b0: 2bd4 873d 250e c73d e956 7cbd b342 ea3d
000003c0: d075 d1bc 3e95 dbbd d120 5d3d ca0a 97bd
000003d0: 3db2 c93b f198 b6bd 9675 8c3c 728f 7c3c
000003e0: 4f62 e9bd 7e0d 63bd bdd2 39bd f965 c5bd
000003f0: 1dcb d43c 2c90 45bd 476d e23b 2149 8f3d

feature_extract.mlps.0.linears.1.bias f4 [64]
0.041219287 0.054014098 0.011653785 0.10417303 -0.085399516 0.029203556 0.026738543 0.021507243
0.07920422 0.1065171 0.086500965 -0.01699799 0.1074813 0.0476336 0.040969294 0.0032685297
-0.06603339 0.072919875 0.033066656 0.027089713 -0.03693715 0.10928605 0.08828311 0.115644865
-0.028120467 0.049007304 -0.050560158 0.092815295 0.107382186 0.032889448 0.10635658 -0.09103299
0.03028075 0.06747195 -0.08357475 -0.0014207879 0.06340813 -0.0369947 -0.08641438 0.06831131
-0.09153719 -0.007945137 0.1157146 -0.03427016 -0.007165087 0.025792105 -0.10843104 -0.10842965
-0.044433035 0.028141126 0.12337106 0.039581593 -0.12397588 0.09169822 -0.05122471 0.013460204
0.08784846 0.070225865 0.05248733 0.027598975 -0.10151219 -0.027548056 0.10716772 -0.12162873
00000000: 8ed5 283d e33d 5d3d 84ef 3e3c ab58 d53d
00000010: f1e5 aebd 4c3c ef3c ca0a db3c f52f b03c
00000020: d235 a23d a325 da3d 6b27 b13d 5e3f 8bbc
00000030: 281f dc3d 731b 433d 6bcf 273d d434 563b
00000040: 843c 87bd 0457 953d e770 073d 3feb dd3c
00000050: 694b 17bd 5dd1 df3d c6cd b43d 37d7 ec3d
00000060: e55c e6bc e2bb 483d 2b18 4fbd f215 be3d
00000070: 31eb db3d 16b7 063d 7bd1 d93d 816f babd
00000080: 560f f83c bc2e 8a3d 3d29 abbd bb39 baba
00000090: 1fdc 813d c187 17bd 06fa b0bd cde6 8b3d
000000a0: da77 bbbd 522c 02bc c7fb ec3d de5e 0cbd
000000b0: 1bc9 eabb f749 d33c 1811 debd 5d10 debd
000000c0: 6aff 35bd 3888 e63c f7a9 fc3d 4f20 223d
000000d0: 11e7 fdbd 47cc bb3d 00d1 51bd 3088 5c3c
000000e0: e5e9 b33d 94d2 8f3d f4fc 563d 3f17 e23c
000000f0: a0e5 cfbd 76ac e1bc c07a db3d 7c18 f9bd

feature_extract.mlps.0.batch_norms.0.weight f4 [64]
1.0026255 1.001755 0.9967425 1.0003856 0.99592805 1.0025245 0.99520224 1.0061865
0.9991422 1.0022087 1.0059679 1.0085893 0.9967448 0.9971086 0.9991019 0.99934375
1.0011044 0.99714273 0.9989461 1.0047385 0.9996265 0.9984682 0.98886466 1.0061709
0.9967669 0.99429363 1.0077579 1.005001 1.0053813 1.0017364 1.0051948 1.0015935
1.0028728 0.99400854 1.005156 1.0040896 0.9940712 1.0008422 0.9987217 1.0038928
0.9924978 0.9980919 1.0038434 1.0092556 0.9934811 1.0074962 1.0039749 1.0076358
0.98995435 0.9983818 1.0045261 0.99626875 0.99368894 1.0073667 0.99545646 1.0047275
0.9984556 1.0030628 0.99777955 0.9971861 0.99900424 0.99603254 0.9978831 0.9941449
00000000: 0856 803f 8239 803f 842a 7f3f a30c 803f
00000010: 24f5 7e3f b952 803f 93c5 7e3f b8ca 803f
00000020: c9c7 7f3f 6048 803f 8ec3 803f 7419 813f
00000030: ab2a 7f3f 8242 7f3f 24c5 7f3f fed4 7f3f
00000040: 3024 803f bf44 7f3f eeba 7f3f 459b 803f
00000050: 86e7 7f3f 9d9b 7f3f 3c26 7d3f 35ca 803f
00000060: 1e2c 7f3f 078a 7e3f 36fe 803f dfa3 803f
00000070: 56b0 803f e638 803f 39aa 803f 3734 803f
00000080: 235e 803f 5877 7e3f f4a8 803f 0286 803f
00000090: 737b 7e3f 991b 803f 3aac 7f3f 8f7f 803f
000000a0: 5614 7e3f f382 7f3f f17d 803f 4a2f 813f
000000b0: c754 7e3f a3f5 803f 4082 803f 36fa 803f
000000c0: a66d 7d3f f395 7f3f 5094 803f 780b 7f3f
000000d0: 6662 7e3f 64f1 803f 3cd6 7e3f e99a 803f
000000e0: c99a 7f3f 5d64 803f 7b6e 7f3f 9747 7f3f
000000f0: bebe 7f3f fdfb 7e3f 4475 7f3f 4880 7e3f

feature_extract.mlps.0.batch_norms.0.bias f4 [64]
0.0002269826 0.008200091 -0.002849233 9.5174175e-05 0.009630397 0.0023367347 -0.011804646 0.010778453
-0.0028459374 0.00019564453 0.005957103 0.011210893 -0.0060170125 0.0048082992 -0.0022582186 0.0059811105
-0.00091139134 -0.0072013363 0.0032804892 0.002386925 0.0042061415 0.004899138 -0.003752788 -0.0022133086
-0.0025159095 -0.0033153205 0.0061057853 0.002002697 -5.331212e-05 0.006434599 0.011189057 -0.0019766127
-0.005621056 -0.0035046805 -0.0009831131 0.0069055054 0.00216645 0.009454272 -0.0016706353 0.004904061
-0.00426453 -0.0016918912 -0.00043667233 0.00050934963 -0.003790054 -0.00029554192 0.0061599845 0.0016586791
-0.008330704 0.0039978414 -0.0012541633 -0.0019253647 -0.001398672 0.00018572132 -0.007637152 0.00082123117
-0.002367698 0.0026328226 -0.0041547096 0.0012375935 0.005698472 0.0029568332 0.0034627828 0.0025398065
00000000: 2e02 6e39 ad59 063c 33ba 3abb 3f98 c738
00000010: d0c8 1d3c e723 193b 4668 41bc 1c98 303c
00000020: e882 3abb ee25 4d39 cd33 c33b e5ad 373c
00000030: 5c2a c5bb f08e 9d3b 9ffe 13bb 31fd c33b
00000040: 70ea 6eba 30f9 ebbb 7afd 563b f56d 1c3b
00000050: acd3 893b f388 a03b 56f1 75bb 280d 11bb
00000060: f5e1 24bb d945 59bb 0a13 c83b ae3f 033b
00000070: 749b 5fb8 54d9 d23b 4e52 373c 0f8a 01bb
00000080: d630 b8bb c8ae 65bb cddb 80ba 9447 e23b
00000090: 00fb 0d3b 17e6 1a3c 38f9 daba 3fb2 a03b
000000a0: 78bd 8bbb 73c2 ddba 2bf1 e4b9 e085 053a
000000b0: 8e62 78bb f7f2 9ab9 b2d9 c93b 0968 d93a
000000c0: 817d 08bc 5300 833b bd62 a4ba 855c fcba
000000d0: a553 b7ba 30be 4239 1341 fabb e447 573a
000000e0: 612b 1bbb 6f8b 2c3b 3b24 88bb bf36 a23a
000000f0: 3fba ba3b 6ec7 413b dbef 623b e272 263b

feature_extract.mlps.0.batch_norms.0.running_mean f4 [64]
1.0348781 -0.45537952 -1.0594705 0.6392339 0.16476998 -1.6743082 -0.9460684 -2.28575
0.6104636 -1.438422 1.4920988 -0.8481462 1.8876349 0.029449495 0.80536294 -0.37237972
-0.64494866 -0.26986295 -0.049078424 0.37329715 0.4190837 -0.3542031 -0.46399 -0.3232502
1.2261112 -0.83714455 -0.50715125 -1.3068789 -1.1561749 -1.0195147 -0.048872285 1.4534252
-0.5897944 0.5747999 1.5448921 -0.63485265 -0.11915261 -1.5891174 -0.27353382 1.2898659
-0.19987854 0.34801528 0.5931914 -0.6246526 1.3562587 2.6205897 -1.5411887 -0.4490187
-0.69310606 0.38935047 0.7892233 0.5535779 -0.4419273 0.7831569 1.9415803 0.3937172
-1.9845054 -0.33943683 -1.320334 0.023252182 0.17810962 2.1794102 -0.8997721 -0.77831674
00000000: e376 843f 8127 e9be bb9c 87bf d5a4 233f
00000010: 76b9 283e bb4f d6bf 8a31 72bf ba49 12c0
00000020: 5847 1c3f 361e b8bf 18fd be3f 1c20 59bf
00000030: 059e f13f 1140 f13c 442c 4e3f 8ea8 bebe
00000040: 5b1b 25bf 7a2b 8abe 7506 49bd ce20 bf3e
00000050: 2492 d63e 1c5a b5be 1990 edbe 0d81 a5be
00000060: 36f1 9c3f 1b4f 56bf aad4 01bf cf47 a7bf
00000070: 8afd 93bf 757f 82bf 4e2e 48bd d609 ba3f
00000080: c4fc 16bf 1626 133f 06bf c53f b485 22bf
00000090: 4906 f4bd 3368 cbbf a00c 8cbe 531a a53f
000000a0: f6ac 4cbe 0f2f b23e 64db 173f 3ce9 1fbf
000000b0: e399 ad3f beb7 2740 ac45 c5bf c7e5 e5be
000000c0: 666f 31bf f258 c73e 8a0a 4a3f 48b7 0d3f
000000d0: 4c44 e2be f87c 483f b485 f83f 4d95 c93e
000000e0: 4604 febf aaca adbe b400 a9bf 5c7b be3c
000000f0: 5e62 363e 757b 0b40 7757 66bf c43f 47bf

feature_extract.mlps.0.batch_norms.0.running_var f4 [64]
0.15390594 0.14610969 0.1324451 0.20247777 0.1262623 0.29146874 0.12956662 0.2856661
0.11678331 0.16278546 0.2661051 0.093823075 0.32462582 0.1144248 0.21555087 0.29748097
0.37848666 0.24834146 0.15413706 0.034225147 0.00029894238 0.08477448 0.033012137 0.0015042268
0.20981865 0.20103821 0.08520018 0.250959 0.29358834 0.13549949 0.06770232 0.113750994
0.051696975 0.2578657 0.25343725 0.11359008 0.005612963 0.14021213 0.18346375 0.3489555
0.21933056 0.002162119 0.02865099 0.08431673 0.10570704 0.38086662 0.3510149 0.2434413
0.33315107 0.15544346 0.21081544 0.28911263 0.016173204 0.18463276 0.2416455 0.31358793
0.269307 0.07716666 0.09690757 0.23056884 0.043243527 0.37680727 0.20833007 0.102194384
00000000: 8599 1d3e c79d 153e b09f 073e 5556 4f3e
00000010: e84a 013e 643b 953e 1dad 043e d442 923e
00000020: 172c ef3d 3bb1 263e ed3e 883e 5026 c03d
00000030: 5b35 a63e 8d57 ea3d 5eb9 5c3e 6d4f 983e
00000040: 01c9 c13e 394d 7e3e 1bd6 1d3e ab2f 0c3d
00000050: 5ebb 9c39 3e9e ad3d bc37 073d 7a29 c53a
00000060: b3da 563e f6dc 4d3e 6f7d ae3d b37d 803e
00000070: 3651 963e 61c0 0a3e 84a7 8a3d 48f6 e83d
00000080: 35c0 533d f906 843e 87c2 813e eaa1 e83d
00000090: f2ec b73b c593 0f3e ecdd 3b3e 4caa b23e
000000a0: 3198 603e 56b2 0d3b 7bb5 ea3c 40ae ac3d
000000b0: ef7c d83d f300 c33e 3ab8 b33e ad48 793e
000000c0: c792 aa3e 922c 1f3e 01e0 573e 9206 943e
000000d0: ab7d 843c 5f10 3d3e eb71 773e 998e a03e
000000e0: 9be2 893e 8e09 9e3d 7a77 c63d 3d1a 6c3e
000000f0: 2020 313d e2ec c03e 7a54 553e 4a4b d13d

feature_extract.mlps.1.linears.0.weight f4 [64, 64]
0.10527976 0.06806317 0.103428505 0.12420486 -0.005035045 -0.044452135 -0.045557123 0.002499055
0.032733645 -0.03211004 0.07665538 -0.12813702 -0.10676346 -0.050392717 -0.009055653 -0.010374473
-0.036950897 -0.027072268 -0.08039638 0.041708138 0.061564356 0.030629756 -0.03876709 -0.047992773
0.06644033 -0.0052749105 0.002107227 0.0025939709 -0.062529474 0.047372065 0.11714171 0.047754172
-0.040127262 0.026284799 -0.07517145 0.08983866 -0.03866806 0.081435665 -0.118066736 0.102361485
0.10498103 0.05729835 0.087414965 0.058525756 0.09484108 0.082012214 -0.04479868 -0.11227541
0.068276785 -0.12112377 0.02784492 -0.07255182 0.043661162 -0.0044665514 0.086040415 0.060167506
0.014846984 -0.07519199 0.06974092 -0.02876978 0.078638375 0.06546783 -0.043237817 0.043346774
-0.013331722 -0.113051824 -0.095716596 0.07987926 -0.05178984 0.10212963 -0.105510935 0.11851235
-0.04985887 0.07201541 -0.11418088 0.08086201 0.033998597 -0.05995631 0.057608563 -0.0792004
0.082629494 0.00017454401 -0.025935164 0.04453579 -0.05543395 0.06755607 -0.021476394 -0.046372153
-0.10723681 0.12397366 -0.05314053 0.08673816 0.04582979 -0.06485353 0.10076136 -0.06685901
-0.039019965 0.023743642 -0.11888944 -0.018418834 -0.03874567 -0.009649794 -0.039833397 -0.116448686
-0.06912583 -0.0035606406 -0.006859246 -0.03855957 -0.005366878 0.014533708 -0.07294883 -0.051697075
0.10297388 0.07136327 0.094047934 0.090983935 0.096278444 0.12550414 -0.0535437 0.050407317
-0.056736406 -0.06689379 -0.08389455 -0.112339064 0.06641221 0.04290402 0.032911986 -0.06501563
-0.05056059 0.09134785 -0.07426742 0.08266633 -0.059442393 -0.09224141 -0.008466224 0.12088959
0.12100225 -0.117993146 0.01933174 -0.10959982 -0.078222886 0.031129414 -0.016702417 -0.030348958
-0.06528217 -0.03375144 0.021167526 -0.025463834 -0.06519337 -0.0339097 0.12540272 0.033720084
-0.022432495 -0.082056694 -0.040483814 -0.030480726 0.12818585 -0.09465709 -0.07295065 -0.06575121
0.0007243798 0.08455118 -0.03678788 -0.028445305 -0.114189655 0.036815125 0.01755148 -0.045427084
0.11612248 0.09897313 0.0031946145 -0.0486603 -0.0038690772 0.018575672 -0.01909295 0.117505215
0.09110139 -0.05722834 -0.07275869 0.056053672 0.0021000328 -0.031454783 -0.086191684 -0.045247406
0.12120384 0.09325652 -0.027452614 -0.021148385 0.049225207 0.015474783 0.048141852 0.08999606
0.07335627 -0.066631384 0.08715951 0.031228608 -0.07277318 -0.039960787 0.046319257 -0.05179054
-0.086806506 -0.091829866 0.08650074 -0.089656346 -0.13426054 0.082326435 -0.08409664 0.11243438
-0.12812187 0.015638178 0.007874077 0.025571583 0.032735497 -0.12663661 0.04214488 -0.0029227224
-0.02393816 0.0908048 -0.03467797 -0.04586591 -0.09220923 -0.115928374 -0.09363211 0.033705983
0.026275435 -0.032884687 -0.08317443 -0.0048055453 -0.030993208 0.011692776 0.044384073 -0.04674828
-0.033668242 -0.08668857 0.11193585 0.050611537 -0.11054608 0.045936957 0.057967257 0.04940895
-0.021282876 -0.089450486 0.024817389 -0.029539231 -0.04831558 -0.039237883 -0.082997076 0.03590413
0.05320831 0.008074785 0.08809474 -0.06474949 -0.09791198 -0.12955238 -0.11227682 -0.10962284
00000000: ea9c d73d b464 8b3d 53d2 d33d 1e5f fe3d
00000010: 05fd a4bb 7113 36bd 1b9a 3abd 2fc7 233b
00000020: b713 063d d185 03bd 7ffd 9c3d 5a36 03be
00000030: cda6 dabd 9868 4ebd 295e 14bc b2f9 29bc
00000040: d359 17bd a9c6 ddbc dba6 a4bd 27d6 2a3d
00000050: e82a 7c3d 41eb fa3c 3dca 1ebd 1294 44bd
00000060: de11 883d 28d9 acbb 6719 0a3b 9cff 293b
00000070: 740f 80bd 3609 423d fee7 ef3d e199 433d
00000080: 7c5c 24bd 3853 d73c 7df3 99bd 55fd b73d
00000090: 6662 1ebd bec7 a63d f9cc f1bd e6a2 d13d
000000a0: 4b00 d73d adb1 6a3d 9e06 b33d b4b8 6f3d
000000b0: 0a3c c23d 05f6 a73d d27e 37bd a6f0 e5bd
000000c0: b3d4 8b3d bd0f f8bd 081b e43c 0c96 94bd
000000d0: 0cd6 323d 265c 92bb f535 b03d 3472 763d
000000e0: c440 733c 42fe 99bd 54d4 8e3d 9aae ebbc
000000f0: 280d a13d ff13 863d 231a 31bd 638c 313d
00000100: 4b6d 5abc b787 e7bd 1007 c4bd bd97 a33d
00000110: 9521 54bd 5729 d13d 1e16 d8bd 9ab6 f23d
00000120: d138 4cbd d17c 933d aad7 e9bd fb9a a53d
00000130: 1d42 0b3d bf94 75bd f5f6 6b3d d233 a2bd
00000140: a739 a93d cd05 3739 fb75 d4bc 296b 363d
00000150: b60e 63bd d65a 8a3d 43ef afbc baf0 3dbd
00000160: f99e dbbd e7e5 fd3d e2a9 59bd c7a3 b13d
00000170: 05b8 3b3d edd1 84bd f95b ce3d 60ed 88bd
00000180: 66d3 1fbd 0782 c23c 4f7c f3bd 18e3 96bc
00000190: c8b3 1ebd 2b1a 1ebc 5828 23bd a67c eebd
000001a0: d891 8dbd a359 69bb 87c3 e0bb a4f0 1dbd
000001b0: a3dc afbb ca1e 6e3c 3266 95bd 50c0 53bd
000001c0: f8e3 d23d e826 923d 349c c03d c955 ba3d
000001d0: a22d c53d 2884 003e a450 5bbd e777 4e3d
000001e0: 6f64 68bd 9dff 88bd e8d0 abbd 0612 e6bd
000001f0: 2003 883d 20bc 2f3d b8ce 063d ea26 85bd
00000200: 9f18 4fbd 9514 bb3d 8419 98bd f74c a93d
00000210: de79 73bd 10e9 bcbd ebb5 0abc f694 f73d
00000220: 07d0 f73d 64a6 f1bd 995d 9e3c df75 e0bd
00000230: 5233 a0bd 1d03 ff3c 82d3 88bc 619e f8bc
00000240: a9b2 85bd f33e 0abd 8567 ad3c 8899 d0bc
00000250: 1a84 85bd e6e4 0abd 9269 003e 121e 0a3d
00000260: 5ac4 b7bc 570d a8bd 5bd2 25bd b7b2 f9bc
00000270: 2743 033e 94db c1bd 2667 95bd 92a8 86bd
00000280: 4ee4 3d3a 2b29 ad3d e3ae 16bd 2106 e9bc
00000290: 44dc e9bd 75cb 163d 1fc8 8f3c c011 3abd
000002a0: 9fd1 ed3d 6db2 ca3d bd5c 513b 0650 47bd
000002b0: 5890 7dbb 022c 983c d168 9cbc 93a6 f03d
000002c0: 5e93 ba3d 4468 6abd 8202 95bd 8998 653d
000002d0: b4a0 093b bbd6 00bd 4485 b0bd 5855 39bd
000002e0: b839 f83d 46fd be3d 4ee4 e0bc 613f adbc
000002f0: 5fa0 493d f289 7d3c 6430 453d db4f b83d
00000300: d03b 963d 0976 88bd af80 b23d 23d3 ff3c
00000310: 1b0a 95bd ecad 23bd 43b9 3d3d 5122 54bd
00000320: 9cc7 b1bd 4c11 bcbd 4d27 b13d bf9d b7bd
00000330: 987b 09be c39a a83d dc3a acbd ff43 e63d
00000340: 6132 03be a31b 803c 4602 013c 7f7b d13c
00000350: a815 063d 07ad 01be 1ca0 2c3d 258b 3fbb
00000360: f619 c4bc def7 b93d 7d0a 0ebd e4dd 3bbd
00000370: 31d8 bcbd db6b edbd 31c2 bfbd 490f 0a3d
00000380: 953f d73c 18b2 06bd 5b57 aabd d677 9dbb
00000390: 78e5 fdbc 0f93 3f3c 13cc 353d 207b 3fbd
000003a0: b6e7 09bd c789 b1bd 9f3e e53d 0b4e 4f3d
000003b0: fc65 e2bd 6428 3c3d 136f 6d3d 0a61 4a3d
000003c0: 6d59 aebc d131 b7bd d64d cb3c 42fc f1bc
000003d0: 8fe6 45bd e7b7 20bd 5ffa a9bd 3610 133d
000003e0: f5f0 593d 1a4c 043c 046b b43d 619b 84bd
000003f0: 1386 c8bd 61a9 04be 64f1 e5bd f181 e0bd

feature_extract.mlps.1.linears.0.bias f4 [64]
-0.07098067 0.048957214 -0.012834253 0.03290401 -0.049209833 -0.073235005 -0.047191188 0.09905458
0.08981271 0.026097467 0.011045569 -0.015728733 0.09141051 -0.047411863 0.042456344 -0.03771549
0.11854259 0.009734213 0.098416455 0.11404682 -0.05966687 -0.09334381 4.3865348e-05 0.027002411
0.11898749 0.10642103 -0.08119467 0.079004146 0.02132845 -0.070237555 -0.089025274 0.086920485
0.07749167 -0.11193745 -0.07360731 0.063528046 0.054020766 0.04702464 -0.053740878 0.007658983
0.00068586523 0.00085442787 0.03479835 -0.0097561795 0.07649007 -0.12489486 0.10010548 0.11022199
0.014995533 0.069928624 -0.055821918 0.11020484 0.008651739 -0.11250238 0.059421323 0.09813286
0.03622452 0.06329602 -0.0062862104 0.05136236 0.108919576 -0.117025934 -0.07576824 -0.11436507
00000000: 505e 91bd 5c87 483d c246 52bc 5bc6 063d
00000010: 4090 49bd 3cfc 95bd 8c4b 41bd 21dd ca3d
00000020: baef b73d 5bca d53c 79f8 343c 8bd9 80bc
00000030: 6f35 bb3d f132 42bd b4e6 2d3d 8f7b 1abd
00000040: 75c6 f23d 407c 1f3c 918e c93d 6191 e93d
00000050: 3f65 74bd 0a2b bfbd 0ffc 3738 2934 dd3c
00000060: b7af f33d 45f3 d93d 6449 a6bd edcc a13d
00000070: 00b9 ae3c b5d8 8fbd e252 b6bd 5e03 b23d
00000080: f4b3 9e3d 763f e5bd 6ebf 96bd fe1a 823d
00000090: e144 5d3d e99c 403d 651f 5cbd 35f8 fa3b
000000a0: a3cb 333a affb 5f3a b788 0e3d 62d8 1fbc
000000b0: d3a6 9c3d e0c8 ffbd 1a04 cd3d 11bc e13d
000000c0: d3af 753c bd36 8f3d 86a5 64bd 13b3 e13d
000000d0: 06c0 0d3c a667 e6bd c663 733d e2f9 c83d
000000e0: 2a60 143d 58a1 813d 8efc cdbb 5761 523d
000000f0: 3a11 df3d 4bab efbd 612c 9bbd 3c38 eabd

feature_extract.mlps.1.linears.1.weight f4 [64, 64]
-0.019614207 0.085395314 0.05159816 -0.010387112 -0.10217989 -0.0818355 0.09858692 0.091854565
0.05383454 -0.0042153317 -0.0995395 -0.084906384 -0.08776109 0.074832514 -0.043186028 0.07880047
0.12290267 0.08293328 -0.007810395 0.0070125614 0.116137564 -0.10071252 0.079310626 0.10935129
-0.010146929 -0.04518876 -0.11059657 -0.05790664 0.054362264 -0.055281825 0.061658837 -0.037535183
0.079318844 0.017486088 -0.086637564 -0.077802956 -0.0678473 0.10073942 -0.1045015 0.041964654
-0.096008345 0.0663871 -0.017436968 -0.07921129 0.09877655 -0.101470485 0.11950185 0.027803505
0.014825164 -0.066818304 -0.0050633955 0.08417225 0.07767208 0.12377824 -0.012290181 0.023538155
-0.05756684 -0.11407111 0.03888623 -0.12144372 0.0846274 -0.018387793 0.010415071 0.07777119
0.021944607 0.08568702 0.085108556 -0.08665724 -0.11188265 -0.118264735 0.12067983 0.121820986
-0.01302498 0.04148332 0.048306365 -0.1208019 0.04182567 -0.02694331 -0.083806336 0.008322737
0.07894963 -0.097868025 0.034998048 -0.07247618 -0.058503374 -0.03325467 0.065984935 -0.11697654
-0.0347517 0.06579067 0.038163792 0.036234416 0.09193727 -0.036526717 0.03968372 -0.06961083
-0.017467743 0.00737158 -0.0037159787 -0.11148049 0.07217357 0.059136134 0.0585899 0.060122557
-0.03156848 0.014912885 -0.06694236 0.065638274 -0.029945128 0.11358925 -0.08319616 0.12980972
0.106661014 -0.047821656 0.05654085 0.070396885 -0.12387186 0.08627728 0.054607984 -0.10383836
-0.038686074 -0.10212112 -0.044199448 -0.0983217 -0.0787866 -0.049207937 -0.025092848 -0.026510626
-0.019781629 0.09272742 0.058039933 -0.039651144 -0.07034938 0.11003624 0.12093568 -0.019549565
0.010152678 0.06119993 0.033090353 0.056607712 0.09278511 0.027876513 -0.018637149 -0.09020195
0.059068374 -0.03862922 -0.07224275 0.05964867 -0.10771194 0.0777132 -0.0033571536 0.123620085
-0.05370645 0.09301085 -0.015262094 -0.10301202 0.0042489455 -0.019421285 0.042128768 0.017542293
0.016108442 -0.10735751 -0.08640783 -0.08550221 -0.042105816 -0.056970507 -0.036302004 0.073779255
0.06407458 -0.028259547 -0.14248395 0.10816933 0.051674258 -0.120052256 0.08198197 0.093310475
0.09443339 -0.012191799 -0.1136574 -0.018815905 -0.11007254 0.095912196 0.0925062 0.002217299
0.024191784 -0.043546718 -0.04983397 0.07599985 0.09682184 0.04051777 -0.02737048 0.010612315
0.0025247827 -0.012411571 -0.0190053 0.027432926 0.020146523 0.11534661 -0.08814572 -0.047132254
0.033952694 0.10675138 0.11823768 0.07113129 -0.002075301 0.07563546 -0.07813781 0.01339012
-0.036326084 0.06569796 -0.06276195 0.10972673 0.021011122 -0.113887176 0.11455147 0.0023510426
-0.13238962 0.10966404 -0.066686764 -0.006021038 0.1259176 -0.045171387 -0.10192387 0.11089325
-0.09287907 0.1201721 0.10974226 0.08367875 0.065383315 0.02044851 -0.123907715 -0.10801547
0.09333304 0.113088794 0.07667249 -0.10562187 0.0714506 -0.007387899 -0.013771809 -0.11262926
-0.08129937 -0.11543268 0.0264249 0.12841271 -0.059374157 -0.04528851 -0.08671747 -0.11567424
0.09891918 0.069855444 -0.007832911 0.026753724 0.08499694 -0.017969415 -0.088696934 0.0225983
00000000: f9ad a0bc bde3 ae3d 9858 533d b52e 2abc
00000010: b143 d1bd 5f99 a7bd f0e7 c93d 3f1e bc3d
00000020: 9b81 5c3d c420 8abb 5edb cbbd 66e3 adbd
00000030: 16bc b3bd ca41 993d d5e3 30bd 2462 a13d
00000040: 65b4 fb3d ecd8 a93d 58ee ffbb a1c9 e53b
00000050: 88d9 ed3d 5e42 cebd 9c6d a23d 92f3 df3d
00000060: 4e3f 26bc d917 39bd 7480 e2bd 832f 6dbd
00000070: f7aa 5e3d 326f 62bd fa8d 7c3d 7ebe 19bd
00000080: eb71 a23d fc3e 8f3c 096f b1bd 2857 9fbd
00000090: 86f3 8abd 7850 ce3d e204 d6bd 21e3 2b3d
000000a0: 06a0 c4bd f6f5 873d f9d7 8ebc 8739 a2bd
000000b0: 5c4b ca3d c2cf cfbd 63bd f43d 2dc4 e33c
000000c0: 3fe5 723c 09d8 88bd d7ea a5bb 8062 ac3d
000000d0: 8a12 9f3d 727f fd3d c15c 49bc 17d3 c03c
000000e0: 35cb 6bbd 1d9e e9bd 2b47 1f3d 7cb7 f8bd
000000f0: 2151 ad3d ffa1 96bc f9a3 2a3c 8046 9f3d
00000100: 2dc5 b33c ad7c af3d 654d ae3d 5a79 b1bd
00000110: bb22 e5bd c834 f2bd fd26 f73d 487d f93d
00000120: ba66 55bc 6aea 293d e5dc 453d fd66 f7bd
00000130: 6551 2b3d 37b8 dcbc a8a2 abbd 175c 083c
00000140: 58b0 a13d 086f c8bd 1d5a 0f3d 646e 94bd
00000150: 3ca1 6fbd 0d36 08bd 1c23 873d 6591 efbd
00000160: cc57 0ebd 42bd 863d a351 1c3d 8a6a 143d
00000170: 9b49 bc3d 0a9d 15bd 658b 223d 1f90 8ebd
00000180: 8318 8fbc 4c8d f13b c787 73bb e24f e4bd
00000190: bdcf 933d bb38 723d f7fb 6f3d 1243 763d
000001a0: f34d 01bd 2c55 743c 1319 89bd 5c6d 863d
000001b0: 7c4f f5bc 7ba1 e83d c062 aabd d7ec 043e
000001c0: 1771 da3d a4e0 43bd 6197 673d 3e2c 903d
000001d0: 88b0 fdbd 24b2 b03d 9fac 5f3d 35a9 d4bd
000001e0: 4a75 1ebd e124 d1bd 7b0a 35bd e35c c9bd
000001f0: de5a a1bd 438e 49bd 848f cdbc d02c d9bc
00000200: 150d a2bc e0e7 bd3d 48bb 6d3d 3d69 22bd
00000210: 5613 90bd ae5a e13d 20ad f73d 6926 a0bc
00000220: 6b57 263c c7ac 7a3d c089 073d 7ddd 673d
00000230: 1f06 be3d 495d e43c efac 98bc cdbb b8bd
00000240: aef1 713d ac39 1ebd 02f4 93bd 2a52 743d
00000250: 1498 dcbd 1928 9f3d b103 5cbb 872c fd3d
00000260: 4bfb 5bbd 797c be3d dd0d 7abc f7f7 d2bd
00000270: bd3a 8b3b 6319 9fbc 378f 2c3d dbb4 8f3c
00000280: daf5 833c 41de dbbd 97f6 b0bd c81b afbd
00000290: 2677 2cbd e859 69bd 69b1 14bd 9419 973d
000002a0: 8939 833d 9180 e7bc 50e7 11be e287 dd3d
000002b0: 63a8 533d f5dd f5bd 2ae6 a73d 9019 bf3d
000002c0: 4b66 c13d 1cc0 47bc 36c5 e8bd d023 9abc
000002d0: b66d e1bd 9d6d c43d e473 bd3d 1b50 113b
000002e0: d92d c63c 0b5e 32bd b41e 4cbd cfa5 9b3d
000002f0: 874a c63d f6f5 253d 0f38 e0bc 46df 2d3c
00000300: d376 253b e759 4bbc 01b1 9bbc 04bb e03c
00000310: 520a a53c d83a ec3d be85 b4bd c00d 41bd
00000320: fb11 0b3d 78a0 da3d 9926 f23d 48ad 913d
00000330: c601 08bb c4e6 9a3d b706 a0bd 3c62 5b3c
00000340: a9ca 14bd a78c 863d 5689 80bd 68b8 e03d
00000350: 841f ac3c ae3d e9bd f699 ea3d f313 1a3b
00000360: 2591 07be 8a97 e03d 1293 88bd 214c c5bb
00000370: 8bf0 003e a205 39bd 76bd d0bd 001c e33d
00000380: 6237 bebd ca1c f63d 8dc0 e03d c45f ab3d
00000390: b0e7 853d a283 a73c 54c3 fdbd 3737 ddbd
000003a0: 6525 bf3d 199b e73d 7706 9d3d 4750 d8bd
000003b0: b154 923d 3016 f2bb 27a3 61bc 2baa e6bd
000003c0: 4980 a6bd f867 ecbd 0879 d83c 9f7e 033e
000003d0: 5132 73bd 7280 39bd ee98 b1bd 9ee6 ecbd
000003e0: 2496 ca3d 5f10 8f3d 9c55 00bc a02a db3c
000003f0: e012 ae3d 9834 93bc bda6 b5bd 1220 b93c

feature_extract.mlps.1.linears.1.bias f4 [64]
0.07530303 -0.03403522 -0.0927823 0.041499868 0.027127074 0.039069217 -0.020915965 -0.06722273
0.026639484 0.078903526 0.12326828 -0.08931212 -0.030961528 0.0965961 -0.0806363 0.10219938
0.035327706 0.07200179 -0.038242377 0.10164477 -0.1195561 0.08282529 0.009262903 0.03716126
0.065360166 -0.120351925 0.0015737483 0.0027173853 0.037260834 -0.017920883 0.020116428 -0.0059777424
-0.111544006 -0.060092784 0.08760656 -0.100701675 -0.044452593 -0.09619552 -0.0046382584 0.05189314
-0.013600583 0.06264642 -0.0861 -0.08253216 -0.10777024 0.056576975 0.01980433 -0.08299586
-0.117378026 -0.039450366 -0.001363456 0.0829169 -0.079896666 0.080744684 0.049300082 -0.110649414
0.04701091 0.08064416 -0.07164737 0.08770757 0.11538227 -0.09159296 0.08937848 0.077895775
00000000: 7a38 9a3d 8468 0bbd a604 bebd c4fb 293d
00000010: 9939 de3c 0b07 203d f557 abbc 12ac 89bd
00000020: 0c3b da3c 2c98 a13d 1474 fc3d 46e9 b6bd
00000030: 08a3 fdbc 2dd4 c53d a524 a5bd e94d d13d
00000040: c9b3 103d ad75 933d 0aa4 1cbd 222b d03d
00000050: d4d9 f4bd 4ea0 a93d 6ec3 173c 6836 183d
00000060: 8ddb 853d 127b f6bd 3b46 ce3a 2916 323b
00000070: d19e 183d d1ce 92bc 35cb a43c f0e0 c3bb
00000080: 2f71 e4bd da23 76bd 116b b33d ae3c cebd
00000090: ec13 36bd 2802 c5bd 88fc 97bb e78d 543d
000000a0: fbd4 5ebc c44c 803d 3255 b0bd 9f06 a9bd
000000b0: a5b6 dcbd 42bd 673d b13c a23c bcf9 a9bd
000000c0: e463 f0bd b596 21bd feb5 b2ba 56d0 a93d
000000d0: dda0 a3bd 785d a53d e2ee 493d 299c e2bd
000000e0: 838e 403d c428 a53d dbbb 92bd 07a0 b33d
000000f0: 8a4d ec3d 1795 bbbd 110c b73d d287 9f3d

feature_extract.mlps.1.batch_norms.0.weight f4 [64]
0.9969656 0.9941263 1.0045654 1.0010225 1.0079331 1.0084846 1.0074314 0.9959439
0.9814293 1.0076964 1.0078571 1.0094988 0.9844802 0.9951742 0.9870282 0.987346
1.0161197 0.9871345 1.0103575 0.992321 1.0164058 0.98466116 1.0085764 0.99935216
1.0051774 0.993908 1.0016664 0.995937 1.0152849 1.0051563 0.9951347 0.98773354
1.0107639 0.991744 1.0057266 0.99860764 0.99182785 0.99454504 0.991904 0.992957
1.0037209 0.98947996 0.999856 0.9784786 0.9891762 1.0203915 1.0063428 0.9934183
0.9940934 0.99426556 1.0099455 1.0113568 1.010719 1.0130032 0.99738115 1.006469
0.9920988 0.99371105 0.9945172 1.0045563 0.99342185 0.9865279 1.0095062 1.009385
00000000: 2339 7f3f 107f 7e3f 9995 803f 8121 803f
00000010: f403 813f 0616 813f 83f3 803f 2ef6 7e3f
00000020: f33e 7b3f 32fc 803f 7601 813f 4237 813f
00000030: e506 7c3f bdc3 7e3f e1ad 7c3f b5c2 7c3f
00000040: 3610 823f d9b4 7c3f 6553 813f c008 7e3f
00000050: 9619 823f c112 7c3f 0819 813f 8bd5 7f3f
00000060: a7a9 803f c170 7e3f 9b36 803f baf5 7e3f
00000070: dbf4 813f f6a8 803f 26c1 7e3f 1bdc 7c3f
00000080: b660 813f efe2 7d3f a6bb 803f c0a4 7f3f
00000090: 6ee8 7d3f 819a 7e3f 6ced 7d3f 6e32 7e3f
000000a0: ed79 803f 8f4e 7d3f 90f6 7f3f 937d 7a3f
000000b0: a73a 7d3f 309c 823f d7cf 803f a950 7e3f
000000c0: e87c 7e3f 3088 7e3f e545 813f 2474 813f
000000d0: 3d5f 813f 17aa 813f 5f54 7f3f fad3 803f
000000e0: 30fa 7d3f d963 7e3f ae98 7e3f 4d95 803f
000000f0: e550 7e3f 188d 7c3f 8037 813f 8733 813f

feature_extract.mlps.1.batch_norms.0.bias f4 [64]
-0.0003699296 -0.0003938293 -0.0034270894 0.004543024 0.008488689 0.0094313845 0.016179433 -0.004116338
-1.1850002e-05 0.009103467 0.0038271267 0.0063957716 -0.0130473925 2.2357435e-05 0.002674242 -5.1939027e-05
0.012664028 -0.010521487 0.0009753034 0.0035876322 0.006597792 -0.00849309 0.0065603643 0.006697012
0.008217929 -0.0063578677 0.006429328 -0.011852349 0.0083862515 0.006387844 -0.0019564515 -0.010534925
0.0068913754 -0.004874729 0.0070119244 -0.0006748157 -0.010190176 0.0057363957 -0.00065549323 -0.006137418
0.005365804 -0.014227239 -0.005287405 -0.011845579 -0.009380805 0.018553017 0.007929602 0.009129059
-4.6554975e-05 -0.006288382 0.0056574754 0.0069492166 0.0059280973 0.01679105 -0.0011223506 0.013665147
-0.005533191 -0.005719621 -0.008397248 -0.0023581195 -0.0019116328 -0.012073333 0.0134523865 0.004850838
00000000: 1cf3 c1b9 e07a ceb9 0599 60bb a6dd 943b
00000010: 2414 0b3c 1886 1a3c bb8a 843c 59e2 86bb
00000020: 5fcf 46b7 b526 153c 88d0 7a3b 9f93 d13b
00000030: bbc4 55bc 3a8c bb37 5642 2f3b 1bd9 59b8
00000040: c97c 4f3c 5162 2cbc 81ab 7f3a 7b1e 6b3b
00000050: 4a32 d83b 9a26 0bbc 53f8 d63b 9c72 db3b
00000060: 7ea4 063c a955 d0bb 1dad d23b 5b30 42bc
00000070: 7d66 093c 1f51 d13b cf37 00bb ae9a 2cbc
00000080: 0cd1 e13b 31bc 9fbb 49c4 e53b 1de6 30ba
00000090: b2f4 26bc 60f8 bb3b 68d5 2bba 651c c9bb
000000a0: a0d3 af3b 5e19 69bc f841 adbb f613 42bc
000000b0: f3b1 19bc 7ffc 973c 29eb 013c 0c92 153c
000000c0: 0644 43b8 c60e cebb 5862 b93b 41b6 e33b
000000d0: 7c40 c23b 628d 893c d61b 93ba c8e3 5f3c
000000e0: c54f b5bb a96b bbbb 9c94 09bc ae8a 1abb
000000f0: c18f faba 3bcf 45bc 6667 5c3c c7f3 9e3b

feature_extract.mlps.1.batch_norms.0.running_mean f4 [64]
0.742879 -0.2805299 0.14020118 -1.2145929 -0.3633375 -0.20368384 -0.2509415 -0.0054000705
0.7690519 -0.35199142 -0.54506046 -0.48406255 0.07151079 0.05144778 0.44455266 0.7921173
0.42126366 -0.7007008 0.70130885 -0.3796338 0.32274592 -0.4855362 -0.71415883 -1.2918875
-0.3321557 -0.27470613 -0.3942805 0.66619235 -0.66918296 0.10289676 -0.39352188 0.104347974
-0.7946755 -0.584512 -0.4625159 0.30490738 0.087182455 -0.70770794 0.619653 -0.3277332
0.38469216 0.85676193 0.2493287 0.102786236 -0.52108413 -0.5901483 -0.649521 0.17874315
-0.18894787 0.5186002 -0.9143141 -0.12328004 0.85533834 -0.4281545 0.165259 0.32805184
0.7756145 0.07463498 0.7739928 -1.2296487 0.4390715 -0.040558957 0.16069509 0.08012274
00000000: 512d 3e3f 9da1 8fbe e690 0f3e c877 9bbf
00000010: 5f07 babe 7f92 50be 677b 80be 13f3 b0bb
00000020: 96e0 443f 3838 b4be 1589 0bbf 0cd7 f7be
00000030: 4074 923d e8ba 523d 689c e33e 33c8 4a3f
00000040: dfaf d73e 2161 33bf fa88 333f 5d5f c2be
00000050: f43e a53e 3398 f8be 1dd3 36bf 925c a5bf
00000060: 5010 aabe 48a6 8cbe 22df c9be 958b 2a3f
00000070: 934f 2bbf 89bb d23d b37b c9be 64b4 d53d
00000080: db6f 4bbf 94a2 15bf e2ce ecbe d21c 9c3e
00000090: b78c b23d 592c 35bf 94a1 1e3f a5cc a7be
000000a0: 5ff6 c43e c054 5b3f 0650 7f3e 9781 d23d
000000b0: c565 05bf f613 17bf 0247 26bf 7208 373e
000000c0: 8d7b 41be fcc2 043f 7d10 6abf 3f7a fcbd
000000d0: 74f7 5a3f 1137 dbbe a839 293e 69f6 a73e
000000e0: ac8e 463f 39da 983d 6424 463f 2165 9dbf
000000f0: fbcd e03e 2621 26bd 418d 243e 6417 a43d

feature_extract.mlps.1.batch_norms.0.running_var f4 [64]
0.2719731 0.40595427 0.8276727 0.6880267 0.36485195 0.61628187 0.63575435 0.38789782
0.38348758 0.37325835 0.68130577 0.531729 0.26394913 1.2853428 0.30774465 1.062768
0.5468019 0.7260457 0.33959606 0.4234568 0.58562255 0.8988029 0.4490132 0.9957342
0.72024393 1.2478992 1.3497744 0.24249135 0.48358023 1.1664488 0.07876222 0.83696336
0.1866354 0.7122195 0.20283215 0.8318261 0.5041154 0.8137243 0.60334533 0.6361035
0.3807846 0.19025947 0.27484444 0.08603143 0.18992992 0.59958524 0.4001684 0.2511981
1.3171439 0.4956923 0.9335428 0.21163563 0.46290052 0.37325674 0.1422908 0.05669056
0.7994301 0.26966172 0.21737958 0.66146505 0.35561782 0.4863035 0.49450234 0.6450362
00000000: 0f40 8b3e 3dd9 cf3e 5ce2 533f 8522 303f
00000010: e0cd ba3e a6c4 1d3f ccc0 223f 8b9a c63e
00000020: 7c58 c43e b81b bf3e 0e6a 2e3f 641f 083f
00000030: 5724 873e 1d86 a43f b590 9d3e c808 883f
00000040: 36fb 0b3f 22de 393f 89df ad3e 54cf d83e
00000050: 5ceb 153f f217 663f 0fe5 e53e 70e8 7e3f
00000060: e861 383f 29bb 9f3f 68c5 ac3f a74f 783e
00000070: d497 f73e 324e 953f 164e a13d 3b43 563f
00000080: 5a1d 3f3e 0454 363f 3bb3 4f3e 8ef2 543f
00000090: b50d 013f 3c50 503f d774 1a3f aed7 223f
000000a0: 33f6 c23e 61d3 423e 69b8 8c3e 3f31 b03d
000000b0: fd7c 423e 6b7e 193f dfe2 cc3e 0a9d 803e
000000c0: 2c98 a83f 62cb fd3e a9fc 6e3f 03b7 583e
000000d0: 4c01 ed3e 821b bf3e aeb4 113e 5c34 683d
000000e0: 73a7 4c3f 1a11 8a3e c198 5e3e c655 293f
000000f0: 8a13 b63e c6fc f83e 692f fd3e 1821 253f

feature_extract.batch_norms.0.weight f4 [64]
0.99461085 0.9976488 1.0004144 0.9914242 0.9945585 0.9983906 0.9961324 0.9928081
0.99546874 1.005745 0.99483657 1.0024246 0.997049 0.9948988 1.0010705 1.0123868
0.9958559 0.9957394 0.9958935 1.0025375 1.0054663 1.0036726 0.99539304 1.0021176
0.9888979 0.9826385 1.013207 1.0005329 0.99869597 1.0005358 0.9959304 0.99840915
0.99013627 1.0089157 1.0103893 1.0026075 1.0014108 1.0009452 0.9886848 0.9953369
0.99741036 1.0045183 0.99637574 1.0048448 1.0028217 1.005245 1.0047762 1.0145311
1.005267 1.0018167 1.0020338 1.0028628 1.000298 1.0001622 0.99939626 0.997714
0.9929954 1.0161653 1.0049025 1.0139227 1.0041435 0.9934242 1.0098841 1.00228
00000000: d19e 7e3f e965 7f3f 940d 803f facd 7d3f
00000010: 639b 7e3f 8796 7f3f 8802 7f3f ac28 7e3f
00000020: 0ad7 7e3f 41bc 803f 9cad 7e3f 734f 803f
00000030: 9a3e 7f3f b0b1 7e3f 1423 803f e495 813f
00000040: 6af0 7e3f c7e8 7e3f e0f2 7e3f 2653 803f
00000050: 1fb3 803f 5878 803f 14d2 7e3f 6445 803f
00000060: 6a28 7d3f 328e 7b3f c4b0 813f 7611 803f
00000070: 8aaa 7f3f 8f11 803f 4bf5 7e3f be97 7f3f
00000080: 9279 7d3f 2624 813f 7054 813f 7155 803f
00000090: 3b2e 803f f91e 803f 721a 7d3f 66ce 7e3f
000000a0: 4956 7f3f 0e94 803f 7b12 7f3f c19e 803f
000000b0: 765c 803f deab 803f 829c 803f 28dc 813f
000000c0: 97ac 803f 883b 803f a542 803f cf5d 803f
000000d0: c409 803f 5105 803f 6fd8 7f3f 2f6a 7f3f
000000e0: f234 7e3f b411 823f a5a0 803f 38c8 813f
000000f0: c687 803f 0c51 7e3f e243 813f b64a 803f

feature_extract.batch_norms.0.bias f4 [64]
-0.0067490996 -0.0026659027 0.00027114153 -0.004259772 -0.0052427812 -0.0021011892 0.0018905998 -0.009199891
-0.0022996592 -0.016412001 -0.004115985 0.0014056817 -0.002349794 0.00018125275 0.002473201 0.013816334
0.00041790045 -0.001350242 -0.0029350598 -8.731116e-05 0.005859524 -0.0025530797 -0.0037866712 0.0027845157
-0.008892632 -0.006403831 0.014784253 -0.0011544499 -0.005737216 -0.0028561822 9.996894e-05 -0.0038652588
-0.008508278 0.0090385815 0.004256386 -0.0006177228 0.0026613919 0.0037097232 -0.010440145 -0.005634755
0.0017065858 0.0036757179 -0.0029998962 0.005120811 0.0036768264 -0.011208751 0.0016278013 0.010796011
0.00838971 0.0029457905 0.0070114615 0.0027528852 0.003470542 0.010572366 -9.82354e-05 -0.0019632378
-0.0017512547 0.006206841 0.0026844689 -0.0023253714 0.0051758336 -0.0006490715 0.0101684565 0.009004291
00000000: 8d27 ddbb 6db6 2ebb 0028 8e39 8f95 8bbb
00000010: a3cb abbb 1bb4 09bb 01ce f73a 24bb 16bc
00000020: e1b5 16bb 7672 86bc 62df 86bb da3e b83a
00000030: 00ff 19bb aa0e 3e39 6d15 223b e85d 623c
00000040: a619 db39 9afa b0ba 225a 40bb d21a b7b8
00000050: 4001 c03b 9251 27bb cd29 78bb 6c7c 363b
00000060: 67b2 11bc 3ad7 d1bb a739 723c e950 97ba
00000070: 42ff bbbb c92e 3bbb 6aa6 d138 4850 7dbb
00000080: 4e66 0bbc 8f16 143c 2779 8b3b adee 21ba
00000090: bf6a 2e3b d41e 733b 240d 2bbc c0a3 b8bb
000000a0: 84af df3a 50e4 703b e899 44bb 7acc a73b
000000b0: e9f6 703b e9a4 37bc f35b d53a c1e1 303c
000000c0: ff74 093c 2a0e 413b 67c0 e53b c069 343b
000000d0: 0872 633b b837 2d3c bb03 ceb8 aaa9 00bb
000000e0: 5b8a e5ba c262 cb3b eaed 2f3b 4265 18bb
000000f0: 0a9a a93b 7326 2aba 9999 263c bc86 133c

feature_extract.batch_norms.0.running_mean f4 [64]
0.08629248 0.038561642 -0.12344208 0.11012544 -0.06666386 0.021848813 -0.0046368334 -0.035352632
-0.18750876 0.32898384 0.08488122 -0.13786419 0.0682618 -0.0023263036 0.114160195 -0.026536899
-0.03700389 -0.14750673 -0.22492968 0.3615715 -0.08152853 0.43797192 0.3604971 0.18483728
0.0037137985 0.67008364 -0.28451386 0.13416946 -0.027640328 -0.34385762 0.33515838 0.06701069
-0.2678692 -0.30753934 0.096957214 0.035283588 -0.0069046435 -0.31368375 0.35165462 0.14128904
0.01511462 -0.23405541 -0.09331746 -0.102704234 0.11638938 0.25261283 0.1654139 -0.24090943
0.07891679 0.19821246 0.33148432 -0.106623285 -0.14820568 0.17620407 0.19161886 0.32464477
0.056883473 -0.09809651 0.42291793 0.27623513 -0.50183636 -0.12950942 -0.20207155 0.016288571
00000000: 1dba b03d d0f2 1d3d 34cf fcbd 7289 e13d
00000010: 1087 88bd 48fc b23c 94f0 97bb eccd 10bd
00000020: 4c02 40be 9270 a83e 34d6 ad3d 452c 0dbe
00000030: d8cc 8b3d e674 18bb d2cc e93d e963 d9bc
00000040: 6491 17bd 010c 17be f753 66be e61f b93e
00000050: 6ef8 a6bd db3d e03e 1393 b83e fc45 3d3e
00000060: 3363 733b 9a8a 2b3f cdab 91be b863 093e
00000070: f86d e2bc 1b0e b0be e199 ab3e e73c 893d
00000080: 2726 89be cc75 9dbe 8191 c63d 8685 103d
00000090: 5940 e2bb 289b a0be 130c b43e 13ae 103e
000000a0: 50a3 773c 39ac 6fbe 391d bfbd 9956 d2bd
000000b0: 8e5d ee3d 7856 813e 4362 293e f6b0 76be
000000c0: 209f a13d 35f8 4a3e 50b8 a93e 4f5d dabd
000000d0: 3bc3 17be d76e 343e bc37 443e d737 a63e
000000e0: a5fe 683d d3e6 c8bd b388 d83e b16e 8d3e
000000f0: 5978 00bf 1e9e 04be d8eb 4ebe 9c6f 853c

feature_extract.batch_norms.0.running_var f4 [64]
0.008643381 0.034486312 0.07624011 0.022934731 0.13623433 0.06612947 0.08538668 0.08372848
0.13637938 0.032314055 0.34471712 0.04951368 0.17722031 0.10115173 0.1103899 0.062828936
0.016848885 0.10502977 0.13205695 0.40693644 0.031168576 0.11596633 0.03358398 0.033883788
0.057348646 0.17173989 0.15577736 0.044045758 0.03562572 0.052694272 0.22688301 0.060421187
0.21910594 0.40078446 0.041550435 0.060871467 0.053553928 0.04895982 0.07469851 0.0875683
0.105583884 0.100186594 0.028769983 0.2267814 0.027038755 0.079658 0.1659116 0.04713035
0.1965178 0.09276053 0.16219029 0.031002592 0.12221344 0.10284063 0.08237723 0.12343187
0.009766661 0.0677004 0.063922204 0.15104228 0.01286392 0.14634784 0.6679318 0.26389688
00000000: f89c 0d3c 8541 0d3d c623 9c3d 9ee1 bb3c
00000010: 0381 0b3e e36e 873d 36df ae3d d679 ab3d
00000020: 09a7 0b3e be5b 043d c37e b03e dbce 4a3d
00000030: 3e79 353e a328 cf3d 1a14 e23d 75ac 803d
00000040: ac06 8a3c d919 d73d f039 073e f959 d03e
00000050: 3e55 ff3c c17f ed3d 5b8f 093d bac9 0a3d
00000060: 6ae6 6a3d 95dc 2f3e 1a84 1f3e 5369 343d
00000070: 46ec 113d f3d5 573d 0554 683e 357c 773d
00000080: 4f5d 603e 9f33 cd3e ca30 2a3d 5c54 793d
00000090: 5d5b 5b3d 188a 483d 88fb 983d 0257 b33d
000000a0: 5d3c d83d a12e cd3d 07af eb3c 6239 683e
000000b0: 6180 dd3c bc23 a33d bbe4 293e c10b 413d
000000c0: f63b 493e 3cf9 bd3d 3615 263e 26f9 fd3c
000000d0: 0a4b fa3d 1c9e d23d 65b5 a83d d9c9 fc3d
000000e0: 5804 203c 82a6 8a3d a5e9 823d d4aa 1a3e
000000f0: 31c3 523c 35dc 153e 94fd 2a3f 7e1d 873e

feature_extract.batch_norms.1.weight f4 [64]
1.017933 1.0253978 1.0372593 1.0066134 1.0282258 1.0209881 1.0199782 1.0362622
1.0312301 1.0194483 1.0152578 1.0156689 1.0220517 1.0252103 1.0180467 1.0215001
1.0198386 1.0184382 1.0326118 1.011303 1.0208584 1.0002286 1.0194705 1.0289304
1.0176682 1.031092 1.0138794 1.0298008 1.0010278 1.0125803 1.020001 1.02139
0.99631596 1.0129597 1.0078026 1.0216786 0.9990099 1.0137343 1.0250115 1.0184381
1.0313096 1.0248225 1.0212635 1.0362631 1.0348454 1.022511 1.0219415 1.0115492
1.0090054 1.0166718 1.0203686 1.0117726 1.0226249 1.0234708 1.0014625 1.0091689
1.0134007 1.0313324 1.0205185 1.0256199 1.0322841 1.0283054 1.0159273 1.0013682
00000000: a14b 823f 3c40 833f eac4 843f b5d8 803f
00000010: e79c 833f bdaf 823f a58e 823f 3da4 843f
00000020: 59ff 833f 487d 823f f8f3 813f 7001 823f
00000030: 97d2 823f 173a 833f 5b4f 823f 84c0 823f
00000040: 128a 823f 2f5c 823f a02c 843f 6072 813f
00000050: 7dab 823f 7e07 803f 027e 823f feb3 833f
00000060: f442 823f d3fa 833f cdc6 813f 83d0 833f
00000070: ae21 803f 3b9c 813f 658f 823f e8bc 823f
00000080: 900e 7f3f aaa8 813f adff 803f 5dc6 823f
00000090: 1dbf 7f3f 0cc2 813f 9433 833f 2e5c 823f
000000a0: f401 843f 622d 833f c3b8 823f 45a4 843f
000000b0: d075 843f a4e1 823f fbce 823f 727a 813f
000000c0: 1727 813f 4d22 823f 709b 823f c481 813f
000000d0: 5fe5 823f 1701 833f ec2f 803f 722c 813f
000000e0: 1db7 813f b302 843f 5aa0 823f 8347 833f
000000f0: e321 843f 839f 833f e809 823f d52c 803f

feature_extract.batch_norms.1.bias f4 [64]
0.015218457 0.020127809 0.028955754 0.003637972 0.01821189 0.02009483 0.018960044 0.028802453
0.02406256 0.019308427 0.015241034 0.016899107 0.022464368 0.023671271 0.0204854 0.015414281
0.008203159 0.017359648 0.02918357 0.007918869 0.021523306 0.002326546 0.0246292 0.021062596
0.013243699 0.025985498 0.020457134 0.026504753 0.0024417995 0.015107106 0.017104093 0.021442331
-0.004837291 0.011720147 0.004305542 0.005316904 7.9573314e-05 0.011222334 0.00770588 0.019043745
0.02177372 0.01740565 0.016657041 0.014060576 0.025766551 0.016601797 0.019568207 0.010484737
0.012997532 0.01848238 0.014545177 0.011290307 0.02330359 0.0129608065 -0.0018248629 0.009653788
0.013636305 0.02408137 0.0058806795 0.022201175 0.01763228 0.014139202 0.011869424 0.0010676986
00000000: d656 793c 13e3 a43c 9e34 ed3c 0b6b 6e3b
00000010: 1a31 953c ea9d a43c 1852 9b3c 1ff3 eb3c
00000020: d91e c53c b52c 9e3c 88b5 793c ff6f 8a3c
00000030: 3207 b83c 41ea c13c ffd0 a73c 2e8c 7c3c
00000040: 8b66 063c d235 8e3c 6212 ef3c 25be 013c
00000050: a551 b03c f778 183b 2dc3 c93c 778b ac3c
00000060: 1afc 583c 8adf d43c b895 a73c 7f20 d93c
00000070: 9906 203b cc83 773c e21d 8c3c d4a7 af3c
00000080: 2382 9ebb dc05 403c 8115 8d3b 6c39 ae3b
00000090: 99e0 a638 e1dd 373c 9b81 fc3b a101 9c3c
000000a0: cd5e b23c 4b96 8e3c 5974 883c 555e 663c
000000b0: 6014 d33c 7e00 883c 814d a03c 2dc8 2b3c
000000c0: 9af3 543c 5c68 973c e54e 6e3c fbfa 383c
000000d0: 2ce7 be3c 9059 543c 3d30 efba ec2a 1e3c
000000e0: cf6a 5f3c 4b46 c53c b7b2 c03b 3ddf b53c
000000f0: 9271 903c 1da8 673c f977 423c 05f2 8b3a
