SavedNetwork/15_15_1_99.pth (torch_old, 86544 bytes, 30 tensors)

feature_extract.mlps.0.linears.0.weight f4 [64, 2]
0	0xbe970477	-0.29495594
1	0x3ed9ee54	0.42564642
2	0x3eff6a26	0.49885672
3	0xbe746da6	-0.23869953
4	0x3d915d03	0.07097819
5	0xbeda582a	-0.4264539
6	0xbf0a24ab	-0.539622
7	0x3eafd846	0.3434469
8	0x3f009d88	0.50240374
9	0xbcecf39b	-0.028924754
10	0xbf32f109	-0.6989904
11	0xbe46f32b	-0.19428699
12	0xbed9be99	-0.42528227
13	0xbe4243ee	-0.18971226
14	0xbe5b9900	-0.21445084
15	0xbf136d56	-0.5758871
16	0xbeca8cc1	-0.39560512
17	0x3e8c7f17	0.27440712
18	0xbeb7ce0f	-0.35899398
19	0xbea958bb	-0.33075508
20	0xbed1089f	-0.4082689
21	0x3f0ab0b8	0.541759
22	0xbea14272	-0.31496006
23	0xbe5bb650	-0.21456265
24	0xbe0e3127	-0.13885938
25	0x3f2a75ef	0.665862
26	0xbed15b44	-0.40889943
27	0x3e810b76	0.25204057
28	0x3f1c4b62	0.61052525
29	0x3e141dd5	0.14464505
30	0x3f35841a	0.70904696
31	0xbeae21f3	-0.34010276
32	0x3f070890	0.5274744
33	0xbf21e7d8	-0.6324439
34	0x3ec3796b	0.38178572
35	0xbf08468e	-0.5323266
36	0xbf0c40c1	-0.54786307
37	0x3e0915f3	0.13387279
38	0xbb8544bb	-0.004067031
39	0x3e689f51	0.22717024
40	0x3c5e03ea	0.013550738
41	0x3c828481	0.015932323
42	0xbeb3730b	-0.35048708
43	0x3e62090f	0.22073768
44	0xbe57bc28	-0.2106787
45	0x3e15a65e	0.14614245
46	0x3c880dca	0.016608138
47	0xbd3fde80	-0.046843052
48	0xbea1bf02	-0.3159104
49	0x3f00c378	0.5029826
50	0xbf21bfd4	-0.6318333
51	0xbc8f7851	-0.017513426
52	0x3ec1b4a6	0.37833136
53	0xbe394a6a	-0.18094793
54	0x3eedfbe9	0.46481255
55	0xbefd440c	-0.49465978
56	0xbf1bf990	-0.6092768
57	0xbea5fc24	-0.3241893
58	0xbf04e0c9	-0.51905495
59	0xbcc2aa85	-0.02376295
60	0xbe911437	-0.28335735
61	0x3e6865de	0.22695109
62	0x3ed9ca7f	0.42537305
63	0x3e0bc25c	0.13648361
64	0xbcdb1707	-0.026744379
65	0xbe84440b	-0.25833163
66	0xbeb51c43	-0.35373124
67	0x3f0fa61b	0.5611283
68	0x3f05a3a9	0.5220285
69	0x3eb2195c	0.34784973
70	0xbea74bf7	-0.32675144
71	0xbe817634	-0.25285494
72	0x3d9eef39	0.07760472
73	0x3d543d0e	0.05181604
74	0xbd3ea2f3	-0.04654212
75	0xbedca5c0	-0.43095207
76	0xbeef64ee	-0.4675669
77	0x3ebee159	0.37281302
78	0x3ed27abf	0.41109273
79	0x3f0d77c7	0.5526089
80	0x3f299560	0.66243553
81	0xbe254823	-0.16140799
82	0xbd7048a8	-0.05866304
83	0x3ce14d81	0.027502777
84	0x3e111e64	0.1417175
85	0x3e146b5c	0.1449408
86	0x3cb7c7a9	0.022434073
87	0xbeaed1a5	-0.3414432
88	0xbc588292	-0.013214724
89	0x3ec18d02	0.37802893
90	0x3ead3bbf	0.33834645
91	0x3f1fd833	0.6243927
92	0x3ea40eb1	0.3204246
93	0xbf2c22d5	-0.6724065
94	0x3e92ee05	0.2869722
95	0xbf0f1182	-0.5588609
96	0x3f0e6852	0.5562793
97	0xbf0d864e	-0.5528306
98	0xbf0eabb3	-0.5573074
99	0x3e25303c	0.16131681
100	0x3e0c2acf	0.13688205
101	0x3f0231c8	0.5085721
102	0xbeef5378	-0.4674337
103	0x3f0bfeb1	0.54685503
104	0x3df3dd03	0.11907389
105	0xbe0079cf	-0.12546466
106	0xbeff0b14	-0.4981314
107	0x3eb089a5	0.34480014
108	0x3db2b9a9	0.08726818
109	0x3f101e1f	0.5629596
110	0xbecccc89	-0.39999798
111	0x3f1bc313	0.60844535
112	0xbef58372	-0.47951847
113	0xbed29329	-0.411279
114	0x3eca74fc	0.39542377
115	0xbdb6d498	-0.08927268
116	0xbedc1b71	-0.42989686
117	0xbd55c807	-0.052192714
118	0x3f2e1339	0.6799808
119	0xbd314a31	-0.043283645
120	0x3e792720	0.24331331
121	0xbe291cc3	-0.16514878
122	0x3e1f37dc	0.15548652
123	0x3f32009d	0.69532186
124	0x3eaed07f	0.34143445
125	0xbefcb2da	-0.49355203
126	0xbed5f5a5	-0.41788974
127	0xbdd9a34f	-0.10626852

feature_extract.mlps.0.linears.0.bias f4 [64]
0	0x3ea3b4d4	0.31973898
1	0xbec7e7e7	-0.39044115
2	0xbd3de8c2	-0.046364553
3	0x3eb14052	0.34619385
4	0xbeb29379	-0.34878138
5	0xbec49183	-0.38392267
6	0x3c321682	0.010869624
7	0xbf142d3d	-0.5788153
8	0x3e95b00c	0.29235876
9	0xbe458b64	-0.19291455
10	0x3f103d1a	0.56343234
11	0x3d5cb029	0.053878937
12	0x3ead5747	0.3385565
13	0xbdfb6877	-0.122757845
14	0xbe828561	-0.25492385
15	0xbe9c47b8	-0.30523467
16	0x3eaed804	0.34149182
17	0x3f24800b	0.6425788
18	0x3e823f16	0.25438756
19	0xbe2885e5	-0.16457327
20	0x3ebc076e	0.36724418
21	0xbf0910f1	-0.53541476
22	0xbf1ae424	-0.60504365
23	0xbe6b20ab	-0.2296168
24	0x3ea095bf	0.31364247
25	0xbd9781ea	-0.07397826
26	0xbef94f22	-0.48693186
27	0xbf16354d	-0.5867508
28	0x3eb56d38	0.3543489
29	0xbebb8d02	-0.36631018
30	0xbe91855b	-0.28422055
31	0x3f21ffa5	0.6328071
32	0x3dd650ac	0.10464606
33	0xbed3e1ef	-0.4138331
34	0x3d631bfa	0.055446602
35	0x3ec64fa2	0.3873263
36	0xbea8af39	-0.32946184
37	0xbee1aa7b	-0.4407538
38	0xbf29e5b0	-0.663661
39	0xbf1a2fb8	-0.60229063
40	0xbf06c1e3	-0.526396
41	0x3ebb6751	0.36602262
42	0x3d83a9a6	0.06428842
43	0x3e5cc4ec	0.21559495
44	0x3ecdfdb6	0.4023263
45	0x3f23b3ca	0.6394621
46	0xbe43c1eb	-0.19116943
47	0x3f2160b5	0.6303819
48	0x3de682ef	0.11255442
49	0x3f10d9d0	0.56582355
50	0xbf28eecc	-0.65989375
51	0xbe9e7c33	-0.3095413
52	0xbe8751c8	-0.26429582
53	0x3f04310f	0.5163736
54	0x3ed62256	0.4182307
55	0xbf32bf94	-0.69823575
56	0xbecd1859	-0.40057638
57	0xbf0c998b	-0.5492179
58	0xbf3370de	-0.70094097
59	0xbf287702	-0.6580659
60	0x3eadafaf	0.33923098
61	0x3e7daf6a	0.24773946
62	0xbd5e9ab9	-0.054346774
63	0xbd09f5e1	-0.033681754

feature_extract.mlps.0.linears.1.weight f4 [64, 64]
0	0xbd86abe5	-0.06575755
1	0x3d518192	0.05114896
2	0xbded78ac	-0.11595282
3	0xbdc1c04b	-0.09460505
4	0xbde8f235	-0.11374322
5	0xbd6a27f3	-0.057167005
6	0xbdcdde00	-0.10052109
7	0x3d9abb9a	0.075553134
8	0xbdf92abf	-0.12166356
9	0x3c1899f0	0.009314045
10	0x3ce1dbfe	0.02757072
11	0xbab66311	-0.0013915022
12	0x3d68dbb9	0.05685017
13	0x3dee775e	0.11643861
14	0x3d677fa1	0.0565182
15	0x3c879920	0.016552508
16	0xbd77414f	-0.060365018
17	0xbcbb8017	-0.022888226
18	0x3df319d8	0.11870164
19	0x3d2ea432	0.042637058
20	0xbd2859af	-0.041101154
21	0xbc777042	-0.015102448
22	0xbde20be3	-0.110374235
23	0xbdd97fd1	-0.10620082
24	0x3d998695	0.074963726
25	0x3c7f3ffb	0.015579219
26	0x3d9ffb24	0.07811573
27	0x3d85e711	0.06538213
28	0xbca9051f	-0.020632325
29	0x3dd9b55f	0.10630297
30	0x3d16c090	0.036804736
31	0x3da94cdf	0.08266615
32	0x3d965e18	0.07342166
33	0x3ded8703	0.11598017
34	0xbdb5ee67	-0.08883362
35	0xbca12adb	-0.019673755
36	0x3d71c755	0.05902799
37	0xbded652a	-0.11591561
38	0x3cbefdb0	0.023314327
39	0xbde90de1	-0.113796
40	0xbd8ec758	-0.069716156
41	0xbd4d4a21	-0.050119523
42	0xbd8c22dd	-0.06842587
43	0x3cd45e29	0.025923805
44	0x3dc4b758	0.096052825
45	0xbdead7fe	-0.114669785
46	0x3da06761	0.07832218
47	0xbd55e6f7	-0.05222222
48	0xbcceb038	-0.025230512
49	0xbc9ca771	-0.019122811
50	0xbd010caa	-0.031506218
51	0xbb8df517	-0.0043321955
52	0xbd43d42a	-0.047809757
53	0xbdad1581	-0.08451367
54	0xba8ccb46	-0.0010741733
55	0x3d67396f	0.056451257
56	0x3caade5b	0.02085798
57	0x3d6010e4	0.05470361
58	0xbd1464ed	-0.036229063
59	0xb945d1a5	-0.00018865483
60	0x3d892881	0.06697179
61	0x3de486bb	0.1115851
62	0xbe035a11	-0.12827326
63	0x3dbd8234	0.0925335
64	0x3db2a9ce	0.08723794
65	0xbdabafe0	-0.08383155
66	0xbd3748ed	-0.04474728
67	0x3d316b7b	0.043315392
68	0x3d9c596d	0.07634244
69	0xbe009e9e	-0.12560508
70	0x3af6fb90	0.0018843282
71	0xbbf468fd	-0.0074588046
72	0xbc3bf333	-0.011471557
73	0x3dccf487	0.100075774
74	0x3acb2213	0.0015497826
75	0xbd6bb0fe	-0.05754184
76	0x3db15ad5	0.08659903
77	0xbd19bbb9	-0.037532542
78	0x3dacedc4	0.08443788
79	0x3dd83551	0.10557044
80	0x3d355670	0.044271886
81	0xbda27933	-0.07933273
82	0xbd7e0fb4	-0.062026694
83	0xbdcf760a	-0.10129936
84	0xbd894f00	-0.06704521
85	0xbdf9e8ca	-0.12202604
86	0xb9ebb4e8	-0.00044957479
87	0xbd4c08a5	-0.04981293
88	0x3dd3e168	0.10345727
89	0x3ca91aeb	0.020642718
90	0xbd5fcc91	-0.05463845
91	0xbe00003c	-0.1250009
92	0x3d5daaec	0.054118082
93	0xbdedd396	-0.116126224
94	0xbd4cdc7e	-0.050014965
95	0x3d427ad6	0.047480427
96	0x3d63fc93	0.055660795
97	0xbd2a93d0	-0.04164487
98	0x3da64c91	0.08120073
99	0xbd86244f	-0.06549894
100	0xbd9d1674	-0.07670298
101	0x3d9ed243	0.07754948
102	0x3b0b6e2c	0.0021275384
103	0x3d435dca	0.047696866
104	0x3c632e2f	0.0138659915
105	0x3d082427	0.033237603
106	0xbd9c012c	-0.07617411
107	0x3d116812	0.03549964
108	0xbcb23290	-0.021752626
109	0xbdadedd0	-0.08492625
110	0x3deebb04	0.11656764
111	0x3d951a04	0.07280353
112	0xbaf5dfab	-0.0018758675
113	0x3de5c11f	0.112184756
114	0xbdf61e67	-0.120175175
115	0x3da50cd5	0.08059088
116	0xbbbf2e59	-0.0058343825
117	0xbdab97e6	-0.08378582
118	0x3df9e277	0.12201398
119	0x3dd9575c	0.106123656
120	0xbd5ab795	-0.053397734
121	0xbd83777d	-0.06419275
122	0xbd612e5b	-0.05497585
123	0xbd32f82b	-0.043693703
124	0x3d0cf027	0.034408715
125	0x3d4247c6	0.04743173
126	0x3cad55e1	0.021159114
127	0xbe03c708	-0.12868893
128	0xbd981bcc	-0.07427177
129	0xbcf2d818	-0.029644057
130	0xbc61b672	-0.0137764085
131	0xbba5dfa1	-0.005062059
132	0x3bc2d015	0.0059452155
133	0xbc98915c	-0.018624
134	0xbdb9fe5f	-0.090817206
135	0x3d1eec46	0.038799547
136	0xbdc07caf	-0.093987815
137	0xbdc78d81	-0.097437866
138	0x3c78a47f	0.015175938
139	0x3dee28b0	0.11628854
140	0xbd503c13	-0.05083854
141	0xbdcce3c8	-0.10004383
142	0x3b2c4d7c	0.0026291301
143	0x3d820c16	0.063499615
144	0x3d2701c6	0.040773176
145	0x3b1538cd	0.0022769452
146	0xbd97408d	-0.07385359
147	0x3b825ec8	0.003978584
148	0x3c16db0e	0.0092075
149	0xbdd8b517	-0.10581415
150	0x3d4d4162	0.050111182
151	0x3d0ab75a	0.033866264
152	0x3d5ddfbb	0.054168444
153	0x3db55279	0.08853621
154	0xbd2d43d3	-0.04230101
155	0x3d6fecf3	0.05857558
156	0x3dc3ed90	0.09566796
157	0xbdf1deae	-0.11810051
158	0xbdcb5871	-0.09928978
159	0x3c799c20	0.015234977
160	0xbd4f05d4	-0.050542668
161	0x3da651b7	0.081210546
162	0x3e007946	0.12546262
163	0xbc4e5bd3	-0.012595135
164	0x3c5e1875	0.013555636
165	0xbda8214d	-0.082094766
166	0x3df5f407	0.12009435
167	0xbcfe2682	-0.031024221
168	0xbd93b4ae	-0.07212196
169	0xbdf16d47	-0.11788421
170	0xbd9a85b9	-0.07545037
171	0xbc492cd1	-0.0122787515
172	0xbd823faf	-0.06359803
173	0xbb27ad0d	-0.0025585324
174	0x3c161a59	0.009161555
175	0x390ba73a	0.0001331837
176	0x3c300c60	0.010745138
177	0xbc3552aa	-0.011067072
178	0x3d80f212	0.06296171
179	0xbde8af45	-0.11361555
180	0xbda5f5d0	-0.08103526
181	0xbc5efa12	-0.013609426
182	0xbd8bbd9c	-0.068232745
183	0x3dbb0b0d	0.09132967
184	0x3da82561	0.082102545
185	0x3d186fd6	0.03721603
186	0xbd24e152	-0.040253945
187	0x38f8359c	0.00011835547
188	0x3dcd4188	0.10022265
189	0x3bff6d26	0.007794994
190	0x3dd4eb79	0.10396475
191	0x3dd8f4e9	0.10593588
192	0x3cfa3514	0.030542888
193	0x3db48032	0.08813514
194	0xbc0292b3	-0.007969546
195	0xbc0f4655	-0.008744796
196	0xbc05c6b0	-0.008165047
197	0xbdc171c9	-0.09445531
198	0x3dde4d15	0.10854546
199	0x3df89bdf	0.12139105
200	0xbc27f78d	-0.010251892
201	0xbdb2bf45	-0.08727888
202	0xbce9a920	-0.028523028
203	0xbbdc5615	-0.006724129
204	0xbdaf1fa0	-0.08550954
205	0x3d6df9e7	0.058099654
206	0xbd9b53ab	-0.07584318
207	0x3d8618fa	0.06547733
208	0x3cb2ce8d	0.021827007
209	0x3da5cc6d	0.08095632
210	0x3d8cd67b	0.068768464
211	0x3de5ce88	0.11221033
212	0x3ddc9700	0.107709885
213	0x3da2d8c8	0.07951504
214	0xbd8c4beb	-0.06850418
215	0xbd9f63ad	-0.077826835
216	0x3d73e06b	0.059540194
217	0x3df3d8f4	0.11906615
218	0xbda220aa	-0.079163864
219	0xbda58a25	-0.080829896
220	0xbdf3bb7e	-0.11900996
221	0x3d26ceb3	0.040724467
222	0xbd932bef	-0.07186114
223	0xbd7f88c8	-0.062386304
224	0x3d06c1f6	0.03289982
225	0xbd702ae3	-0.05863465
226	0x3dbea7b3	0.0930933
227	0xbc68b1c9	-0.0142025435
228	0x3cd471fa	0.025933255
229	0x3d0d3c4d	0.034481335
230	0x3c969fc2	0.018386725
231	0x3d9bfede	0.076169714
232	0xbde852d0	-0.1134392
233	0x3db3aa00	0.08772659
234	0x3d5cd349	0.053912435
235	0x3c28784d	0.010282588
236	0x3da25acd	0.07927475
237	0x3dce7a8c	0.10081968
238	0xbd8008bd	-0.06251667
239	0x3de86bcb	0.11348685
240	0xbcb9fba7	-0.022703005
241	0xbdd428ad	-0.10359321
242	0x3d78f528	0.060780674
243	0xbd813f73	-0.0631093
244	0x3c0d1dbe	0.008613048
245	0xbda7ab45	-0.08186964
246	0x3cd1b7fb	0.025600424
247	0x3cd832a2	0.026391331
248	0xbdebb894	-0.11509815
249	0xbd63a4ea	-0.055577196
250	0xbd0d8fe3	-0.03456105
251	0xbdc2f97b	-0.09520241
252	0x3cc9b18d	0.024620796
253	0xbd2751b7	-0.040849414
254	0x3baf090d	0.005341655
255	0x3da10ba1	0.07863546

feature_extract.mlps.0.linears.1.bias f4 [64]
0	0x3d274c2e	0.040844135
1	0x3d65d666	0.05611267
2	0x3c2fbf7c	0.010726806
3	0x3dd0eda6	0.10201578
4	0xbdb0c581	-0.08631421
5	0x3cfc58b0	0.030804008
6	0x3cf1383c	0.02944576
7	0x3ca1c898	0.01974897
8	0x3da75656	0.08170764
9	0x3ddea882	0.10871984
10	0x3db1473c	0.08656165
11	0xbc92b4ba	-0.017908443
12	0x3ddbd4df	0.10733961
13	0x3d4d70fc	0.05015658
14	0x3d1ef463	0.038807284
15	0xba365f91	-0.00069569895
16	0xbd850c73	-0.06496515
17	0x3d9544d7	0.07288521
18	0x3d0447e4	0.032295123
19	0x3cc7d7f9	0.024394976
20	0xbd15c653	-0.03656609
21	0x3ddeeaca	0.10884626
22	0x3db5b295	0.088719524
23	0x3dec3259	0.115330406
24	0xbcd2ad39	-0.025717365
25	0x3d54316c	0.051804945
26	0xbd3fc60f	-0.046819743
27	0x3dc3d9b6	0.095630094
28	0x3ddfec2f	0.1093372
29	0x3d114454	0.035465553
30	0x3ddac6ad	0.10682426
31	0xbdc15d93	-0.09441676
32	0x3d0928ff	0.033486363
33	0x3d875d37	0.06609576
34	0xbdab5d18	-0.083673656
35	0xbb1ea3a0	-0.0024206415
36	0x3d80716f	0.06271636
37	0xbd176091	-0.036957327
38	0xbdb161d8	-0.0866124
39	0x3d8c5396	0.0685188
40	0xbdc17e21	-0.09447885
41	0xbc20ac1e	-0.009806661
42	0x3df01f20	0.117246866
43	0xbd04df8b	-0.03243975
44	0xbbae203e	-0.005313902
45	0x3cdbfa38	0.026852712
46	0xbde27578	-0.11057562
47	0xbde26e4b	-0.11056193
48	0xbd396937	-0.045266356
49	0x3ce107dc	0.027469568
50	0x3dfd08e0	0.123552084
51	0x3d219139	0.039445136
52	0xbe006860	-0.12539816
53	0x3dbc9002	0.09207155
54	0xbd50117c	-0.050797924
55	0x3c3a0283	0.011353138
56	0x3db2ce5f	0.087307684
57	0x3d8f0c34	0.069847494
58	0x3d5da5bf	0.054113146
59	0x3ce98529	0.028505879
60	0xbdcdd4d2	-0.10050358
61	0xbcdfc589	-0.027315872
62	0x3dd9c98b	0.106341444
63	0xbdf935a3	-0.121684335

feature_extract.mlps.0.batch_norms.0.weight f4 [64]
0	0x3f7f0ddb	0.99630517
1	0x3f7d3a17	0.98916763
2	0x3f80839c	1.0040164
3	0x3f808f4d	1.0043732
4	0x3f7ba027	0.9829125
5	0x3f80b284	1.0054479
6	0x3f803e7d	1.001907
7	0x3f814312	1.0098593
8	0x3f7f757f	0.9978866
9	0x3f7f07c8	0.9962125
10	0x3f810acd	1.0081421
11	0x3f81329b	1.0093569
12	0x3f7ea4e6	0.99470365
13	0x3f8045c6	1.0021293
14	0x3f803269	1.0015384
15	0x3f8085d4	1.0040841
16	0x3f803f60	1.001934
17	0x3f7cd260	0.98758507
18	0x3f809987	1.0046853
19	0x3f80bf16	1.0058315
20	0x3f7fd9a8	0.9994149
21	0x3f80563c	1.0026317
22	0x3f7d8df8	0.9904475
23	0x3f80b2da	1.0054581
24	0x3f7f9340	0.9983406
25	0x3f7f6e93	0.997781
26	0x3f80f7b4	1.0075593
27	0x3f7fa000	0.99853516
28	0x3f811128	1.0083361
29	0x3f7f6db8	0.9977679
30	0x3f7fe01f	0.99951357
31	0x3f7ea422	0.99469197
32	0x3f7facfb	0.9987332
33	0x3f7feee8	0.99973917
34	0x3f7fc2ec	0.999068
35	0x3f810e7b	1.0082544
36	0x3f7e8f76	0.99437654
37	0x3f80c0a0	1.0058784
38	0x3f7fda4d	0.99942476
39	0x3f80db2e	1.0066888
40	0x3f7f686a	0.997687
41	0x3f80afc3	1.0053638
42	0x3f806fb8	1.0034094
43	0x3f814293	1.0098442
44	0x3f7fbca2	0.99897206
45	0x3f801c5b	1.0008653
46	0x3f80adc3	1.0053028
47	0x3f809e33	1.0048279
48	0x3f7d5847	0.98962826
49	0x3f7d2b86	0.98894536
50	0x3f8049b7	1.0022496
51	0x3f7f195e	0.9964808
52	0x3f7fc9c1	0.9991723
53	0x3f80a510	1.0050373
54	0x3f7e4df4	0.993377
55	0x3f8056e5	1.0026518
56	0x3f7ee813	0.9957287
57	0x3f80cd4c	1.0062652
58	0x3f7e3d56	0.9931234
59	0x3f7e7208	0.9939275
60	0x3f7f9cc7	0.998486
61	0x3f7f13aa	0.9963938
62	0x3f7f77e5	0.9979232
63	0x3f7ef841	0.99597555

feature_extract.mlps.0.batch_norms.0.bias f4 [64]
0	0x3bbf0576	0.0058295084
1	0x3b3be401	0.0028669836
2	0xbaae5328	-0.0013299929
3	0x3bb0d576	0.0053965403
4	0x39f5c19b	0.0004687429
5	0x3bf9cdaa	0.007623394
6	0x3b5eb062	0.0033979644
7	0x3bbc466d	0.0057457
8	0x3bef7f8b	0.0073089055
9	0xbb4d8029	-0.0031356907
10	0x3b9aebdb	0.004727823
11	0x3c68a40d	0.014199269
12	0xbb5fd808	-0.0034155864
13	0x3b8325e5	0.00400232
14	0x3b0be7fa	0.0021347986
15	0x3c3a69fd	0.011377809
16	0x3b37db45	0.0028054279
17	0xbca8ceaa	-0.020606358
18	0x3bd71709	0.0065640253
19	0xb8d75c8f	-0.00010269239
20	0xbbe7ecbb	-0.007077781
21	0xbbaa3e60	-0.005195424
22	0xbc2e77f7	-0.010648719
23	0x3c1a435d	0.009415475
24	0x38f085ea	0.00011469035
25	0xbb10176b	-0.0021986614
26	0x3babcc08	0.0052428283
27	0x3ac24491	0.001482146
28	0xb9d391ca	-0.00040353677
29	0x3bd9a4e2	0.00664197
30	0xbc15a9af	-0.009134694
31	0x3b0478d1	0.0020213614
32	0xbb851432	-0.0040612454
33	0xba9b9ff6	-0.0011873234
34	0x3c2f1aff	0.010687589
35	0x3bd9a5fe	0.0066421023
36	0x3a8794df	0.001034405
37	0x3bc522b8	0.0060161017
38	0xbb336d64	-0.0027378434
39	0xbb06b7a2	-0.002055623
40	0xbb823861	-0.003974006
41	0x3b1e3b9a	0.0024144412
42	0x3bac84b2	0.005264842
43	0x3a46202b	0.0007557894
44	0x3a67abe2	0.0008837563
45	0x3bcc883c	0.0062418263
46	0x3ba5cf34	0.005060101
47	0x3bb5add4	0.0055444036
48	0xbb941a36	-0.004519726
49	0x3b1ad9a4	0.002362826
50	0x3afb8bed	0.0019191481
51	0x3b73ddc4	0.003721104
52	0xbb8fa7c7	-0.0043840143
53	0xbb9f6438	-0.004864242
54	0xbb558cd7	-0.0032585168
55	0x3c711149	0.014713594
56	0xb99bd390	-0.0002972153
57	0xbb18b308	-0.002330007
58	0x399f0cb4	0.00030336308
59	0xbb8eaa15	-0.0043537715
60	0x3bb5ec5a	0.005551857
61	0x3c4a8a69	0.012362101
62	0x3c19cf8f	0.009387865
63	0xbad86ace	-0.0016511322

feature_extract.mlps.0.batch_norms.0.running_mean f4 [64]
0	0x3f67ae58	0.905004
1	0xbd5266f8	-0.05136773
2	0xbf8a8186	-1.0820777
3	0x3e5bfb7c	0.21482652
4	0x3f13a4be	0.5767325
5	0xc0146f47	-2.3192918
6	0xbfae9bc7	-1.364129
7	0xc0264c73	-2.598416
8	0x3e845d55	0.25852457
9	0xbfe9926e	-1.8247812
10	0x3f9f0de2	1.2426112
11	0xbf95a0fb	-1.1689752
12	0x3ff32668	1.8996096
13	0xbe7ad893	-0.24496679
14	0x3faee361	1.366314
15	0x3e329a4f	0.17441677
16	0xbeb2fc9e	-0.34958357
17	0xbd822527	-0.063547425
18	0xbef1cc00	-0.47225952
19	0x3ee8cac2	0.45467192
20	0x3ee0710c	0.43836248
21	0xbf208eed	-0.6271809
22	0xbf1f7fa3	-0.62304133
23	0xbea6c897	-0.32574913
24	0x3f8907fd	1.0705563
25	0xbfb18121	-1.3867532
26	0xbe6b10b2	-0.22955588
27	0xbf82e7d6	-1.0227001
28	0xbfe14fa9	-1.7602435
29	0xbfbc3e73	-1.4706558
30	0xbe65e056	-0.22448859
31	0x3fee34ac	1.8609824
32	0xbf298da9	-0.6623178
33	0x3edb1fe0	0.42797756
34	0x4003e3e5	2.0607846
35	0xbf77023e	-0.96487796
36	0xbcfe6fd5	-0.031059185
37	0xbfdcae41	-1.7240678
38	0xbf11d9f5	-0.569732
39	0x3fdf8e80	1.7465363
40	0x3eb4fc11	0.3534856
41	0x3ea62fc0	0.32458305
42	0x3f3f8892	0.74817765
43	0xbf2eb76f	-0.6824865
44	0x3fb5bf34	1.4198976
45	0x40429f12	3.040959
46	0xbfb4170c	-1.4069533
47	0xbead7260	-0.33876324
48	0xbe9a1d8a	-0.30100662
49	0xbdd4d97b	-0.103930436
50	0x3f826095	1.0185724
51	0x3e87d701	0.26531222
52	0xbebeb973	-0.37250862
53	0x3ef18c49	0.47177342
54	0x40097286	2.147615
55	0x3e3a063f	0.18166445
56	0xc01fbec4	-2.4960184
57	0xbb91f44a	-0.0044541704
58	0xbfda49e9	-1.7053806
59	0x3f1549a5	0.583155
60	0x3ebd7698	0.37004542
61	0x401eab0e	2.4791903
62	0xbf3bf06e	-0.7341374
63	0xbf94eb7e	-1.1634367

feature_extract.mlps.0.batch_norms.0.running_var f4 [64]
0	0x3e272534	0.16322786
1	0x3ea802cf	0.32814643
2	0x3da0e838	0.07856792
3	0x3ec9de1d	0.3942727
4	0x3eac0b5f	0.33602425
5	0x3f35b564	0.70979905
6	0x3e8f9be4	0.28048623
7	0x3e75f682	0.24019817
8	0x3e5be8ae	0.21475479
9	0x3e817914	0.25287688
10	0x3e96b329	0.29433563
11	0x3e2fb094	0.17157203
12	0x3e48b5de	0.19600627
13	0x3e66d787	0.22543155
14	0x3f08b35d	0.53398687
15	0x3f29bb9a	0.6630188
16	0x3eec2d1e	0.46128172
17	0x3e8873c3	0.2665082
18	0x3ec8c63c	0.3921374
19	0x3cb7bb6f	0.022428242
20	0x39d9f183	0.00041569406
21	0x3e2a133e	0.16608903
22	0x3d79792a	0.060906567
23	0x3a93cee1	0.0011276865
24	0x3e4ffe07	0.20311747
25	0x3f0a409b	0.5400483
26	0x3e414374	0.18873388
27	0x3eac8a70	0.3369937
28	0x3f190dbd	0.5978659
29	0x3ebb58d2	0.36591202
30	0x3de88883	0.113541625
31	0x3e88afae	0.26696533
32	0x3d036dae	0.03208702
33	0x3e81f6ba	0.2538355
34	0x3eef8a20	0.4678507
35	0x3e463e6a	0.19359747
36	0x3c298391	0.010346309
37	0x3db7d03d	0.08975265
38	0x3e9e1c76	0.3088109
39	0x3ed7e0a6	0.4216358
40	0x3f12c4c5	0.57331496
41	0x3b9487d5	0.004532794
42	0x3d2abef9	0.041686032
43	0x3d4c0b3a	0.049815394
44	0x3d7c73c2	0.061633833
45	0x3ec32809	0.38116482
46	0x3e8f0ad6	0.27937955
47	0x3e523a65	0.20530088
48	0x3ef002cf	0.46877143
49	0x3ecf888b	0.40533862
50	0x3e20f93c	0.15720075
51	0x3eb6f309	0.35732296
52	0x3cb45b98	0.022016332
53	0x3eae44c4	0.3403684
54	0x3e26485c	0.1623854
55	0x3ea05160	0.31312084
56	0x3edf2997	0.43586418
57	0x3e515aff	0.20444869
58	0x3e82f000	0.2557373
59	0x3f1d6d1b	0.61494607
60	0x3da5c386	0.08093934
61	0x3e8bfd07	0.27341482
62	0x3e6043b6	0.2190083
63	0x3e80d67a	0.25163633

feature_extract.mlps.1.linears.0.weight f4 [64, 64]
0	0x3ddb8e2b	0.10720476
1	0x3d87c974	0.06630221
2	0x3dceb7a4	0.100936204
3	0x3dfae7bd	0.12251232
4	0xbbe7d03e	-0.007074385
5	0xbd4a2c44	-0.04935862
6	0xbd544b47	-0.051829603
7	0x3b8a903b	0.0042286194
8	0x3d18a162	0.03726328
9	0xbd149256	-0.03627237
10	0x3d8e1ab1	0.06938685
11	0xbe01a4c1	-0.12660505
12	0xbddfdd44	-0.10930875
13	0xbd32c712	-0.04364688
14	0xbb99d967	-0.004695106
15	0xbbed62c0	-0.007244438
16	0xbd13eda0	-0.03611529
17	0xbcf6fd9a	-0.030150224
18	0xbda7cb4a	-0.08193071
19	0x3d2187f4	0.039436296
20	0x3d843a47	0.06456428
21	0x3cd161fe	0.025559422
22	0xbd19a075	-0.03750654
23	0xbd4cd906	-0.050011657
24	0x3d8a9dff	0.067684166
25	0xbc836546	-0.016039502
26	0x3b695b0f	0.0035607254
27	0xbb25be4a	-0.0025290423
28	0xbd66ec3b	-0.05637763
29	0x3d1b8fe0	0.037979007
30	0x3de5271e	0.11189102
31	0x3d514c12	0.051097937
32	0xbd2053cc	-0.039142415
33	0x3cec9071	0.028877469
34	0xbd9db07c	-0.07699677
35	0x3dc1944e	0.09452115
36	0xbd3232a2	-0.04350532
37	0x3db86a92	0.09004702
38	0xbdefb501	-0.11704446
39	0x3dd559ef	0.10417544
40	0x3dec8ac2	0.115499035
41	0x3d815e54	0.0631682
42	0x3dc510cd	0.09622345
43	0x3d6d2d85	0.05790474
44	0x3db33e2b	0.08752092
45	0x3da052af	0.07828271
46	0xbd25e757	-0.040503826
47	0xbdce7cb0	-0.10082376
48	0x3d82803a	0.063721135
49	0xbdff0706	-0.124525115
50	0x3cce61fa	0.025193203
51	0xbd9212c0	-0.071324825
52	0x3d25b179	0.040452454
53	0xbb5205a7	-0.0032046826
54	0x3dab1511	0.083536275
55	0x3d68297d	0.05668019
56	0x3c08a6f4	0.008340586
57	0xbd9a93ef	-0.07547747
58	0x3d88e575	0.066843905
59	0xbc9db07a	-0.01924919
60	0x3dab0ea1	0.083523996
61	0x3d88424e	0.066532716
62	0xbd2a020e	-0.041505866
63	0x3d2f8bed	0.042858053
64	0xbcd4ff4c	-0.026000641
65	0xbdc49567	-0.09598809
66	0xbd9eeaa3	-0.07759597
67	0x3d9404f7	0.072275095
68	0xbd584ddf	-0.05280864
69	0x3da73a99	0.081654735
70	0xbdc23c7c	-0.09484193
71	0x3de322cc	0.11090621
72	0xbd713fc6	-0.05889871
73	0x3db23743	0.087019466
74	0xbdbf572c	-0.093427986
75	0x3da9c13a	0.08288808
76	0x3d5d27ae	0.05399292
77	0xbd62d255	-0.05537637
78	0x3d8b7fc1	0.068114765
79	0xbd934365	-0.07190589
80	0x3d9b3352	0.07578148
81	0xbac2c410	-0.0014859457
82	0xbd080ae6	-0.03321352
83	0x3d5e60a8	0.054291397
84	0xbd89771a	-0.0671217
85	0x3d9b87e8	0.075942814
86	0xbc5ed4e7	-0.013600565
87	0xbd489174	-0.04896684
88	0xbd9b375b	-0.075789176
89	0x3dd299b6	0.10283224
90	0xbd69b218	-0.05705461
91	0x3da95509	0.08268172
92	0x3d0c54e2	0.034260638
93	0xbd807744	-0.06272748
94	0x3dfd97ab	0.12382444
95	0xbd86d8aa	-0.06584294
96	0xbced176b	-0.02894183
97	0x3cbe6b89	0.023244636
98	0xbdfad375	-0.122473635
99	0xbcda5378	-0.02665113
100	0xbd006ad5	-0.031351883
101	0xbd10f56a	-0.035390295
102	0xbd380005	-0.044921894
103	0xbdefe601	-0.11713792
104	0xbda39baa	-0.07988675
105	0xbb933d89	-0.0044934195
106	0xbd20f86c	-0.039299414
107	0xbd1d2811	-0.03836829
108	0xbbc8c2b7	-0.0061267274
109	0x3ce07dca	0.02740373
110	0xbda040bf	-0.07824849
111	0xbd9182ee	-0.07105051
112	0x3de8638d	0.11347113
113	0x3db837be	0.08995007
114	0x3db14103	0.08654978
115	0x3db0924d	0.08621655
116	0x3dbea322	0.09308459
117	0x3e0ead35	0.1393326
118	0xbd4465d4	-0.047948673
119	0x3d6ca7e6	0.057777308
120	0xbd7a33b1	-0.061084453
121	0xbd5c1927	-0.053734925
122	0xbdbd4000	-0.09240723
123	0xbde9b410	-0.11411297
124	0x3d7f7221	0.0623647
125	0x3d0d1a06	0.034448646
126	0x3cfa9837	0.03059016
127	0xbd8e9fef	-0.06964099
128	0xbd69b004	-0.057052627
129	0x3d9a17d1	0.07524074
130	0xbd80381c	-0.06260702
131	0x3d9286cf	0.07154619
132	0xbd927d85	-0.07152847
133	0xbdde0fdc	-0.10842869
134	0x3aedabde	0.0018132885
135	0x3de559b9	0.11198754
136	0x3de6b357	0.11264675
137	0xbdf2b863	-0.11851575
138	0x3c5e37ee	0.013563139
139	0xbe01dd00	-0.12681961
140	0xbdc244ff	-0.09485816
141	0x3d0ce5ac	0.03439872
142	0xbb74058b	-0.003723475
143	0xbcf26199	-0.029587554
144	0xbd9c21b9	-0.076236196
145	0xbcc58460	-0.024110973
146	0x3c7e81d7	0.015533886
147	0xbbbbb262	-0.005728052
148	0xbd4760d6	-0.048676334
149	0xbd4fd442	-0.050739534
150	0x3df046f6	0.11732285
151	0x3ce3f2ed	0.027825797
152	0xbcb32d83	-0.021872288
153	0xbda9fd87	-0.0830031
154	0xbd3b2f69	-0.04569951
155	0xbc65fa34	-0.014036704
156	0x3de78547	0.113047175
157	0xbdbb08e1	-0.09132553
158	0xbd87bb21	-0.06627489
159	0xbd89257d	-0.066966034
160	0xbcc499e5	-0.023999164
161	0x3d825fef	0.06365954
162	0xbd3b33c9	-0.045703683
163	0xbd0df0dd	-0.034653533
164	0xbdec7c6a	-0.115471676
165	0x3d43fa5a	0.047846176
166	0x3c5ae8cd	0.013361168
167	0xbd3a9642	-0.045553453
168	0x3dfe770e	0.12425052
169	0x3db2cc91	0.08730424
170	0x3b258c19	0.0025260507
171	0xbd15ea46	-0.036600374
172	0x3c697c18	0.014250778
173	0x3c2cbfcf	0.010543778
174	0xbc03f0ce	-0.008053018
175	0x3e05a948	0.13052857
176	0x3da04554	0.07825723
177	0xbd858f9a	-0.065215304
178	0xbd9f9c05	-0.0779343
179	0x3d511bcd	0.051051904
180	0xbbff654b	-0.0077940575
181	0xbc845398	-0.016153142
182	0xbdc48c67	-0.09597092
183	0xbd7931da	-0.060838558
184	0x3e02e0e4	0.12781101
185	0x3dc4cc7a	0.09609313
186	0xbd12c39b	-0.035831075
187	0xbc229f72	-0.00992571
188	0x3d66894f	0.05628329
189	0x3c33d33d	0.010975656
190	0x3d0341a4	0.03204502
191	0x3db0a096	0.08624379
192	0x3d998478	0.074959695
193	0xbd85fb80	-0.065421104
194	0x3db25453	0.0870749
195	0x3cff6707	0.031177057
196	0xbd8dfe92	-0.06933321
197	0xbd24ccc1	-0.04023433
198	0x3d26dac1	0.040735964
199	0xbd496302	-0.049166687
200	0xbda6e03e	-0.081482396
201	0xbdb16908	-0.08662611
202	0x3db0032a	0.085943535
203	0xbdab378b	-0.08360203
204	0xbe075d64	-0.1321922
205	0x3d9dd1bd	0.0770602
206	0xbdbbaa62	-0.09163357
207	0x3df03f81	0.117308624
208	0xbe072cee	-0.13200733
209	0x3c8db992	0.0173004
210	0x3c44094b	0.011965106
211	0x3ca0cd4a	0.01962914
212	0x3cfbc44b	0.030733248
213	0xbdfbb7ce	-0.12290917
214	0x3d33cf9b	0.04389916
215	0xbbab390c	-0.0052253064
216	0xbca49d82	-0.020094637
217	0x3dc2482c	0.09486422
218	0xbcfdc2d4	-0.03097669
219	0xbd3d4e79	-0.046217415
220	0xbde016dc	-0.1094186
221	0xbdf82ffb	-0.121185265
222	0xbdbed684	-0.09318259
223	0x3cbdec1e	0.023183879
224	0x3ce751b5	0.028237203
225	0xbce7cd1f	-0.028296052
226	0xbd972f4b	-0.07382067
227	0xbb7830d9	-0.0037870912
228	0xbd0f70c4	-0.03501965
229	0x3c1145c1	0.008866728
230	0x3d353f92	0.04425008
231	0xbd27cd54	-0.0409673
232	0xbd223aaa	-0.039606728
233	0xbdb2790a	-0.087144926
234	0x3de0b009	0.10971076
235	0x3d27f6db	0.041006904
236	0xbdebdbee	-0.11516558
237	0x3d393494	0.045216158
238	0x3d597077	0.05308577
239	0x3d46cafb	0.04853342
240	0xbcc27a65	-0.023740003
241	0xbdb82044	-0.08990529
242	0x3d014760	0.03156221
243	0xbcf08dd5	-0.029364506
244	0xbd2a47a4	-0.041572228
245	0xbd39f3c9	-0.045398507
246	0xbda112fc	-0.07864949
247	0x3d0fe9f6	0.035135232
248	0x3d6fd539	0.058552954
249	0x3b9b7176	0.00474375
250	0x3dbf7eb8	0.093503416
251	0xbd8dd0c3	-0.06924584
252	0xbdccf71f	-0.10008072
253	0xbe01f27d	-0.12690158
254	0xbdda50bb	-0.10659929
255	0xbdd528bb	-0.10408159

feature_extract.mlps.1.linears.0.bias f4 [64]
0	0xbd90d151	-0.07071174
1	0x3d3e4e34	0.0464613
2	0xbc360664	-0.011109922
3	0x3d0b35d0	0.033986866
4	0xbd52fd58	-0.05151114
5	0xbd993597	-0.074809246
6	0xbd346237	-0.044038977
7	0x3dc6f020	0.09713769
8	0x3db5070e	0.08839236
9	0x3cf44262	0.02981681
10	0x3c31ae2a	0.010844747
11	0xbc810147	-0.01574768
12	0x3dbaab27	0.09114676
13	0xbd3d50c7	-0.046219613
14	0x3d284dd4	0.041089848
15	0xbd1d7a96	-0.038446985
16	0x3deaf33d	0.11472175
17	0x3c2b9720	0.010473043
18	0x3dcc322c	0.09970507
19	0x3de7afce	0.11312829
20	0xbd75bd89	-0.059995208
21	0xbdc0334b	-0.09384783
22	0x3a6fbc13	0.00091451517
23	0x3ce65026	0.02811439
24	0x3df88ea0	0.121365786
25	0x3ddc1101	0.10745431
26	0xbda5a85e	-0.08088754
27	0x3da6452e	0.08118664
28	0x3cac6c7a	0.02104782
29	0xbd8fae61	-0.07015682
30	0xbdb7c4f1	-0.089731105
31	0x3db3dc32	0.08782233
32	0x3da35759	0.079756446
33	0xbde037c2	-0.10948135
34	0xbd9b27b5	-0.07575933
35	0x3d819190	0.06326592
36	0x3d56bd0e	0.05242639
37	0x3d48cd3b	0.049023848
38	0xbd6643c0	-0.056216955
39	0x3bc990d1	0.0061512967
40	0x3988e8a2	0.00026113266
41	0x3a062209	0.0005116766
42	0x3d0e1b60	0.034694076
43	0xbc1d4b62	-0.009600492
44	0x3d9df744	0.07713178
45	0xbdfef4c1	-0.12449027
46	0x3dcdbe85	0.10046104
47	0x3de27c91	0.110589154
48	0x3c7c6b71	0.015406475
49	0x3d8fbcfa	0.07018466
50	0xbd64bbf7	-0.05584332
51	0x3de544c4	0.111947566
52	0x3c3c880d	0.011507046
53	0xbde86cc0	-0.113488674
54	0x3d6c5ab5	0.057703692
55	0x3dc9aec4	0.09847787
56	0x3d15538a	0.036456622
57	0x3d7fc773	0.06244607
58	0xbbc30797	-0.0059518325
59	0x3d5cb53a	0.05388377
60	0x3dde258d	0.10847006
61	0xbdf0d5fc	-0.11759564
62	0xbd97f41c	-0.07419607
63	0xbdecad10	-0.115564466

feature_extract.mlps.1.linears.1.weight f4 [64, 64]
0	0xbb256303	-0.0025236018
1	0x3db055e4	0.08610132
2	0x3d75d585	0.06001808
3	0xbc107b51	-0.008818463
4	0xbdc0ee1f	-0.09420418
5	0xbd977147	-0.07394653
6	0x3dcaa418	0.0989458
7	0x3dafc5f5	0.08582679
8	0x3d8a4db8	0.06753105
9	0xbad923f4	-0.0016566501
10	0xbdc4d510	-0.09610951
11	0xbda78a6f	-0.08180701
12	0xbda3ebe8	-0.0800398
13	0x3d951408	0.07279211
14	0xbd4c0c8b	-0.04981665
15	0x3db14cff	0.08657264
16	0x3e068900	0.13138199
17	0x3da5adea	0.08089812
18	0xbc800757	-0.0156285
19	0x3c5eac48	0.01359088
20	0x3dffba6f	0.12486731
21	0xbdbc41ab	-0.09192213
22	0x3da125d4	0.07868543
23	0x3deb5cfc	0.11492345
24	0xbcbade6d	-0.022811139
25	0xbd139d45	-0.036038656
26	0xbdf835d9	-0.121196456
27	0xbd82a564	-0.06379202
28	0x3d6ec275	0.058290917
29	0xbd16e911	-0.036843363
30	0x3d82c370	0.06384933
31	0xbd1e8e5c	-0.038709983
32	0x3dab0204	0.08349994
33	0x3c71a860	0.014749616
34	0xbdb681e1	-0.08911491
35	0xbd919d51	-0.07110084
36	0xbd5eb4cd	-0.054371644
37	0x3dbde4a8	0.09272128
38	0xbdd4dbbb	-0.10393473
39	0x3d3c356a	0.045949377
40	0xbdb39536	-0.08768694
41	0x3d268d79	0.040662263
42	0xbb928c58	-0.0044722967
43	0xbdb1eff7	-0.08688348
44	0x3dda92a6	0.10672502
45	0xbdc53765	-0.09629706
46	0x3df22928	0.11824256
47	0x3cff67fd	0.031177515
48	0x3cce0a9b	0.025151541
49	0xbd226a86	-0.03965237
50	0x391b25d2	0.00014796041
51	0x3dbc9c9d	0.09209559
52	0x3dace4f0	0.08442104
53	0x3e028b00	0.12748337
54	0xbc173e5f	-0.009231179
55	0x3cec0b21	0.0288139
56	0xbd734509	-0.05939201
57	0xbdea9bed	-0.11455522
58	0x3d182be6	0.03715124
59	0xbde76dce	-0.113002405
60	0x3d993736	0.07481234
61	0xbcf21b59	-0.029554056
62	0x3ba33a8d	0.004981345
63	0x3d80e6a8	0.06293994
64	0x3a1c5a40	0.0005964376
65	0x3db09a12	0.086231366
66	0x3dc09fde	0.09405492
67	0xbdb2b849	-0.08726556
68	0xbdf1b0e9	-0.11801321
69	0xbdf6fc5a	-0.12059851
70	0x3df64344	0.12024549
71	0x3e0614ec	0.13093919
72	0xbbcdf736	-0.0062855734
73	0x3d8da9c5	0.069171466
74	0x3cffb18a	0.031212587
75	0xbdd24af9	-0.10268206
76	0x3cb6f6fb	0.022334566
77	0xbd0c7978	-0.03429553
78	0xbdb0aec9	-0.086270876
79	0x3cbabe4d	0.02279582
80	0x3d45c4a4	0.048283234
81	0xbdcaf63e	-0.09910248
82	0x3cc33d24	0.023832865
83	0xbd8de4ca	-0.06928404
84	0xbd65fafd	-0.056147564
85	0xbcecb75d	-0.028896028
86	0x3d8ec4fa	0.06971164
87	0xbe05685c	-0.13028091
88	0xbcff21d0	-0.031144053
89	0x3d92831e	0.07153915
90	0x3d11b8aa	0.0355765
91	0x3d11a254	0.0355552
92	0x3db0b3fa	0.08628078
93	0xbd052fcc	-0.032516286
94	0x3c94a9e7	0.018147422
95	0xbd19dfad	-0.03756683
96	0xbcb54ea4	-0.022132225
97	0x3bd3967f	0.0064571495
98	0x3bc2aa8f	0.0059407423
99	0xbdfc9032	-0.123321906
100	0x3d866c8b	0.06563672
101	0x3d964497	0.07337301
102	0x3d5ec6da	0.05438886
103	0x3d8d018e	0.06885062
104	0xbc603c1a	-0.013686204
105	0x3cbad26a	0.022805411
106	0xbd9dcfb3	-0.07705631
107	0x3d8c016a	0.06836207
108	0xbd3cb297	-0.046068754
109	0x3dfbd77f	0.12296962
110	0xbda8ebf3	-0.08248129
111	0x3e029d65	0.12755354
112	0x3dd0e779	0.102004
113	0xbd00fc4f	-0.03149062
114	0x3d391bd7	0.045192566
115	0x3d7260df	0.059174415
116	0xbe009114	-0.12555343
117	0x3dba0a02	0.0908394
118	0x3d5aa5ec	0.05338089
119	0xbdd0c1b3	-0.10193195
120	0xbd242550	-0.040074646
121	0xbdc99fd2	-0.098449364
122	0xbd50abeb	-0.050945204
123	0xbdb47479	-0.08811278
124	0xbd9f2009	-0.07769782
125	0xbd69fb7d	-0.057124604
126	0xbc8587f8	-0.016300187
127	0xbcbaae31	-0.022788139
128	0xbcfae2dc	-0.030625753
129	0x3dc367ad	0.09541259
130	0x3da6ecb2	0.08150615
131	0xbd0d651f	-0.034520265
132	0xbdc6801e	-0.09692405
133	0x3dd26671	0.102734454
134	0x3dfd0ffc	0.123565644
135	0xbc7a8e0b	-0.015292655
136	0x3c7743b7	0.015091828
137	0x3d3a8049	0.0455325
138	0x3cc5ce0c	0.024146102
139	0x3d819887	0.063279204
140	0x3db547c5	0.088515796
141	0x3d2e2786	0.04251816
142	0xbc979f2e	-0.01850852
143	0xbdb83677	-0.08994763
144	0x3d6ff8ff	0.05858707
145	0xbcec9f43	-0.028884536
146	0xbd81e9b0	-0.063434005
147	0x3d68ee7c	0.05686806
148	0xbde6e42d	-0.1127399
149	0x3d8e7613	0.069561146
150	0xbc946bd7	-0.018117828
151	0x3de541d9	0.111942
152	0xbd1c9ec1	-0.038237337
153	0x3dd442ad	0.1036428
154	0xbb3df924	-0.002898761
155	0xbdd3686f	-0.103226535
156	0x3ab5003d	0.0013809275
157	0xbbe6b6c6	-0.0070408313
158	0x3c9df2d3	0.019280827
159	0x3cdfb20b	0.027306577
160	0x3c1e6b99	0.009669208
161	0xbdde9a32	-0.10869254
162	0xbda52d13	-0.08065238
163	0xbd8df7bc	-0.06932017
164	0xbd15ebc6	-0.036601804
165	0xbd4137e0	-0.047172427
166	0xbd1e625b	-0.038668018
167	0x3d9197fa	0.07109065
168	0x3d8553fd	0.0651016
169	0x3c34c105	0.011032348
170	0xbe0ad621	-0.13558246
171	0x3df6d792	0.120528355
172	0x3d2db042	0.04240442
173	0xbe0d6f51	-0.13811995
174	0x3dbc8d43	0.09206631
175	0x3dbcf269	0.092259236
176	0x3dc002c8	0.093755305
177	0xbb8a5d7c	-0.00422257
178	0xbde103a8	-0.109870255
179	0xbc9f7f9f	-0.019470034
180	0xbddbd469	-0.107338734
181	0x3dd7828f	0.10522949
182	0x3dc53cb8	0.09630722
183	0x3c29eb0b	0.01037098
184	0x3ce58bc5	0.028020749
185	0xbd12ea70	-0.03586811
186	0xbd209c47	-0.039211538
187	0x3d9caa4c	0.07649669
188	0x3de77986	0.11302476
189	0x3d268a4a	0.040659226
190	0xbd0f957c	-0.03505467
191	0x3c1ac706	0.009446865
192	0xbb2787ac	-0.0025563044
193	0xbc58dc84	-0.013236169
194	0xbc47337a	-0.012158269
195	0x3ce43d22	0.027861182
196	0x3ca83da8	0.020537212
197	0x3dea72cd	0.11447678
198	0xbdb91ce1	-0.09038711
199	0xbd4741ac	-0.048646614
200	0x3cc90509	0.024538534
201	0x3dc3bc72	0.095574275
202	0x3de591b9	0.11209435
203	0x3d990171	0.07470978
204	0xbc080b7d	-0.00830352
205	0x3d971c58	0.07378453
206	0xbdb80ec7	-0.089871936
207	0x3cb78323	0.022401398
208	0xbd185c3e	-0.037197344
209	0x3d9157da	0.070968345
210	0xbd787855	-0.060661633
211	0x3dfc2431	0.123115905
212	0x3ca41d15	0.020033399
213	0xbdf111e5	-0.11770991
214	0x3dcdd2d9	0.100499816
215	0x3814f13e	3.5510624e-05
216	0xbe0883f3	-0.13331585
217	0x3df270be	0.1183791
218	0xbd8df47e	-0.06931399
219	0xbc63ae44	-0.013896529
220	0x3e01448f	0.1262381
221	0xbd1bd956	-0.038049065
222	0xbde2e1a3	-0.11078193
223	0x3dfc0af8	0.123067796
224	0xbdbd4a9d	-0.09242747
225	0x3defe1d9	0.11712999
226	0x3dde4526	0.10853033
227	0x3daec552	0.085337296
228	0x3d90156a	0.070353344
229	0x3c58644d	0.013207507
230	0xbe037b2f	-0.1283996
231	0xbdcb4645	-0.09925512
232	0x3dc20fc6	0.09475665
233	0x3dda0599	0.10645599
234	0x3d9adb2e	0.075613365
235	0xbdd01215	-0.10159699
236	0x3d8abe65	0.06774596
237	0xbc1f644b	-0.009728502
238	0xbc67b1d8	-0.014141522
239	0xbdd5f0e2	-0.104463354
240	0xbda72c36	-0.081627294
241	0xbde68908	-0.112566054
242	0x3ce8f698	0.028437898
243	0x3e0514e5	0.12996252
244	0xbd7d5e36	-0.061857425
245	0xbd3630ac	-0.04448001
246	0xbdb3a519	-0.08771724
247	0xbde60a46	-0.11232428
248	0x3dc63779	0.09678549
249	0x3d8c50df	0.068513624
250	0xbbee98af	-0.007281385
251	0x3d0cd0c6	0.03437879
252	0x3da74d25	0.08169011
253	0xbc9d9aa1	-0.019238772
254	0xbdb70998	-0.08937377
255	0x3cc30a82	0.023808721

feature_extract.mlps.1.linears.1.bias f4 [64]
0	0x3d99f2f0	0.0751704
1	0xbd04f509	-0.032460246
2	0xbdbc8498	-0.09204978
3	0x3d3241a5	0.043519635
4	0x3ce1a4f0	0.027544469
5	0x3d18d6cb	0.037314218
6	0xbcb5f919	-0.022213506
7	0xbd8b6d5d	-0.06807969
8	0x3ccca7cc	0.024982356
9	0x3da2d801	0.07951356
10	0x3dfc326f	0.12314307
11	0xbdb7c995	-0.089739956
12	0xbd05eb10	-0.032694876
13	0x3dc82cc1	0.09774161
14	0xbdaa1c1e	-0.08306144
15	0x3dd05ab3	0.101735495
16	0x3d0cfd42	0.034421213
17	0x3d908542	0.07056667
18	0xbd22c621	-0.03973973
19	0x3dd0414b	0.10168704
20	0xbdf997b3	-0.121871375
21	0x3dafbaa6	0.08580522
22	0x3c166bd6	0.0091809835
23	0x3d0ed4d7	0.03487095
24	0x3d86f827	0.065903
25	0xbdfa28d3	-0.12214818
26	0x3adf1336	0.0017019275
27	0x3b16713a	0.0022955672
28	0x3d183777	0.03716227
29	0xbc8e3fdd	-0.017364437
30	0x3c8cadf3	0.01717279
31	0xbb8484b3	-0.0040441393
32	0xbde4aa5c	-0.11165306
33	0xbd7bf194	-0.061509684
34	0x3db570f2	0.08859433
35	0xbdcd3b8d	-0.10021124
36	0xbd35ea86	-0.044413112
37	0xbdc68eac	-0.09695181
38	0xbb7b3511	-0.003833119
39	0x3d5134cd	0.051075745
40	0xbc7aa159	-0.015297257
41	0x3d82601f	0.0636599
42	0xbdadb8d1	-0.084825166
43	0xbdac1838	-0.08403057
44	0xbddce19a	-0.107852176
45	0x3d6f6877	0.058449235
46	0x3c9d5c98	0.019209191
47	0xbda8eec0	-0.08248663
48	0xbdef39a0	-0.11680913
49	0xbd2f1da6	-0.042752884
50	0xbb796331	-0.0038053507
51	0x3dad5a26	0.0846446
52	0xbda5e8f2	-0.081010714
53	0x3da71f9e	0.081603274
54	0x3d5098f6	0.050927125
55	0xbde7229a	-0.112858966
56	0x3d4d8f68	0.05018559
57	0x3da4ef94	0.080535084
58	0xbd97edc0	-0.07418394
59	0x3db6b0b8	0.08920425
60	0x3de8ad7d	0.11361215
61	0xbdbfc6d8	-0.09364098
62	0x3db8a8bf	0.09016561
63	0x3da38850	0.07984984

feature_extract.mlps.1.batch_norms.0.weight f4 [64]
0	0x3f80a717	1.0050992
1	0x3f7e3ec7	0.9931454
2	0x3f7ea94e	0.9947709
3	0x3f809b38	1.0047369
4	0x3f7f0085	0.9961017
5	0x3f80cae6	1.006192
6	0x3f825e56	1.0185039
7	0x3f7eb8b5	0.9950059
8	0x3f7f21bb	0.99660844
9	0x3f812023	1.0087932
10	0x3f8032dd	1.0015522
11	0x3f81a8c8	1.0129633
12	0x3f7da95f	0.99086565
13	0x3f7f0d5d	0.99629766
14	0x3f7cca80	0.9874649
15	0x3f786dad	0.9704235
16	0x3f81956e	1.0123727
17	0x3f7b61f5	0.98196346
18	0x3f805697	1.0026425
19	0x3f802802	1.001221
20	0x3f824e3d	1.0180126
21	0x3f7e87f4	0.994262
22	0x3f7d2c6a	0.98895895
23	0x3f7ec60a	0.99520934
24	0x3f8121b0	1.0088406
25	0x3f7dc8a8	0.991343
26	0x3f8050be	1.002464
27	0x3f7f338d	0.99688035
28	0x3f80ac25	1.0052534
29	0x3f7f5b91	0.99749094
30	0x3f7dde37	0.991672
31	0x3f7f10b6	0.99634874
32	0x3f81a309	1.0127879
33	0x3f7e668c	0.99375224
34	0x3f8153da	1.0103714
35	0x3f8079e2	1.0037196
36	0x3f7b80f9	0.9824367
37	0x3f809b3a	1.0047371
38	0x3f7f504f	0.99731916
39	0x3f7c4239	0.9853855
40	0x3f7f328d	0.9968651
41	0x3f7dd5f8	0.99154615
42	0x3f802f84	1.0014501
43	0x3f7c46d7	0.98545593
44	0x3f7df610	0.99203587
45	0x3f8360b9	1.0263892
46	0x3f816523	1.010899
47	0x3f7c803c	0.9863317
48	0x3f8024a9	1.0011188
49	0x3f7cdbb5	0.98772746
50	0x3f8167bb	1.0109781
51	0x3f820eb8	1.0160742
52	0x3f81414e	1.0098054
53	0x3f811a61	1.0086175
54	0x3f7cdbda	0.98772967
55	0x3f7ddd66	0.9916595
56	0x3f7f5176	0.99733675
57	0x3f7e5849	0.9935346
58	0x3f7e4b4e	0.99333656
59	0x3f817949	1.0115138
60	0x3f7c8285	0.98636657
61	0x3f7fef40	0.9997444
62	0x3f80d4eb	1.0064977
63	0x3f816d1f	1.0111426

feature_extract.mlps.1.batch_norms.0.bias f4 [64]
0	0x3a984773	0.0011617973
1	0xba365053	-0.0006954718
2	0xbba140e2	-0.0049210647
3	0x3c3b9b0e	0.011450542
4	0x3b82686f	0.0039797346
5	0x3c882316	0.016618293
6	0x3c6213a7	0.013798631
7	0xbbd9f926	-0.0066520153
8	0x3c5b78ff	0.013395547
9	0x391e151c	0.00015075918
10	0x3b7d137b	0.0038616348
11	0x3c5045c8	0.01271195
12	0xbc003c01	-0.007826806
13	0xbc1128ee	-0.008859856
14	0x3c882778	0.016620383
15	0xbbd0952a	-0.006365438
16	0x3bcec43e	0.006310015
17	0xbc592042	-0.01325232
18	0xbb2b2ce8	-0.0026119296
19	0x3c3acc33	0.011401224
20	0x3c86bd0c	0.016447566
21	0xbb80b8e4	-0.0039282907
22	0x3b5400db	0.0032349143
23	0xbb2b7b1b	-0.0026165906
24	0x3c31e617	0.01085808
25	0xbc9fe993	-0.019520557
26	0x3bde3299	0.006780934
27	0xbc4c8b85	-0.012484436
28	0x398f1a6d	0.00027294774
29	0xba209dad	-0.0006127011
30	0xbbc05619	-0.0058696386
31	0x3c154535	0.0091107385
32	0x3c83fd34	0.016111948
33	0xbb955c74	-0.0045581404
34	0x3c5d3a9b	0.013502742
35	0x3b9bc19d	0.004753305
36	0xbc0f6a7a	-0.008753413
37	0x3ba46854	0.0050173197
38	0xbbe60ab1	-0.0070203175
39	0xbc239445	-0.009984081
40	0x3bfc8c00	0.007707119
41	0x3a42cd2b	0.0007431085
42	0x3b8d597e	0.004313647
43	0xbbd45e5d	-0.0064809755
44	0xbc1658a0	-0.009176403
45	0x3c70be6b	0.014693837
46	0x3c70579d	0.014669326
47	0x3c830585	0.015993843
48	0x3c3ae212	0.011406438
49	0xbbe0ec7b	-0.006864128
50	0x3c8b83b7	0.01703058
51	0x3c7de7f9	0.015497201
52	0x3c2aea59	0.010431849
53	0x3c492dd6	0.012278995
54	0xbc611212	-0.013737218
55	0xbb9d72c3	-0.0048049404
56	0xbba48c41	-0.0050216024
57	0xbc1004ff	-0.008790254
58	0xbc54dd3f	-0.012992202
59	0xbc4a58d0	-0.012350276
60	0xbc2515fb	-0.010076041
61	0x3c487796	0.012235543
62	0x3c592bf4	0.013255108
63	0x3c8563ae	0.016282883

feature_extract.mlps.1.batch_norms.0.running_mean f4 [64]
0	0x3f51a165	0.81886894
1	0xbe9d87bb	-0.30767617
2	0xbe0f0d8c	-0.13970011
3	0xbf9ce420	-1.2257118
4	0xbf0703b3	-0.5274002
5	0xbe9f7fdf	-0.31152245
6	0xbe9bf1ae	-0.30457824
7	0x3ca6a1ac	0.020340763
8	0x3f505a48	0.8138776
9	0xbed0f623	-0.40812787
10	0xbf2e3cc4	-0.6806147
11	0xbf30d0a1	-0.6906834
12	0xbd0579da	-0.03258691
13	0x3e0b4e58	0.13604105
14	0x3edb66ea	0.42851955
15	0x3f9003e8	1.1251192
16	0x3eb23172	0.3480335
17	0xbf138a20	-0.5763264
18	0x3f3e5a31	0.7435637
19	0xbefac7f5	-0.4898068
20	0x3e90d1c0	0.28285027
21	0xbe8e2468	-0.2776215
22	0xbf2a1307	-0.66435283
23	0xbf8c9e94	-1.0985894
24	0xbead612e	-0.33863205
25	0xbe9e3b7f	-0.30904767
26	0xbf11d8d9	-0.5697151
27	0x3f7aec43	0.98016757
28	0xbf4f54e0	-0.80988884
29	0xbe2e9044	-0.1704722
30	0xbf103860	-0.5633602
31	0xbedc51db	-0.430312
32	0xbf779790	-0.9671564
33	0xbf0fbe38	-0.56149626
34	0xbf05d59e	-0.5227908
35	0x3ec1ad91	0.37827733
36	0x3ca0fd31	0.019651981
37	0xbf6fb493	-0.9363491
38	0x3f6e18b0	0.9300642
39	0xbee5f956	-0.4491679
40	0x3e95aa22	0.29231364
41	0x3f3e0ec6	0.7424129
42	0xbe635304	-0.22199637
43	0x3d742de2	0.05961407
44	0xbf0e5495	-0.5559781
45	0xbf5b727e	-0.85721576
46	0xbf441526	-0.7659477
47	0xbdb5cb5c	-0.08876678
48	0xbe686327	-0.22694074
49	0x3f11e92e	0.5699643
50	0xbf932931	-1.1496946
51	0xbdb951ef	-0.09048831
52	0x3f197f1a	0.59959567
53	0xbeadae38	-0.3392198
54	0x3ddbb881	0.10728551
55	0x3ec9ac8b	0.39389452
56	0x3f3cefa3	0.73803157
57	0x3e55292a	0.20816484
58	0x3f484038	0.7822299
59	0xbfb2765d	-1.3942372
60	0x3f046314	0.5171368
61	0xbeafd1ca	-0.34339744
62	0x3dd9f449	0.10642297
63	0x3e405247	0.18781386

feature_extract.mlps.1.batch_norms.0.running_var f4 [64]
0	0x3e7e4e3d	0.24834533
1	0x3f8dcc61	1.1077996
2	0x3f6aeccf	0.9176759
3	0x3e9ca8a2	0.30597407
4	0x3f1b0bc2	0.60564816
5	0x3e5ee83b	0.21768276
6	0x3f990932	1.1955931
7	0x3ecea7d0	0.40362406
8	0x3ec8986b	0.39178786
9	0x3edf655e	0.43632025
10	0x3f0d62de	0.55228984
11	0x3ec7b72f	0.39006945
12	0x3e5df43d	0.21675201
13	0x3efb2f6f	0.49059626
14	0x3f0cbd6c	0.54976535
15	0x3f48ec6d	0.7848576
16	0x3f1cef91	0.6130305
17	0x3f455201	0.77078253
18	0x3f5124cb	0.81696767
19	0x3e7e794d	0.2485096
20	0x3f325a12	0.69668686
21	0x3f544978	0.82924604
22	0x3f0109b7	0.5040545
23	0x3f9f94f9	1.2467338
24	0x3f582c7c	0.8444288
25	0x3fbf5ea3	1.4950756
26	0x3fe3a7f0	1.7785625
27	0x3e8d6b5a	0.27620965
28	0x3f7e3bbf	0.99309915
29	0x3fd81a5c	1.6883044
30	0x3e1b5c3d	0.15171905
31	0x3ef16180	0.471447
32	0x3ed46f3f	0.41491124
33	0x3f86d500	1.0533752
34	0x3f68ae01	0.9089051
35	0x3ec55bc3	0.3854657
36	0x3eac6d4a	0.3367713
37	0x3f5f8414	0.8731091
38	0x3f88e378	1.0694418
39	0x3f7c4e7d	0.98557264
40	0x3ecd5ef7	0.40111515
41	0x3ef3428e	0.47511715
42	0x3e759b38	0.23984993
43	0x3e80bfd9	0.25146368
44	0x3f15f1bc	0.5857198
45	0x3ef50364	0.4785415
46	0x3f04e942	0.51918423
47	0x3f462ee6	0.7741531
48	0x3f8a3fe8	1.0800753
49	0x3f6af168	0.91774607
50	0x3f7fe17e	0.9995345
51	0x3e9a8828	0.30182004
52	0x3f20c76f	0.6280431
53	0x3f190ed2	0.5978824
54	0x3ea986db	0.331107
55	0x3e4787b8	0.19485366
56	0x3ec0b48a	0.3763774
57	0x3e248b14	0.16068679
58	0x3e945172	0.28968388
59	0x3e78cd1b	0.24296992
60	0x3f17f997	0.5936522
61	0x3f1cac16	0.6120008
62	0x3f2ae47b	0.66754884
63	0x3f6e6dd6	0.93136346

feature_extract.batch_norms.0.weight f4 [64]
0	0x3f806c74	1.0033097
1	0x3f7fcfff	0.9992675
2	0x3f7fbdb4	0.9989884
3	0x3f7e54b4	0.99347997
4	0x3f80c9b1	1.0061551
5	0x3f8025b4	1.0011506
6	0x3f7deb3f	0.9918708
7	0x3f7d61e8	0.9897752
8	0x3f7d2a65	0.98892814
9	0x3f7ef6ea	0.9959551
10	0x3f7f0da5	0.99630195
11	0x3f80460c	1.0021377
12	0x3f80c109	1.005891
13	0x3f7a21e2	0.9770795
14	0x3f7f9e2c	0.99850726
15	0x3f81ff25	1.0155989
16	0x3f803186	1.0015113
17	0x3f816927	1.0110215
18	0x3f7ed7d0	0.99548054
19	0x3f802dbc	1.0013957
20	0x3f800bc5	1.0003592
21	0x3f810eca	1.0082638
22	0x3f7f8dfa	0.99826014
23	0x3f812a7b	1.0091089
24	0x3f7da526	0.9908012
25	0x3f7abc0b	0.9794318
26	0x3f80c2d2	1.0059454
27	0x3f805073	1.0024551
28	0x3f80f29a	1.0074036
29	0x3f8067d0	1.0031681
30	0x3f8013b9	1.0006019
31	0x3f7e7302	0.9939424
32	0x3f807b64	1.0037656
33	0x3f81aaf8	1.01303
34	0x3f804b7b	1.0023035
35	0x3f8083dc	1.004024
36	0x3f808878	1.0041647
37	0x3f8136b8	1.0094824
38	0x3f7e12f1	0.9924765
39	0x3f7e24be	0.99274814
40	0x3f818ee2	1.0121729
41	0x3f7efc7f	0.9960403
42	0x3f80206a	1.0009892
43	0x3f803025	1.0014693
44	0x3f7e8254	0.99417615
45	0x3f7ed8ae	0.99549377
46	0x3f7dd9f0	0.9916067
47	0x3f7f7c5b	0.99799126
48	0x3f8180b5	1.0117403
49	0x3f7f17ca	0.99645674
50	0x3f810f71	1.0082837
51	0x3f80bc81	1.0057527
52	0x3f7f95f6	0.998382
53	0x3f805a7e	1.0027616
54	0x3f806478	1.0030661
55	0x3f7f70bb	0.9978139
56	0x3f7d37b4	0.9891312
57	0x3f817203	1.0112919
58	0x3f7f47ca	0.99718916
59	0x3f808990	1.0041981
60	0x3f8010bb	1.0005106
61	0x3f7e677f	0.9937667
62	0x3f80c88c	1.0061202
63	0x3f8083a5	1.0040175

feature_extract.batch_norms.0.bias f4 [64]
0	0x3c219318	0.00986173
1	0x3b20506f	0.0024462005
2	0x3a627c9f	0.0008639786
3	0xbb757c65	-0.0037458178
4	0x3aa75ef7	0.0012769391
5	0x3972773e	0.0002312334
6	0x3be8979e	0.0070981523
7	0xbc125e18	-0.0089335665
8	0xbac38ab3	-0.0014918655
9	0xbc03eafa	-0.008051628
10	0xbb0a83e5	-0.0021135744
11	0x3a883d5d	0.0010394264
12	0xbb1ae3fa	-0.002363442
13	0xbb74e4c4	-0.00373678
14	0x3afc9b16	0.0019272293
15	0x3c84bb8c	0.01620271
16	0x3b66a5be	0.0035194005
17	0xb9f85739	-0.00047367232
18	0xbabc8dac	-0.0014385483
19	0xbc264cbf	-0.010150134
20	0x39670178	0.00022030424
21	0x3b647a9d	0.0034863122
22	0x3b4d294d	0.0031305135
23	0x3c343555	0.0109990435
24	0xbbe8860e	-0.0070960587
25	0xbcda7d64	-0.026671119
26	0x3c0344cf	0.008012011
27	0xbc110cae	-0.008853121
28	0x3c44e808	0.012018211
29	0x3b5f1cc1	0.0034044238
30	0x3b313b58	0.0027043428
31	0xbbcaef25	-0.006193059
32	0x3bd251a5	0.006418424
33	0x3c97f7c5	0.018550763
34	0x3ac01539	0.0014654762
35	0x3bc136a5	0.0058964067
36	0x3c9e3ffa	0.019317616
37	0x3c0d5e9f	0.008628516
38	0xbbe6d972	-0.0070449645
39	0xbc125865	-0.008932208
40	0x3c60044f	0.013672902
41	0xba95672c	-0.0011398545
42	0xbaa95e44	-0.001292177
43	0x3b2019d9	0.002442947
44	0xbc10f7ff	-0.008848189
45	0xbbac3c86	-0.0052562384
46	0xbc01020f	-0.007874026
47	0x3a6679e1	0.0008791965
48	0x3c40b0f0	0.011760935
49	0xbb659394	-0.003503059
50	0x3ba3bbf1	0.0049967696
51	0x3b66b40a	0.0035202526
52	0x3b172c5f	0.0023067219
53	0x3c248cc6	0.010043329
54	0x3bb0bceb	0.0053936145
55	0xba813dd4	-0.0009860345
56	0xbc226d5b	-0.009913768
57	0x3abae540	0.0014258996
58	0xba29a4ce	-0.0006471396
59	0xbb58a9b4	-0.0033060135
60	0xbac55055	-0.0015053848
61	0xbbd73185	-0.0065671825
62	0x3c2725dd	0.010201898
63	0x3c1a13d0	0.009404138

feature_extract.batch_norms.0.running_mean f4 [64]
0	0xbd4f810e	-0.050660186
1	0xbd5e640b	-0.054294627
2	0xbd8a89c1	-0.06764556
3	0x3e4290fb	0.19000618
4	0xbde18358	-0.1101138
5	0x3dcd15a7	0.100138955
6	0xbe41e8a8	-0.18936408
7	0xbd01610c	-0.03158669
8	0xbe78c1e0	-0.24292707
9	0x3e894e53	0.2681757
10	0xbd75e452	-0.060032196
11	0xbdaf6515	-0.08564202
12	0x3de6fd2a	0.11278756
13	0xbe01d870	-0.1268022
14	0x3d15137b	0.03639553
15	0xbd3bd236	-0.04585477
16	0xbdaf610a	-0.085634306
17	0xbd9adc59	-0.07561559
18	0xbe3301c9	-0.1748115
19	0x3eb2d103	0.34925088
20	0xbda8b74d	-0.08238087
21	0x3edb2e48	0.42808747
22	0x3ea7df60	0.3278761
23	0x3e3b7ab8	0.18308532
24	0x3cfe6e8d	0.031058574
25	0x3f31aa07	0.69400066
26	0xbe252a69	-0.1612946
27	0x3e0fd3ee	0.14045689
28	0x3d1550a9	0.036453877
29	0xbed2ba09	-0.4115756
30	0x3e86f1f1	0.26356462
31	0x3c98632a	0.018601973
32	0xbe26c4d6	-0.16286024
33	0xbe9c9373	-0.30581245
34	0x3d378188	0.044801265
35	0x3c0026b6	0.007821729
36	0xbd8dd472	-0.06925286
37	0xbea1aa06	-0.3157503
38	0x3eb72319	0.35768965
39	0x3e03829a	0.1284279
40	0xbd564c88	-0.05231908
41	0xbe656e8f	-0.22405456
42	0xbd54666b	-0.051855486
43	0xbd66e4fe	-0.056370728
44	0x3dedb617	0.116069965
45	0x3e771f79	0.241331
46	0x3e22e88a	0.15909019
47	0xbe7ddffb	-0.24792473
48	0x3d7cc18e	0.061708026
49	0x3e3c8029	0.18408264
50	0x3ecf064a	0.40434486
51	0xbc92087a	-0.017826308
52	0xbdde23e4	-0.10846689
53	0x3ddea221	0.108707674
54	0x3e3de756	0.18545279
55	0x3e96e5ce	0.29472202
56	0x3d136047	0.03598049
57	0xbdf2b6bf	-0.11851262
58	0x3ed94dd7	0.424422
59	0x3e88318b	0.26600298
60	0xbf02dc64	-0.5111754
61	0xbd9cbca2	-0.07653166
62	0xbe80a107	-0.25122854
63	0x3d5e6333	0.054293822

feature_extract.batch_norms.0.running_var f4 [64]
0	0x3d8e051a	0.06934567
1	0x3d04cb01	0.032420162
2	0x3dc6face	0.09715806
3	0x3c79bb5e	0.015242426
4	0x3d1fb239	0.038988326
5	0x3cdca0dc	0.026932172
6	0x3d6d5b2f	0.057948288
7	0x3e21e10c	0.15808505
8	0x3e18c42d	0.14918585
9	0x3cfd6f51	0.030936869
10	0x3e7c5fd9	0.24645938
11	0x3ccd5942	0.025066976
12	0x3e916459	0.28396872
13	0x3e05f2ec	0.13080949
14	0x3da69840	0.08134508
15	0x3d7a2292	0.061068125
16	0x3d0ba203	0.034090053
17	0x3d71c70b	0.059027713
18	0x3e143fcc	0.14477462
19	0x3ec235bf	0.3793163
20	0x3cb1d555	0.02170817
21	0x3e55e995	0.20889886
22	0x3d2f88d2	0.04285509
23	0x3cde7896	0.02715711
24	0x3ceb0571	0.028689118
25	0x3df91ce4	0.121637136
26	0x3db3ca67	0.087788396
27	0x3d7e5549	0.062093053
28	0x3d12141b	0.035663705
29	0x3d966372	0.073431864
30	0x3e0a90a3	0.13531737
31	0x3d861e4b	0.06548747
32	0x3e074b84	0.132124
33	0x3e8e865b	0.2783688
34	0x3d068ed7	0.032851066
35	0x3db5fe2e	0.088863716
36	0x3cb37a4b	0.0219089
37	0x3cf0ef74	0.029411055
38	0x3e186345	0.14881618
39	0x3da43cd0	0.080194116
40	0x3dbc91ab	0.092074715
41	0x3d919c63	0.071099065
42	0x3ce670ea	0.028130013
43	0x3de442cd	0.11145554
44	0x3c7c86b8	0.015412979
45	0x3d95e9ae	0.073199615
46	0x3e2d5691	0.16927554
47	0x3d7e2ba5	0.06205334
48	0x3e94e89c	0.29083717
49	0x3d537b9b	0.05163155
50	0x3e577e3f	0.21044253
51	0x3d0be6ad	0.034155536
52	0x3df43aaa	0.11925252
53	0x3df98ca9	0.12185032
54	0x3dda8a2f	0.10670888
55	0x3e2c09ae	0.16800568
56	0x3c94e7c0	0.018176913
57	0x3dfa8073	0.12231531
58	0x3dc12844	0.09431508
59	0x3e759ec7	0.2398635
60	0x3d6ef72c	0.05834119
61	0x3e410e9e	0.18853232
62	0x3f0f8cb4	0.5607407
63	0x3e917e81	0.28416827
