SavedNetwork/20_15_1_99.pth (torch_old, 86564 bytes, 30 tensors)

feature_extract.mlps.0.linears.0.weight f4 [64, 2]
-0.30650842 0.4141328 0.5001212 -0.23748238 0.0699401 -0.42756593 -0.5352583 0.34782118
0.50808895 -0.022793462 -0.7018979 -0.19138172 -0.42766693 -0.1873531 -0.21029979 -0.5801463
-0.39317325 0.2769022 -0.36271903 -0.3270183 -0.40890095 0.54110014 -0.31043652 -0.21907781
-0.13833305 0.6663893 -0.40778178 0.25315082 0.6098164 0.14539045 0.7076809 -0.34147838
0.5312549 -0.6286704 0.3910139 -0.5231713 -0.5492637 0.13251247 -0.004068267 0.22764261
0.018392608 0.011310786 -0.34140867 0.22975835 -0.21546915 0.14138325 0.018328058 -0.045002855
-0.32155746 0.4973339 -0.6308624 -0.018505458 0.38167143 -0.17764693 0.4728884 -0.48665103
-0.6020677 -0.33143303 -0.5185218 -0.024252145 -0.28265825 0.227682 0.4258889 0.13595606
-0.02850028 -0.25653514 -0.35090834 0.5639278 0.5194032 0.35047004 -0.3289271 -0.2505822
0.081469655 0.047888122 -0.044916186 -0.43254006 -0.47872856 0.36165804 0.40349036 0.5603157
0.6659656 -0.1578323 -0.05736488 0.02914433 0.14106762 0.14552988 0.023756359 -0.3403206
-0.020551754 0.36970168 0.3333842 0.62939394 0.3279634 -0.664811 0.28887406 -0.5570119
0.5567412 -0.5523783 -0.5577576 0.16078787 0.13709523 0.50832534 -0.4683766 0.54591614
0.121305965 -0.12324075 -0.49946883 0.34344953 0.086105816 0.5640555 -0.40328896 0.6051726
-0.48486638 -0.4059264 0.3958108 -0.08889266 -0.42648816 -0.055515476 0.67701226 -0.0459554
0.23859397 -0.16978109 0.1533476 0.6973623 0.34231597 -0.49266782 -0.4170621 -0.107102446
00000000: acee 9cbe 3709 d43e f107 003f 952e 73be
00000010: c13c 8f3d ece9 dabe b006 09bf 9e15 b23e
00000020: 1e12 023f 5bb9 babc 95af 33bf 92f9 43be
00000030: 29f7 dabe 7ed9 3fbe d458 57be 7884 14bf
00000040: 014e c9be 20c6 8d3e 4fb6 b9be f16e a7be
00000050: 775b d1be 8a85 0a3f 89f1 9ebe ef55 60be
00000060: 2ea7 0dbe 7d98 2a3f c6c8 d0be fc9c 813e
00000070: ed1c 1c3f 3ce1 143e 932a 353f 41d6 aebe
00000080: 5200 083f 8bf0 20bf f932 c83e 8eee 05bf
00000090: 8c9c 0cbf 59b1 073e 194f 85bb 251b 693e
000000a0: 18ac 963c e050 393c 1ecd aebe c645 6b3e
000000b0: f2a3 5cbe c5c6 103e b924 963c ea54 38bd
000000c0: 2ea3 a4be 8da2 fe3e 3380 21bf c298 97bc
000000d0: 706a c33e 14e9 35be 6e1e f23e 532a f9be
000000e0: 1c21 1abf 97b1 a9be d8bd 04bf 6fac c6bc
000000f0: 95b8 90be 7825 693e 1c0e da3e 1138 0b3e
00000100: 6b79 e9bc 9358 83be 42aa b3be 935d 103f
00000110: 9cf7 043f cf70 b33e 2269 a8be 4f4c 80be
00000120: 90d9 a63d 5626 443d 09fa 37bd e475 ddbe
00000130: e91b f5be 3e2b b93e 4a96 ce3e da70 0f3f
00000140: b97c 2a3f ca9e 21be 70f7 6abd 17c0 ee3c
00000150: 0874 103e c905 153e b29c c23c 803e aebe
00000160: 275c a8bc 8a49 bd3e 55b1 aa3e f61f 213f
00000170: d2ea a73e 0e31 2abf 4de7 933e 5598 0ebf
00000180: 9786 0e3f aa68 0dbf 34c9 0ebf 93a5 243e
00000190: b162 0c3e 9c21 023f 0fcf efbe 29c1 0b3f
000001a0: 436f f83d a565 fcbd 61ba ffbe 9ed8 af3e
000001b0: 3f58 b03d f165 103f e47b cebe 97ec 1a3f
000001c0: 6840 f8be 96d5 cfbe b7a7 ca3e 5b0d b6bd
000001d0: a85c dabe 3264 63bd ad50 2d3f bb3b 3cbd
000001e0: fa51 743e 18db 2dbe 2707 1d3e 5686 323f
000001f0: 0a44 af3e f53e fcbe 2a89 d5be 8758 dbbd

feature_extract.mlps.0.linears.0.bias f4 [64]
0.3188164 -0.38908702 -0.04781032 0.34802297 -0.34676442 -0.38608336 0.012311459 -0.57962966
0.29165733 -0.19458584 0.5649149 0.05484367 0.34035978 -0.120806746 -0.25403103 -0.3038778
0.34389466 0.6431065 0.25599492 -0.16262312 0.36885414 -0.53636587 -0.6110296 -0.23169406
0.3145202 -0.0745141 -0.4876285 -0.58695585 0.35107583 -0.36499354 -0.28428125 0.6337531
0.101987295 -0.4130686 0.055705145 0.38826418 -0.33027723 -0.44378424 -0.6629512 -0.5992346
-0.5259885 0.3669696 0.06406024 0.21731497 0.4064349 0.6385428 -0.1879498 0.6301967
0.11285035 0.5642678 -0.65936774 -0.3099389 -0.2665632 0.5140086 0.4178912 -0.6956002
-0.3975296 -0.54888755 -0.69447017 -0.65561795 0.3386246 0.24843898 -0.056376882 -0.031822063
00000000: e73b a33e 6a36 c7be c1d4 43bd 1130 b23e
00000010: 1b8b b1be b8ac c5be 00b6 493c 9c62 14bf
00000020: 1c54 953e 8341 47be 439e 103f c2a3 603d
00000030: a343 ae3e 8769 f7bd 5b10 82be df95 9bbe
00000040: f612 b03e a1a2 243f c411 833e ad86 26be
00000050: 73da bc3e 464f 09bf 706c 1cbf 3541 6dbe
00000060: cb08 a13e d99a 98bd 71aa f9be bd42 16bf
00000070: 36c0 b33e 6fe0 babe 508d 91be a53d 223f
00000080: b7de d03d ba7d d3be 142b 643d 90ca c63e
00000090: 191a a9be b037 e3be 2bb7 29bf 7067 19bf
000000a0: 2fa7 06bf 70e3 bb3e 0432 833d d187 5e3e
000000b0: 3c18 d03e 8a77 233f ea75 40be 9254 213f
000000c0: 161e e73d db73 103f 53cc 28bf 50b0 9ebe
000000d0: f97a 88be 1196 033f d6f5 d53e db12 32bf
000000e0: 0089 cbbe e583 0cbf ccc8 31bf 94d6 27bf
000000f0: 3460 ad3e ca66 7e3e 72eb 66bd da57 02bd

feature_extract.mlps.0.linears.1.weight f4 [64, 64]
-0.0648929 0.05279745 -0.11396442 -0.091375016 -0.114083186 -0.0590493 -0.101838045 0.07517572
-0.11845067 0.007739422 0.02871543 -0.0030227422 0.057450473 0.119693436 0.0558483 0.01820157
-0.05714554 -0.020199487 0.11823973 0.043447983 -0.04178494 -0.011886919 -0.107034326 -0.104435325
0.0752769 0.013791022 0.07962666 0.06876694 -0.021924594 0.10446503 0.04027842 0.08206086
0.07472786 0.116301425 -0.089382686 -0.02130604 0.05842911 -0.1149129 0.026914753 -0.113837205
-0.06991846 -0.048655074 -0.06877222 0.027958792 0.09691757 -0.1143968 0.07935877 -0.05108246
-0.021719715 -0.019037034 -0.030901164 -0.0022632468 -0.044476684 -0.08117935 -0.0002646013 0.05706749
0.01921428 0.054509226 -0.038204372 -0.00057984825 0.06937051 0.11228439 -0.12609227 0.09059939
0.0892427 -0.08327468 -0.042562317 0.04551077 0.0761212 -0.12220285 0.004622733 -0.0030582987
-0.009595477 0.10301598 0.0037581811 -0.055119753 0.089698 -0.035165016 0.08367991 0.10624658
0.043983694 -0.07958207 -0.056891818 -0.09765094 -0.067702286 -0.11989414 0.0016914856 -0.048594452
0.10573658 0.024365418 -0.053861912 -0.12560678 0.056863163 -0.11247316 -0.048115004 0.04674278
0.05914325 -0.03934533 0.08119033 -0.063260786 -0.07700549 0.0810122 0.0041072606 0.04994891
0.014758002 0.03690345 -0.07504687 0.038066156 -0.018168714 -0.08196183 0.11731833 0.07341325
-0.0024637482 0.11706405 -0.11618362 0.08273467 -0.006418986 -0.08181557 0.12599957 0.10834883
-0.050765935 -0.06335288 -0.05158218 -0.043814078 0.03331211 0.051438984 0.021132037 -0.12520914
-0.08061827 -0.036689524 -0.012979234 -0.008616468 0.00096998864 -0.016506242 -0.08821367 0.042468634
-0.097585715 -0.093660735 0.0090028 0.11976723 -0.053124618 -0.10383189 -0.0014513734 0.056709222
0.03916672 0.0008988517 -0.073588215 0.0019920021 0.007710478 -0.10943826 0.04684861 0.033317246
0.046815258 0.08972151 -0.049372394 0.05639598 0.09854267 -0.1167859 -0.10393143 0.011419635
-0.048336472 0.07344025 0.12283017 -0.008937141 0.011000384 -0.07981316 0.115305625 -0.03285608
-0.07760199 -0.1194766 -0.077419296 -0.01100042 -0.06548683 -0.0041604503 0.008271455 -0.0011810015
0.008346245 -0.010827114 0.06133701 -0.11722996 -0.083048716 -0.016792594 -0.06992165 0.08394085
0.085804105 0.03174524 -0.038674787 -0.0048007728 0.09972201 0.0061589344 0.10269117 0.107879676
0.025220005 0.09333574 -0.0022788898 -0.01172502 -0.009766358 -0.10451843 0.10358816 0.1259996
-0.013161639 -0.08533369 -0.03371338 -0.0060823965 -0.09520636 0.05507548 -0.07815375 0.071443
0.028430289 0.08769606 0.06539986 0.10385628 0.10572646 0.076654844 -0.07151754 -0.07159696
0.052391622 0.10895688 -0.07408245 -0.074894086 -0.12095126 0.02991013 -0.07548451 -0.06475212
0.03807203 -0.06582166 0.091585375 -0.0129568 0.02449998 0.03964124 0.014774703 0.07400591
-0.11219711 0.08505558 0.052134052 0.01583807 0.070778556 0.098199286 -0.056952883 0.11855037
-0.017154826 -0.106373735 0.056600135 -0.06755733 0.014523985 -0.08476558 0.020262321 0.019931944
-0.113488615 -0.05453699 -0.04802862 -0.09674304 0.035999663 -0.04538368 0.011788347 0.06802294
00000000: 92e6 84bd 2442 583d 2e66 e9bd d322 bbbd
00000010: 72a4 e9bd aedd 71bd 7790 d0bd baf5 993d
00000020: 4496 f2bd fa9a fd3b 9f3c eb3c 3319 46bb
00000030: 3051 6b3d d521 f53d 30c1 643d 751b 953c
00000040: 7111 6abd 6579 a5bc ac27 f23d 83f6 313d
00000050: af26 2bbd 5ac1 42bc d034 dbbd 30e2 d5bd
00000060: c62a 9a3d bdf3 613c 4d13 a33d aed5 8c3d
00000070: 359b b3bc c3f1 d53d fcfa 243d 860f a83d
00000080: ec0a 993d 712f ee3d 450e b7bd 018a aebc
00000090: 5d53 6f3d 7457 ebbd 547c dc3c 7b23 e9bd
000000a0: 6931 8fbd 8b4a 47bd 73d8 8cbd d609 e53c
000000b0: b87c c63d df48 eabd da86 a23d d73b 51bd
000000c0: 8bed b1bc 8ef3 9bbc 7024 fdbc fb52 14bb
000000d0: 2f2d 36bd 5c41 a6bd 2fba 8ab9 9abf 693d
000000e0: 4467 9d3c 1145 5f3d 307c 1cbd f500 18ba
000000f0: 2012 8e3d 5cf5 e53d 551e 01be 2c8c b93d
00000100: e0c4 b63d ea8b aabd d355 2ebd 8069 3a3d
00000110: 6fe5 9b3d 7d45 fabd 4c7a 973b bd6d 48bb
00000120: 5936 1dbc 0bfa d23d d14b 763b 40c5 61bd
00000130: 96b3 b73d 3109 10bd 5f60 ab3d cf97 d93d
00000140: 3f28 343d edfb a2bd 6507 69bd 37fd c7bd
00000150: 7fa7 8abd 0f8b f5bd d7b4 dd3a fa0a 47bd
00000160: 6c8c d83d fc99 c73c 4f9e 5cbd 109f 00be
00000170: 59e9 683d 5458 e6bd 3d14 45bd 5b75 3f3d
00000180: 3140 723d 9228 21bd 1e47 a63d df8e 81bd
00000190: 0eb5 9dbd b9e9 a53d 3396 863b 3a97 4c3d
000001a0: 8ccb 713c 1228 173d 2cb2 99bd 42eb 1b3d
000001b0: 8ed6 94bc 9bdb a7bd 9844 f03d b059 963d
000001c0: d676 21bb 47bf ef3d aef1 edbd cb70 a93d
000001d0: 5b56 d2bb ec8e a7bd 0806 013e fee5 dd3d
000001e0: f1ef 4fbd 28bf 81bd d647 53bd 6476 33bd
000001f0: 4772 083d afb1 523d 181d ad3c d336 00be
00000200: 311b a5bd c147 16bd daa6 54bc 162c 0dbc
00000210: d646 7e3a 1938 87bc 5ea9 b4bd 97f3 2d3d
00000220: 05db c7bd 33d1 bfbd 7b80 133c 8548 f53d
00000230: 3399 59bd d0a5 d4bd 033c beba ee47 683d
00000240: 486d 203d eba0 6b3a 6bb5 96bd 408c 023b
00000250: 2da8 fc3b 2b21 e0bd 54e4 3f3d aa77 083d
00000260: 5bc1 3f3d e9bf b73d b53a 4abd 79ff 663d
00000270: bdd0 c93d 722d efbd 00da d4bd 6c19 3b3c
00000280: 77fc 45bd d767 963d 628e fb3d 166d 12bc
00000290: f43a 343c 1575 a3bd 5b25 ec3d 1994 06bd
000002a0: cbed 9ebd 26b0 f4bd 028e 9ebd 1b3b 34bc
000002b0: f61d 86bd 6354 88bb ff84 073c d6cb 9aba
000002c0: b0be 083c 3564 31bc 843c 7b3d 4316 f0bd
000002d0: 7215 aabd 9f90 89bc 1533 8fbd 2ee9 ab3d
000002e0: 10ba af3d 4c07 023d 7469 1ebd cd4f 9dbb
000002f0: 0e3b cc3d e3d0 c93b c04f d23d 05f0 dc3d
00000300: 2f9a ce3c cf26 bf3d 6d59 15bb 4c1a 40bc
00000310: 1303 20bc c20d d6bd 0726 d43d 0a06 013e
00000320: eaa3 57bc 6ec3 aebd 0b17 0abd d74e c7bb
00000330: 8dfb c2bd d496 613d 130f a0bd b550 923d
00000340: a3e6 e83c fe99 b33d 5df0 853d 9ab2 d43d
00000350: 1d87 d83d 37fd 9c3d ca77 92bd 6da1 92bd
00000360: 9998 563d c924 df3d 8ab8 97bd 1262 99bd
00000370: 4bb5 f7bd 1706 f53c 9f97 9abd c29c 84bd
00000380: 6bf1 1b3d 82cd 86bd 1d91 bb3d c248 54bc
00000390: 2fb4 c83c da5e 223d 9911 723c 6990 973d
000003a0: 99c7 e5bd 9f31 ae3d 848a 553d d7be 813c
000003b0: 59f4 903d b51c c93d 6d47 69bd 89ca f23d
000003c0: 4788 8cbc 79da d9bd 8bd5 673d 7f5b 8abd
000003d0: 02f6 6d3c 9499 adbd 2bfd a53c 5148 a33c
000003e0: b86c e8bd 2e62 5fbd a9b9 44bd 3721 c6bd
000003f0: 6274 133d 3de4 39bd e923 413c 9c4f 8b3d

feature_extract.mlps.0.linears.1.bias f4 [64]
0.04015573 0.054780275 0.010903943 0.10309472 -0.086819634 0.028901039 0.02837858 0.020154038
0.07743543 0.108797684 0.08686916 -0.018701077 0.10616095 0.04983608 0.03819914 0.0034696534
-0.06696266 0.07030485 0.03293706 0.024063554 -0.036170345 0.108895406 0.08796332 0.11554207
-0.030898554 0.04931382 -0.04850132 0.09458453 0.10495048 0.035391636 0.106115684 -0.093932055
0.031037131 0.066036984 -0.082170725 -0.0026834952 0.062432043 -0.037588716 -0.08337909 0.07023173
-0.09310461 -0.0072603063 0.114816226 -0.033150908 -0.00692519 0.027201982 -0.11025232 -0.10520231
-0.04485941 0.026613178 0.12381997 0.040007483 -0.12410765 0.089827016 -0.049436294 0.0145826815
0.08941051 0.069527514 0.050164916 0.029554095 -0.100324534 -0.029079912 0.10719764 -0.12144853
00000000: 567a 243d 4861 603d 74a6 323c 5323 d33d
00000010: 7ece b1bd dfc1 ec3c 327a e83c 151a a53c
00000020: 7796 9e3d 52d1 de3d 75e8 b13d 0033 99bc
00000030: ea6a d93d eb20 4c3d b476 1c3d 2063 633b
00000040: b823 89bd fdfb 8f3d 03e9 063d ee20 c53c
00000050: 5b27 14bd 8e04 df3d 1d26 b43d 52a1 ec3d
00000060: f71e fdbc 4afd 493d 52a9 46bd 89b5 c13d
00000070: 47f0 d63d d2f6 103d 2e53 d93d 735f c0bd
00000080: 9541 fe3c 663e 873d 2049 a8bd 94dd 2fbb
00000090: beb8 7f3d a0f6 19bd a8c2 aabd a7d5 8f3d
000000a0: a1ad bebd dde7 edbb c524 eb3d 3fc9 07bd
000000b0: b4ec e2bb b1d6 de3c f8cb e1bd 4f74 d7bd
000000c0: 80be 37bd e103 da3c 5395 fd3d e3de 233d
000000d0: 272c febd 3af7 b73d b67d 4abd 33ec 6e3c
000000e0: dc1c b73d 7164 8e3d ba79 4d3d 6e1b f23c
000000f0: f376 cdbd ff38 eebc 708a db3d 02ba f8bd

feature_extract.mlps.0.batch_norms.0.weight f4 [64]
0.99707377 0.99134994 1.0028251 1.0044496 0.9866623 1.0079116 1.0036448 1.002334
0.9928906 1.0006095 1.0075753 1.0090705 0.99597245 1.0048693 1.0020609 1.0011305
0.999538 0.9857374 1.0005791 1.0109916 0.9975114 0.99931914 0.99263805 0.9994062
0.99924815 0.9944992 1.008909 0.995577 1.0076108 0.99935836 0.9996468 0.99676573
1.0051994 0.99857414 1.001898 1.0109872 0.9928346 1.0019759 0.99916726 1.0033293
1.0026835 1.0048004 1.0001322 1.0062423 0.995812 0.9976675 1.0017966 1.0029132
0.98933214 0.9894438 1.0019666 0.9967081 0.99885744 1.0051208 0.9943941 0.9953386
0.9993541 1.0121541 0.99093574 0.99522334 0.9953463 0.9981767 1.0018793 0.9967105
00000000: 3a40 7f3f 1cc9 7d3f 935c 803f ce91 803f
00000010: e795 7c3f 3f03 813f 6f77 803f 7b4c 803f
00000020: 142e 7e3f f913 803f 3af8 803f 3929 813f
00000030: 0df8 7e3f 8f9f 803f 8843 803f 0b25 803f
00000040: b9e1 7f3f 4959 7c3f fa12 803f 2c68 813f
00000050: e85c 7f3f 61d3 7f3f 871d 7e3f 16d9 7f3f
00000060: bace 7f3f 8097 7e3f ee23 813f 22de 7e3f
00000070: 64f9 803f f3d5 7f3f dae8 7f3f 0a2c 7f3f
00000080: 60aa 803f 8ea2 7f3f 323e 803f 0768 813f
00000090: 692a 7e3f bf40 803f 6dc9 7f3f 186d 803f
000000a0: ef57 803f 4d9d 803f 5504 803f 8ccc 803f
000000b0: 89ed 7e3f 2367 7f3f df3a 803f 765f 803f
000000c0: df44 7d3f 304c 7d3f 7140 803f 4328 7f3f
000000d0: 1fb5 7f3f cca7 803f 9d90 7e3f 83ce 7e3f
000000e0: acd5 7f3f 448e 813f f7ad 7d3f f5c6 7e3f
000000f0: 04cf 7e3f 8288 7f3f 953d 803f 6b28 7f3f

feature_extract.mlps.0.batch_norms.0.bias f4 [64]
0.0015120896 -0.005121042 -0.0009882112 0.002160118 0.0059575066 0.006537706 0.0049311784 0.004852291
0.0007689613 0.004759621 0.006614296 0.0078546945 -0.00024008895 0.008894965 -0.00028444047 0.01110446
-0.0006376237 -0.020672152 0.0027110975 0.001058543 -0.008522618 0.0004947675 -0.011437012 0.0017408641
-0.00022389974 -0.003004364 0.007818447 -0.004588883 0.005687888 0.003166672 -0.0039511267 0.005031449
0.0010856354 -5.303426e-05 0.0043857815 0.008812715 -0.0024031643 0.0058566076 -0.0018137567 -0.0024363769
-0.003704546 0.0067828344 0.00092004595 -0.0015379624 -0.0026195422 -0.0014592553 0.0048765885 0.0049917954
-0.007633247 -0.0032058265 -0.0040026284 0.0033838528 -0.0012399014 -0.00044458988 -0.0070096757 0.0032938959
0.0007464948 0.004641719 0.004141019 -0.0042939056 -0.003892912 0.013431362 0.009942561 0.00042064223
00000000: 4f31 c63a 6ace a7bb de86 81ba c490 0d3b
00000010: 3037 c33b 413a d63b b995 a13b f8ff 9e3b
00000020: 1f94 493a 98f6 9b3b bdbc d83b fab0 003c
00000030: 63c0 7bb9 30bc 113c f420 95b9 7bef 353c
00000040: 3426 27ba a558 a9bc abac 313b cfbe 8a3a
00000050: 73a2 0bbc 49b3 013a 4e62 3bbc b52d e43a
00000060: a1c6 6ab9 dde4 44bb f218 003c 575e 96bb
00000070: 7661 ba3b f187 4f3b 7478 81bb dade a43b
00000080: e14b 8e3a 1a71 5eb8 9ab6 8f3b 3563 103c
00000090: 687e 1dbb c9e8 bf3b 93bb edba 9fab 1fbb
000000a0: f8c7 72bb 8a42 de3b 3d2f 713a 7495 c9ba
000000b0: a0ac 2bbb 7c44 bfba cacb 9f3b 3792 a33b
000000c0: 5120 fabb d818 52bb 7b28 83bb a1c3 5d3b
000000d0: 3084 a2ba d817 e9b9 6cb1 e5bb 67de 573b
000000e0: 6bb0 433a 9019 983b 63b1 873b e4b3 8cbb
000000f0: 3a20 7fbb 370f 5c3c 20e6 223c a589 dc39

feature_extract.mlps.0.batch_norms.0.running_mean f4 [64]
0.8323219 0.0074564205 -1.1031407 0.18741614 0.6714713 -2.4204824 -1.4265152 -2.6617613
0.2339914 -1.8884434 1.2179134 -1.2235931 1.922683 -0.27649567 1.4546523 0.24192615
-0.2950999 0.0025018887 -0.5409129 0.46991453 0.43989724 -0.61654305 -0.671831 -0.31940794
1.030319 -1.4706354 -0.1748922 -0.95026666 -1.8651285 -1.537969 -0.24514416 1.9240212
-0.68131614 0.4277769 2.1494215 -1.0183045 -0.021826077 -1.7578167 -0.6641517 1.8386163
0.4482236 0.32684985 0.77450836 -0.69066066 1.4039956 3.121611 -1.3618368 -0.3233273
-0.25695473 -0.17109168 1.0645089 0.22991703 -0.35526583 0.41733432 2.1901162 0.14982776
-2.5738723 0.043966994 -1.7594366 0.65725344 0.36870277 2.5394042 -0.71480805 -1.2220132
00000000: 0c13 553f fd54 f43b b733 8dbf 04ea 3f3e
00000010: 8be5 2b3f 2fe9 1ac0 0d98 b6bf 4c5a 2ac0
00000020: 719b 6f3e 83b8 f1bf 96e4 9b3f b39e 9cbf
00000030: 7a1a f63f d790 8dbe 0c32 ba3f 7dbb 773e
00000040: 5617 97be baf6 233b 4579 0abf a398 f03e
00000050: 363a e13e c4d5 1dbf 1efd 2bbf 7089 a3be
00000060: 7ee1 833f c83d bcbf f116 33be ad44 73bf
00000070: 88bc eebf 2bdc c4bf 1207 7bbe 5446 f63f
00000080: bc6a 2ebf 9305 db3e 1f90 0940 cd57 82bf
00000090: 9acc b2bc 2300 e1bf d905 2abf c757 eb3f
000000a0: 907d e53e dd58 a73e 2e46 463f 23cf 30bf
000000b0: 21b6 b33f 7ac8 4740 ab50 aebf 288b a5be
000000c0: 928f 83be a832 2fbe d441 883f 5f6f 6b3e
000000d0: 67e5 b5be d8ac d53e dd2a 0c40 736c 193e
000000e0: 53ba 24c0 bc16 343d 3835 e1bf c341 283f
000000f0: 9cc6 bc3e 9985 2240 a9fd 36bf ee6a 9cbf

feature_extract.mlps.0.batch_norms.0.running_var f4 [64]
0.18064164 0.3928347 0.068304166 0.45686328 0.41551852 0.8512606 0.3328119 0.2336298
0.24839148 0.2876932 0.31813246 0.19388068 0.17207961 0.2642354 0.6364529 0.7868504
0.51099104 0.2925178 0.47500005 0.019304836 0.00065648375 0.18644229 0.07409438 0.0010720744
0.21511243 0.6488829 0.22869779 0.3859841 0.6864695 0.43983868 0.13066475 0.3177128
0.028232602 0.26288912 0.5360064 0.22276491 0.0127469385 0.07939983 0.37134847 0.44723457
0.69849014 0.005177522 0.046144433 0.042276282 0.050053045 0.38979432 0.2786021 0.20620574
0.5295607 0.4885322 0.14790815 0.39484733 0.025305197 0.399864 0.14593598 0.3319018
0.49981797 0.24695474 0.30292034 0.7351648 0.091574855 0.2521985 0.23321682 0.2992078
00000000: 1ffa 383e a121 c93e 0ee3 8b3d fce9 e93e
00000010: d8be d43e 37ec 593f 5266 aa3e a63c 6f3e
00000020: 565a 7e3e 864c 933e 42e2 a23e a888 463e
00000030: a335 303e dd49 873e 94ee 223f 076f 493f
00000040: 4fd0 023f e5c4 953e 3533 f33e 2d25 9e3c
00000050: e117 2c3a baea 3e3e cbbe 973d d984 8c3a
00000060: 6f46 5c3e 311d 263f c12f 6a3e b59f c53e
00000070: 77bc 2f3f 8932 e13e fbcc 053e 41ab a23e
00000080: 0f48 e73c 6799 863e b737 093f 7c1c 643e
00000090: 89d8 503c 619c a23d 6321 be3e eefb e43e
000000a0: 40d0 323f 34a8 a93b f201 3d3d e529 2d3d
000000b0: 6c04 4d3d 1f93 c73e efa4 8e3e 9927 533e
000000c0: 4a91 073f e420 fa3e 3c75 173e 6e29 ca3e
000000d0: d84c cf3c f9ba cc3e 3e70 153e 08ef a93e
000000e0: 24e8 ff3e b4e1 7c3e 6018 9b3e c333 3c3f
000000f0: 998b bb3d 2920 813e 64d0 6e3e c431 993e

feature_extract.mlps.1.linears.0.weight f4 [64, 64]
0.10911825 0.07137383 0.10372546 0.12139915 -0.0051556774 -0.047409814 -0.05132847 0.006262635
0.038762003 -0.03586687 0.07628531 -0.122588076 -0.106787845 -0.042980906 -0.0037875993 -0.002198289
-0.0369581 -0.026271915 -0.081320465 0.03669493 0.05928865 0.027090048 -0.036694612 -0.04516276
0.06819061 -0.01782111 0.0063968096 -0.0024074109 -0.054059688 0.041756738 0.11717414 0.05102791
-0.03335048 0.032020304 -0.07616583 0.09636236 -0.039354976 0.08800227 -0.11868483 0.10437142
0.11055564 0.06780809 0.09495908 0.058406577 0.07792625 0.07886363 -0.048675466 -0.108874805
0.067294285 -0.12105051 0.025969297 -0.071430966 0.041834515 -0.0037096832 0.08443076 0.058859974
0.0056334506 -0.07101908 0.06816762 -0.027757937 0.08397666 0.0662257 -0.039712094 0.04352956
-0.024153296 -0.10270974 -0.085221104 0.080140375 -0.04386761 0.08464067 -0.10008271 0.10842728
-0.057562396 0.077669576 -0.10441217 0.07905422 0.053428434 -0.06261585 0.06263123 -0.0800222
0.08051022 -0.0010999545 -0.02920451 0.051391453 -0.0613438 0.0662993 -0.025503105 -0.048650213
-0.08453036 0.10357389 -0.053713735 0.083122246 0.02502808 -0.07424194 0.116495006 -0.067455694
-0.028283872 0.031922333 -0.11815276 -0.026787434 -0.04265609 -0.029135043 -0.048021942 -0.11783228
-0.07953439 -0.005599904 -0.043016102 -0.04582448 -0.009027841 0.017102608 -0.07335061 -0.06488142
0.10439982 0.08092078 0.08818549 0.08775968 0.081461504 0.13317256 -0.056831155 0.053705666
-0.06937533 -0.06461978 -0.098461084 -0.113318585 0.05277103 0.038010117 0.03871623 -0.06808512
-0.053524762 0.08706039 -0.06423801 0.074404486 -0.06517139 -0.10754312 0.0029922875 0.113224834
0.113291964 -0.123905905 0.018623922 -0.12619449 -0.09143042 0.027736375 -0.0045260335 -0.02452306
-0.06862032 -0.020983174 0.018086782 -0.0068242727 -0.05247102 -0.052174024 0.11675574 0.029455017
-0.02095564 -0.07918001 -0.04167617 -0.010062523 0.11331696 -0.089988 -0.059675105 -0.06804873
-0.025960082 0.067967385 -0.03905989 -0.03523738 -0.116450764 0.04443692 0.015241445 -0.043189842
0.121075355 0.09775691 -0.0018539346 -0.038305186 0.0143913515 -0.002108424 -0.012714181 0.12256482
0.07425363 -0.06496117 -0.07295717 0.05321021 -0.002840746 -0.017003503 -0.10263156 -0.06451208
0.13477877 0.09248122 -0.034165684 -0.013461431 0.05342582 0.015411271 0.035663135 0.0908569
0.0742354 -0.06300189 0.0931982 0.036522 -0.06931965 -0.03142497 0.05094671 -0.049270052
-0.07835315 -0.08098003 0.086614296 -0.08306803 -0.1279672 0.08105537 -0.08992944 0.12210726
-0.1313672 0.02115006 0.014030761 0.027831987 0.037340645 -0.120236345 0.046750706 -0.0017972506
-0.025076378 0.09453899 -0.031149844 -0.03146659 -0.10567307 -0.11047872 -0.09227435 0.02714193
0.032543033 -0.027015302 -0.07439434 -0.002073625 -0.03174312 0.019519217 0.04674403 -0.039645102
-0.035886977 -0.080971375 0.115159325 0.05142994 -0.1083989 0.051026322 0.05564132 0.05275278
-0.024284193 -0.09312649 0.032916743 -0.025920453 -0.04122024 -0.043331925 -0.075343825 0.037965726
0.06593253 0.006131644 0.10086533 -0.06644558 -0.087478414 -0.1244472 -0.10274983 -0.10242266
00000000: 6479 df3d 712c 923d 046e d43d 1ea0 f83d
00000010: f5f0 a8bb cb30 42bd cd3d 52bd ca36 cd3b
00000020: e8c4 1e3d 24e9 12bd 793b 9c3d 750f fbbd
00000030: 96b3 dabd bf0c 30bd 5f39 78bb 2b11 10bb
00000040: 6061 17bd 3338 d7bc 588b a6bd 6c4d 163d
00000050: a8d8 723d f3eb dd3c 174d 16bd 96fc 38bd
00000060: 85a7 8b3d 94fd 91bc 549c d13b a7c5 1dbb
00000070: b16d 5dbd 1d09 2b3d fff8 ef3d a402 513d
00000080: 839a 08bd b927 033d d5fc 9bbd a159 c53d
00000090: af32 21bd 893a b43d 0811 f3bd afc0 d53d
000000a0: ff6a e23d f8de 8a3d e879 c23d bc3b 6f3d
000000b0: cc97 9f3d 4183 a13d ed5f 47bd c1f9 debd
000000c0: 96d1 893d 54e9 f7bd 90bd d43c 664a 92bd
000000d0: ab5a 2b3d 281e 73bb 09ea ac3d 2817 713d
000000e0: cf98 b83b 7472 91bd 779b 8b3d 9d64 e3bc
000000f0: f5fb ab3d 57a1 873d 26a9 22bd 0d4c 323d
00000100: 22dd c5bc 7c59 d2bd 6788 aebd a320 a43d
00000110: 86ae 33bd 1658 ad3d 2af8 ccbd 1f0f de3d
00000120: 8cc6 6bbd 3a11 9f3d 0cd6 d5bd 2ee7 a13d
00000130: c6d7 5a3d bd3c 80bd cd44 803d aee2 a3bd
00000140: 8be2 a43d 592c 90ba 4c3e efbc d87f 523d
00000150: a343 7bbd edc7 873d e3eb d0bc 7245 47bd
00000160: 411e adbd 8c1e d43d ef02 5cbd ff3b aa3d
00000170: b007 cd3c 290c 98bd ef94 ee3d 3626 8abd
00000180: 94b3 e7bc fec0 023d 13fa f1bd 5271 dbbc
00000190: 27b8 2ebd 9dac eebc a8b2 44bd 0d52 f1bd
000001a0: ede2 a2bd 667f b7bb a731 30bd 73b2 3bbd
000001b0: 82e9 13bc c51a 8c3c d838 96bd 8de0 84bd
000001c0: 93cf d53d cbb9 a53d 989a b43d 59bb b33d
000001d0: 4ad5 a63d 635e 083e c9c7 68bd 79fa 5b3d
000001e0: a714 8ebd 6057 84bd f7a5 c9bd 9313 e8bd
000001f0: 7026 583d 7fb0 1b3d e994 1e3d 3670 8bbd
00000200: c83c 5bbd b84c b23d 388f 83bd 6161 983d
00000210: 9478 85bd 913f dcbd 411a 443b 6ce2 e73d
00000220: 9e05 e83d 61c2 fdbd 3291 983c 2139 01be
00000230: df3f bbbd 6537 e33c 1f4f 94bb 96e4 c8bc
00000240: cf88 8cbd e8e4 abbc bb2a 943c 269e dfbb
00000250: daeb 56bd 6eb4 55bd a21d ef3d a64b f13c
00000260: 2aab abbc 2129 a2bd a2b4 2abd 48dd 24bc
00000270: b912 e83d a14b b8bd e26d 74bd 225d 8bbd
00000280: 3daa d4bc 7c32 8b3d 43fd 1fbd 1255 10bd
00000290: bd7d eebd 7d03 363d 41b7 793c d5e7 30bd
000002a0: 5bf6 f73d c634 c83d b9ff f2ba e6e5 1cbd
000002b0: b4c9 6b3c 7c2d 0abb 244f 50bc 4403 fb3d
000002c0: 4a12 983d 5d0a 85bd 926a 95bd f3f2 593d
000002d0: cf2b 3abb ee4a 8bbc 7f30 d2bd e91e 84bd
000002e0: 7203 0a3e cb66 bd3d 51f1 0bbd 558d 5cbc
000002f0: 08d5 5a3d 8e7f 7c3c 8213 123d 2f13 ba3d
00000300: bb08 983d 2307 81bd b3de be3d 1898 153d
00000310: 76f7 8dbd 78b7 00bd 7fad 503d 65cf 49bd
00000320: 9e77 a0bd dcd8 a5bd d662 b13d 921f aabd
00000330: d509 03be 5c00 a63d ed2c b8bd 5f13 fa3d
00000340: 2085 06be e442 ad3c 47e1 653c e8ff e33c
00000350: 81f2 183d 793e f6bd ab7d 3f3d b991 ebba
00000360: fa6c cdbc a89d c13d f52d ffbc 1ce3 00bd
00000370: 1f6b d8bd ab42 e2bd 56fa bcbd c158 de3c
00000380: d84b 053d 324f ddbc 0f5c 98bd a8e5 07bb
00000390: 1305 02bd c4e6 9f3c ab76 3f3d e762 22bd
000003a0: 39fe 12bd 52d4 a5bd a7d8 eb3d 33a8 523d
000003b0: 3e00 debd fa00 513d 27e8 633d 4d13 583d
000003c0: a5ef c6bc 1ab9 bebd b5d3 063d 2157 d4bc
000003d0: 8ed6 28bd d17c 31bd dd4d 9abd f381 1b3d
000003e0: a207 873d f5eb c83b 7b92 ce3d 9f14 88bd
000003f0: e227 b3bd 2cde febd 816e d2bd f9c2 d1bd

feature_extract.mlps.1.linears.0.bias f4 [64]
-0.07088155 0.04933774 -0.013055931 0.030964434 -0.05179219 -0.0739977 -0.04619157 0.099156454
0.087219805 0.02526828 0.011958981 -0.017340528 0.09159029 -0.046821535 0.04121505 -0.03728188
0.11837418 0.011628057 0.097491406 0.11246968 -0.059506413 -0.092496574 -0.00087083405 0.027138075
0.12087763 0.10554181 -0.08103672 0.07837097 0.021677691 -0.07019832 -0.091237545 0.0890411
0.08097615 -0.11129153 -0.074319 0.062849775 0.053028833 0.050846566 -0.053419866 0.007470784
0.0028431858 0.0012886616 0.035617683 -0.011326129 0.078228645 -0.1242349 0.10008128 0.10777544
0.016421976 0.07178721 -0.056319285 0.109544374 0.00901758 -0.11446626 0.059047826 0.09864303
0.03625763 0.06339832 -0.0054761427 0.05057948 0.10868024 -0.11828789 -0.075984694 -0.11322698
00000000: 592a 91bd 5f16 4a3d 8be8 55bc 20a9 fd3c
00000010: 0c24 54bd 1b8c 97bd 5f33 3dbd 8a12 cb3d
00000020: 4ca0 b23d 6dff ce3c 9aef 433c b90d 8ebc
00000030: b193 bb3d f0c7 3fbd 1dd1 283d e2b4 18bd
00000040: 296e f23d 9b83 3e3c 93a9 c73d 8156 e63d
00000050: ffbc 73bd d86e bdbd af48 64ba ab50 de3c
00000060: b18e f73d 4e26 d83d 94f6 a5bd f680 a03d
00000070: 6a95 b13c 23c4 8fbd c0da babd 2e5b b63d
00000080: d3d6 a53d d0ec e3bd 8f34 98bd 62b7 803d
00000090: c334 593d 7d44 503d cace 5abd 7acd f43b
000000a0: be54 3a3b 4fe8 a83a d9e3 113d 3a91 39bc
000000b0: 5736 a03d de6e febd 6af7 cc3d 5fb9 dc3d
000000c0: 6187 863c 2c05 933d 0daf 66bd cd58 e03d
000000d0: 79be 133c 496d eabd 22dc 713d 5b05 ca3d
000000e0: e182 143d fad6 813d 3771 b3bb 6e2c 4f3d
000000f0: bf93 de3d ec40 f2bd dd9d 9bbd 8ce3 e7bd

feature_extract.mlps.1.linears.1.weight f4 [64, 64]
-0.009009236 0.081959546 0.046685353 -0.0054025394 -0.09815074 -0.07452319 0.0973627 0.099400334
0.040294435 -0.0074243937 -0.09136 -0.08205121 -0.07832133 0.06938369 -0.055428382 0.07553554
0.12631251 0.07463081 -0.032572195 0.0095518 0.123894095 -0.09204089 0.055382248 0.118274026
-0.023718642 -0.043973584 -0.114432104 -0.06774696 0.05785993 -0.04445638 0.07668271 -0.03541276
0.087043434 0.0135918055 -0.096869186 -0.07282125 -0.056223303 0.09512464 -0.106523804 0.044447847
-0.08455444 0.039488856 -0.0029368636 -0.09105962 0.10994678 -0.112258755 0.12195437 0.025982605
0.02354722 -0.061136972 0.0066699726 0.08949988 0.07938217 0.12820312 -0.01487106 0.0063734595
-0.065446064 -0.11935937 0.031242333 -0.10419962 0.07703235 -0.032186367 -0.0074789114 0.05680595
0.0070973136 0.0867728 0.08777435 -0.084414616 -0.1127072 -0.11717091 0.12271053 0.121483855
-0.0028425378 0.056841098 0.038958177 -0.107047856 0.03793652 -0.041193604 -0.08305229 0.010030879
0.07638518 -0.1060371 0.0273691 -0.07460947 -0.052136656 -0.028642934 0.09596162 -0.11824358
-0.03606461 0.07026971 0.045205597 0.021095084 0.09435227 -0.03772792 0.028257534 -0.038157918
-0.018135961 0.007002164 0.009757673 -0.11034162 0.06573988 0.06818387 0.046235617 0.05900735
-0.01465673 0.019863496 -0.065665595 0.05586976 -0.038034186 0.11821108 -0.07718691 0.13037156
0.11382879 -0.030137744 0.054362673 0.067433834 -0.12008989 0.09201087 0.0551485 -0.100803025
-0.044074867 -0.10771166 -0.051068805 -0.091990866 -0.08340222 -0.0661543 -0.023433877 -0.024437902
-0.031460393 0.07256847 0.07969933 -0.032540094 -0.10205209 0.10458366 0.102889135 -0.018334862
0.013236042 0.065381415 0.0265081 0.062098354 0.08727451 0.029365 -0.036256168 -0.10065922
0.048649516 -0.031202719 -0.068292946 0.06460049 -0.11305061 0.06773527 -0.011763335 0.110666074
-0.04140416 0.108382076 -0.009034498 -0.1050975 0.0017323843 -0.013059547 0.02182787 0.03256646
0.0029441616 -0.12086343 -0.07305105 -0.07027759 -0.05465251 -0.05731809 -0.04015711 0.071000196
0.04670634 -0.0050740098 -0.13976367 0.119231574 0.0425479 -0.13572507 0.093843244 0.08316661
0.08505196 0.00253661 -0.105729885 -0.024445737 -0.10630565 0.10563695 0.091853425 0.01014711
0.026044363 -0.036324646 -0.04653137 0.07925078 0.11017402 0.038683865 -0.025120415 0.0010208965
-0.0041096583 -0.012980364 -0.012522199 0.026830394 0.01938312 0.11328614 -0.09061268 -0.048404455
0.027222421 0.1041742 0.11012765 0.07242429 -0.016065093 0.0765337 -0.08858988 0.021113869
-0.042620614 0.075383484 -0.061624378 0.12215735 0.01823759 -0.11923726 0.08503478 -0.0016588506
-0.13375524 0.12048542 -0.0705111 -0.00847815 0.12457919 -0.036669873 -0.10586839 0.12408329
-0.09458458 0.117864236 0.10714679 0.08370346 0.070960246 0.014363488 -0.12471999 -0.09509111
0.09028696 0.10942613 0.069653325 -0.096675634 0.06472011 -0.007635657 -0.01344094 -0.10056694
-0.085733615 -0.11735377 0.026669275 0.12757559 -0.064132065 -0.045557838 -0.08928584 -0.111369126
0.10408493 0.06954383 -0.0043425434 0.03673288 0.08363562 -0.017743634 -0.08793353 0.023783691
00000000: 799b 13bc 68da a73d 2439 3f3d c907 b1bb
00000010: 4103 c9bd 9d9f 98bd 1866 c73d 6792 cb3d
00000020: c70b 253d 5448 f3bb f41a bbbd 770a a8bd
00000030: ef66 a0bd 0919 8e3d df08 63bd 61b2 9a3d
00000040: 1158 013e 0ad8 983d 6c6a 05bd 277f 1c3c
00000050: 30bc fd3d ef7f bcbd 7fd8 623d a739 f23d
00000060: 994d c2bc a51d 34bd 615b eabd ebbe 8abd
00000070: 89fe 6c3d e517 36bd d30b 9d3d f80c 11bd
00000080: d443 b23d 2ab0 5e3c 5a63 c6bd 4f23 95bd
00000090: 684a 66bd b5d0 c23d 2729 dabd f20e 363d
000000a0: e12a adbd 11bf 213d 6578 40bb 777d babd
000000b0: c72b e13d ebe7 e5bd 36c3 f93d 79d9 d43c
000000c0: 19e6 c03c c36a 7abd c98f da3b b74b b73d
000000d0: 1f93 a23d ae47 033e bfa5 73bc 74d8 d03b
000000e0: 9608 86bd af72 f4bd ecef ff3c 9c66 d5bd
000000f0: 23c3 9d3d dad5 03bd a811 f5bb 5bad 683d
00000100: 9590 e83b f0b5 b13d 0ac3 b33d 92e1 acbd
00000110: 08d3 e6bd 4df7 efbd a94f fb3d 87cc f83d
00000120: df49 3abb 36d2 683d 9c92 1f3d e83b dbbd
00000130: 5363 1b3d a0ba 28bd 5217 aabd 8e58 243c
00000140: d56f 9c3d fb29 d9bd 2a35 e03c dacc 98bd
00000150: 3f8d 55bd 96a4 eabc 8787 c43d b129 f2bd
00000160: 7cb8 13bd 91e9 8f3d 8129 393d 99cf ac3c
00000170: c33b c13d 9788 1abd 587c e73c 7a4b 1cbd
00000180: de91 94bc 6972 e53b a6de 1f3c cafa e1bd
00000190: a1a2 863d fca3 8b3d 8f61 3d3d b1b1 713d
000001a0: c822 70bc c5b8 a23c af7b 86bd b1d7 643d
000001b0: bcc9 1bbd a718 f23d 2c14 9ebd 1f80 053e
000001c0: 121f e93d 6ee3 f6bc 65ab 5e3d c01a 8a3d
000001d0: b0f1 f5bd 3270 bc3d 65e3 613d d171 cebd
000001e0: d987 34bd ee97 dcbd 862d 51bd b565 bcbd
000001f0: c8ce aabd e87b 87bd 67f8 bfbc ff31 c8bc
00000200: 9ddc 00bd c79e 943d 6739 a33d c348 05bd
00000210: b000 d1bd f52f d63d 8ab7 d23d fe32 96bc
00000220: fcdb 583c b1e6 853d 8427 d93c d85a 7e3d
00000230: fabc b23d de8e f03c 5981 14bd 6c26 cebd
00000240: b744 473d d89c ffbc 2cdd 8bbd 434d 843d
00000250: 1487 e7bd cab8 8a3d 01bb 40bc e5a4 e23d
00000260: 6997 29bd 6cf7 dd3d 6e05 14bc 5c3d d7bd
00000270: 2c11 e33a b6f7 55bc 5cd0 b23c 6964 053d
00000280: d6f2 403b 3f87 f7bd ca9b 95bd b2ed 8fbd
00000290: 4fdb 5fbd 60c6 6abd c87b 24bd 8d68 913d
000002a0: 264f 3f3d e143 a6bb 351e 0fbe af2f f43d
000002b0: b546 2e3d 83fb 0abe e330 c03d 4153 aa3d
000002c0: b92f ae3d 413d 263b e988 d8bd 6d42 c8bc
000002d0: c7b6 d9bd 2f58 d83d a61d bc3d 1040 263c
000002e0: fd5a d53c 27c9 14bd ae97 3ebd 3c4e a23d
000002f0: eba2 e13d f972 1e3d 54c9 cdbc 9acf 853a
00000300: 50aa 86bb 98ab 54bc e929 4dbc 6acb db3c
00000310: 59c9 9e3c 9002 e83d 2493 b9bd c043 46bd
00000320: 8e01 df3c 4859 d53d 9b8a e13d 3053 943d
00000330: f19a 83bc b3bd 9c3d 9c6e b5bd fef6 ac3c
00000340: f492 2ebd a862 9a3d d869 7cbd a22d fa3d
00000350: 0067 953c aa32 f4bd b726 ae3d ca6d d9ba
00000360: 22f7 08be 0fc1 f63d 2068 90bd f0e7 0abc
00000370: 6023 ff3d 2633 16bd 87d1 d8bd 611f fe3d
00000380: 8fb5 c1bd ce62 f13d c76f db3d b86c ab3d
00000390: 9b53 913d d654 6b3c 326d ffbd 21bf c2bd
000003a0: 5fe8 b83d cf1a e03d 67a6 8e3d e0fd c5bd
000003b0: fa8b 843d 8934 fabb 6337 5cbc 0af6 cdbd
000003c0: 1b95 afbd 2c57 f0bd 8679 da3c 2da3 023e
000003d0: ac57 83bd db9a 3abd 7fdb b6bd 7f15 e4bd
000003e0: 7b2a d53d ff6c 8e3d e54b 8ebb 3775 163d
000003f0: 2749 ab3d 195b 91bc 7f16 b4bd 04d6 c23c

feature_extract.mlps.1.linears.1.bias f4 [64]
0.07555322 -0.034838207 -0.092832595 0.042390198 0.026002575 0.03869757 -0.021396905 -0.06727696
0.027713211 0.07888631 0.123067014 -0.08884084 -0.034429014 0.09684933 -0.08259063 0.10186657
0.036797684 0.07369138 -0.042048667 0.104511924 -0.11900835 0.08424612 0.009883274 0.036931135
0.06693334 -0.12061039 0.0032673785 0.0016613697 0.037164934 -0.018332897 0.01853273 -0.0054109134
-0.11180684 -0.061580017 0.0880617 -0.0996003 -0.04489774 -0.09615391 -0.0052064033 0.05273775
-0.014071572 0.064984806 -0.085561045 -0.08287025 -0.10628235 0.05500561 0.02040377 -0.08303264
-0.117567755 -0.04074349 -0.0033846514 0.08484974 -0.08229655 0.08022351 0.049956366 -0.11097618
0.047646914 0.07998596 -0.07140588 0.08836504 0.11289656 -0.09186827 0.08879993 0.07864967
00000000: a6bb 9a3d 82b2 0ebd 041f bebd 58a1 2d3d
00000010: 5a03 d53c 5881 1e3d 9048 afbc 81c8 89bd
00000020: d106 e33c 258f a13d 8f0a fc3d 30f2 b5bd
00000030: 7005 0dbd f158 c63d 4725 a9bd 6c9f d03d
00000040: 2bb9 163d 82eb 963d 393b 2cbd 590a d63d
00000050: a6ba f3bd 3b89 ac3d 75ed 213c 1a45 173d
00000060: 5914 893d 9502 f7bd 8421 563b 51c2 d93a
00000070: 423a 183d df2e 96bc f4d1 973c 084e b1bb
00000080: fcfa e4bd 543b 7cbd b159 b43d 3efb cbbd
00000090: b1e6 37bd 57ec c4bd 7a9a aabb 8a03 583d
000000a0: 738c 66bc c116 853d a13a afbd e1b7 a9bd
000000b0: 90aa d9bd 904d 613d cf25 a73c 040d aabd
000000c0: 5dc7 f0bd a5e2 26bd 07d1 5dbb b3c5 ad3d
000000d0: 188b a8bd 394c a43d 0c9f 4c3d 7b47 e3bd
000000e0: 6929 433d aecf a33d 3f3d 92bd bbf8 b43d
000000f0: 5036 e73d 6e25 bcbd bddc b53d 1413 a13d

feature_extract.mlps.1.batch_norms.0.weight f4 [64]
0.99922776 0.9946065 0.97900295 0.9973574 1.0006019 1.0027493 1.003753 0.9945478
1.0097176 1.0072085 0.9974783 1.0153784 0.9912134 0.997532 0.99379396 0.9758927
1.0214053 0.98181486 1.0023651 1.0064899 1.0171133 0.9875105 1.0036125 1.0076452
1.0055538 0.982216 1.0112193 1.0107746 1.0080141 1.0041851 0.99922466 1.009798
1.0076035 0.9936901 1.005839 1.0052272 0.98389566 1.0069783 0.99656034 0.9865931
0.9971564 0.99090546 0.99737656 0.9854383 0.99419385 1.0283785 1.0071012 0.99071956
1.0013518 0.9864758 1.0083807 1.0123771 1.0094081 1.0095648 0.98821425 0.9928241
0.98375 0.99454194 0.99476856 1.002172 0.9856205 1.0002565 1.0068853 1.007912
00000000: 64cd 7f3f 889e 7e3f f09f 7a3f d152 7f3f
00000010: b913 803f 175a 803f fa7a 803f af9a 7e3f
00000020: 6d3e 813f 35ec 803f bd5a 7f3f ebf7 813f
00000030: 29c0 7d3f 425e 7f3f 4869 7e3f 1bd4 793f
00000040: 69bd 823f 3858 7b3f 804d 803f a9d4 803f
00000050: c530 823f 7dcd 7c3f 6076 803f 85fa 803f
00000060: fdb5 803f 8272 7b3f a26f 813f 1061 813f
00000070: 9b06 813f 2389 803f 30cd 7f3f 1041 813f
00000080: 27f9 803f 7962 7e3f 55bf 803f 49ab 803f
00000090: 96e0 7b3f aae4 803f 941e 7f3f 5e91 7c3f
000000a0: a445 7f3f fbab 7d3f 1254 7f3f af45 7c3f
000000b0: 7d83 7e3f e8a1 833f b1e8 803f cc9f 7d3f
000000c0: 4c2c 803f ae89 7c3f 9e12 813f 9395 813f
000000d0: 4934 813f 6b39 813f 9cfb 7c3f b829 7e3f
000000e0: 0ad7 7b3f 4d9a 7e3f 27a9 7e3f 2c47 803f
000000f0: a051 7c3f 6808 803f 9ee1 803f 4303 813f

feature_extract.mlps.1.batch_norms.0.bias f4 [64]
-0.0074311113 0.0017466727 -0.01334913 0.0012795365 0.006169609 0.008550721 0.003554714 -0.007894818
0.017500628 0.005527278 -0.0038236298 0.013118879 -0.006679787 -0.0052422397 0.012539586 -0.010183089
0.0022026731 -0.012082369 0.005142877 0.010297113 0.020505166 -0.008854853 0.009015655 0.0116070835
0.009385488 -0.016990969 0.010384138 -0.00036590663 0.012760351 0.0030388494 -0.0030600275 0.014399309
0.009569845 -0.0047199233 0.0069360924 0.005628669 -0.010030473 0.0061819158 -0.0063271928 -0.0149357
0.000982099 -0.0038635938 9.5992524e-05 -0.0067738947 -0.002746999 0.016962104 0.003793729 0.014926736
0.011927391 -0.009912234 0.011500792 0.008439061 0.006749828 0.0136545645 -0.006724545 -0.0074171387
-0.010474648 -0.0048749703 -0.008103241 -0.0085486695 -0.008198863 0.01404185 0.013267891 0.0108922385
00000000: ae80 f3bb 9cf0 e43a 4fb6 5abc 1fb6 a73a
00000010: 6e2a ca3b 5318 0c3c 34f6 683b 4459 01bc
00000020: 7a5d 8f3c 2b1e b53b dd95 7abb 91f0 563c
00000030: 1de2 dabb 18c7 abbb d672 4d3c f9d6 26bc
00000040: b95a 103b 21f5 45bc 9485 a83b 39b5 283c
00000050: 73fa a73c f213 11bc 66b6 133c a32b 3e3c
00000060: 97c5 193c a530 8bbc 3b22 2a3c 28d7 bfb9
00000070: cb10 513c 6f27 473b be8a 48bb 14eb 6b3c
00000080: d7ca 1c3c 96a9 9abb 2948 e33b b370 b83b
00000090: da56 24bc ab91 ca3b 5754 cfbb deb4 74bc
000000a0: c6b9 803a 5934 7dbb 984f c938 8cf7 ddbb
000000b0: ff06 34bb 1cf4 8a3c 36a0 783b 458f 743c
000000c0: 1b6b 433c ec66 22bc d16d 3c3c fd43 0a3c
000000d0: a92d dd3b 65b7 5f3c 9259 dcbb 780b f3bb
000000e0: dc9d 2bbc 37be 9fbb 75c3 04bc b80f 0cbc
000000f0: 8654 06bc ca0f 663c 9161 593c 5c75 323c

feature_extract.mlps.1.batch_norms.0.running_mean f4 [64]
0.8724035 -0.56853515 -0.10018018 -0.9863784 -0.5930241 -0.21328385 -0.42451158 -0.12743947
0.9671951 -0.3382583 -0.53171563 -0.76355517 0.14731768 0.013766886 0.54695636 0.97233665
0.8475478 -0.68191695 0.80549574 -0.47500068 0.21968493 -0.4577756 -0.47015318 -1.3083606
-0.22255035 -0.5436121 -0.4087161 0.7793831 -0.7567788 -0.053511087 -0.44908378 -0.40956926
-1.108764 -0.5082806 -0.4423934 0.3033531 -0.100928724 -0.98559254 0.8684128 -0.2241742
0.25346345 0.8360318 -0.18891172 0.08452592 -0.727624 -0.7486007 -0.62321615 -0.091998115
-0.14473766 0.6413737 -1.0880944 -0.036252275 0.7153397 -0.37143236 -0.06869971 0.3955459
0.81839865 -0.1501198 0.824599 -1.4061385 0.53335905 -0.5049531 0.11984727 0.21140921
00000000: d655 5f3f 858b 11bf 442b cdbd 4b83 7cbf
00000010: 6dd0 17bf 1567 5abe 9559 d9be 7e7f 02be
00000020: 199a 773f 3130 adbe 841e 08bf 5a78 43bf
00000030: 72da 163e 818e 613c 5505 0c3f 0eeb 783f
00000040: e5f8 583f 1c92 2ebf f834 4e3f 4a33 f3be
00000050: 16f5 603e 9061 eabe ebb7 f0be 5c78 a7bf
00000060: 3de4 63be 2a2a 0bbf 3d43 d1be a785 473f
00000070: 41bc 41bf 712e 5bbd 4fee e5be 10b3 d1be
00000080: fbeb 8dbf ad1e 02bf 6381 e2be 1951 9b3e
00000090: b8b3 cebd cb4f 7cbf 4d50 5e3f ec8d 65be
000000a0: f6c5 813e 2e06 563f 1372 41be ed1b ad3d
000000b0: 9145 3abf 4ca4 3fbf 188b 1fbf 8269 bcbd
000000c0: 1c36 14be 1131 243f ad46 8bbf 447d 14bd
000000d0: 8120 373f 622c bebe 6fb2 8cbd fe84 ca3e
000000e0: 9382 513f 01b9 19be ec18 533f 59fc b3bf
000000f0: 388a 083f 9b44 01bf 7c72 f53d a87b 583e

feature_extract.mlps.1.batch_norms.0.running_var f4 [64]
0.23502882 0.80784494 1.0984212 0.15091403 0.65394515 0.15666927 0.63985854 0.4278164
0.40485412 0.8478316 0.5075738 0.44543278 0.17512456 0.67102545 0.464703 0.6588044
0.2967113 0.7244793 0.75175875 0.1895154 0.5606566 1.0320158 0.7725839 1.3501425
0.7748683 1.1041657 1.2825098 0.26099035 0.6456889 1.1825716 0.2448261 0.41596577
0.5020224 0.89448166 0.80316335 0.6156035 0.2502668 0.8925482 0.8761939 0.7251257
0.57239604 0.38266006 0.34242117 0.31124976 0.8816375 0.33857214 0.5657908 0.5792448
0.9183257 0.44775158 1.1721178 0.25220257 0.6037014 0.42661706 0.23280878 0.07646786
0.89522374 0.28965884 0.35096765 0.327541 0.9411656 0.6750845 0.86621195 0.84144855
00000000: 65ab 703e edce 4e3f 1199 8c3f 3589 1a3e
00000010: f368 273f e96d 203e c5cd 233f c00a db3e
00000020: 0a49 cf3e 7e0b 593f 5bf0 013f c40f e43e
00000030: da53 333e 53c8 2b3f 8ded ed3e 68a7 283f
00000040: 8bea 973e 7a77 393f 4373 403f 5310 423e
00000050: 3187 0f3f 1819 843f 0fc8 453f 78d1 ac3f
00000060: c55d 463f 4d55 8d3f 4829 a43f 87a0 853e
00000070: de4b 253f 825e 973f b1b3 7a3e 77f9 d43e
00000080: 8a84 003f c0fc 643f 1d9c 4d3f 3198 1d3f
00000090: f822 803e 0a7e 643f 3e4e 603f d6a1 393f
000000a0: 8c88 123f 05ec c33e d451 af3e 215c 9f3e
000000b0: ffb2 613f 5459 ad3e aad7 103f 6349 143f
000000c0: 6517 6b3f b23f e53e f507 963f b220 813e
000000d0: 2d8c 1a3f 8d6d da3e 6d65 6e3e 2e9b 9c3d
000000e0: 622d 653f 2a4e 943e 08b2 b33e 74b3 a73e
000000f0: 3bf0 703f 56d2 2c3f 11c0 5d3f 2c69 573f

feature_extract.batch_norms.0.weight f4 [64]
1.0036837 0.9994038 1.0099142 0.9875176 1.0047354 0.9996349 0.9956903 0.991866
0.9933553 0.99749523 0.9945635 1.0016026 1.0096968 0.9813925 0.99931145 1.0165019
0.99176997 1.0065913 1.0015217 1.001551 0.9991509 1.0063572 0.99881935 1.003259
0.9957742 0.98307544 1.0041904 0.9983908 1.005783 1.0002755 0.99697024 1.0015446
1.0083348 1.0104665 1.0013623 1.0029093 0.9971509 1.0056388 0.9906153 1.0006064
1.0089405 0.99584484 1.0018157 1.003225 0.99578047 0.99281025 0.9944101 1.001568
1.0072081 0.9934602 1.0068836 1.0084596 0.9993546 1.0024647 1.0029373 0.99414754
0.98887104 1.0130744 1.0100259 1.0042452 1.0023098 0.99460703 0.996842 1.0037062
00000000: b578 803f edd8 7f3f de44 813f f4cd 7c3f
00000010: 2b9b 803f 13e8 7f3f 8fe5 7e3f eeea 7d3f
00000020: 884c 7e3f d95b 7f3f b79b 7e3f 8434 803f
00000030: bf3d 813f 8a3c 7b3f e0d2 7f3f bc1c 823f
00000040: a3e4 7d3f fcd7 803f dd31 803f d332 803f
00000050: 5ac8 7f3f 50d0 803f a0b2 7f3f ca6a 803f
00000060: 0feb 7e3f d5aa 7b3f 5089 803f 8a96 7f3f
00000070: 7fbd 803f 0709 803f 7139 7f3f 9d32 803f
00000080: 1d11 813f f756 813f a42c 803f 555f 803f
00000090: 4845 7f3f c6b8 803f f798 7d3f df13 803f
000000a0: f624 813f b0ef 7e3f 7f3b 803f ad69 803f
000000b0: 78eb 7e3f d028 7e3f a991 7e3f 6133 803f
000000c0: 32ec 803f 6853 7e3f 90e1 803f 3415 813f
000000d0: b4d5 7f3f c350 803f 4060 803f 7480 7e3f
000000e0: a726 7d3f 6cac 813f 8748 813f 1b8b 803f
000000f0: b04b 803f 919e 7e3f 0a31 7f3f 7279 803f

feature_extract.batch_norms.0.bias f4 [64]
0.011402645 0.0045593656 0.0061437124 -0.010375204 0.0042906636 -0.00274365 0.0041577048 -0.0071890336
-0.0014397075 -0.0018986331 -0.0036494958 0.0021582067 6.55246e-05 -0.004686089 0.0016818137 0.017915023
-0.0076300814 -0.0016202902 0.006652491 -0.0067983754 0.0032074256 0.006970636 0.00017530363 0.0063623143
0.002135919 -0.024463661 0.00850481 -0.0022128057 0.011060824 0.008442801 0.0043629715 -0.0039414973
0.0064447233 0.014189533 -0.0035966556 0.0053650676 0.015565875 0.011438425 -0.010070713 0.0041248077
0.011367921 0.00038147252 -4.5928336e-05 0.0019710367 -0.002004106 -0.014563413 -0.008439976 -9.756909e-06
0.008577896 -0.008707315 0.0076039257 0.0008120438 0.0038541702 0.00035542191 0.004345601 -0.0023862433
-0.011311947 0.005975146 0.010238059 -3.180749e-05 0.0006999539 -0.0047774366 -0.0005951769 0.007294718
00000000: 29d2 3a3c bb66 953b 3251 c93b c2fc 29bc
00000010: b298 8c3b cfce 33bb 5b3d 883b fc91 ebbb
00000020: 91b4 bcba 8edb f8ba 612c 6fbb b370 0d3b
00000030: 406a 8938 c48d 99bb 4e70 dc3a 87c2 923c
00000040: c305 fabb eb5f d4ba 24fd d93b e8c4 debb
00000050: ac33 523b ef69 e43b b6d1 3739 f67a d03b
00000060: c6fa 0b3b 0468 c8bc c257 0b3c b804 11bb
00000070: 7538 353c ad53 0a3c 42f7 8e3b ad27 81bb
00000080: 422e d33b 377b 683c deb5 6bbb 73cd af3b
00000090: 0308 7f3c 3b68 3b3c a2ff 24bc 6529 873b
000000a0: 8440 3a3c 6000 c839 2da3 40b8 822c 013b
000000b0: 5257 03bb 629b 6ebc d347 0abc 9bb1 23b7
000000c0: 4e8a 0c3c 20a9 0ebc 5a2a f93b 56df 543a
000000d0: 3f96 7c3b ec57 ba39 8b65 8e3b 8562 1cbb
000000e0: bf55 39bc 28cb c33b 88bd 273c 0869 05b8
000000f0: 1c7d 373a 0b8c 9cbb a505 1cba 8808 ef3b

feature_extract.batch_norms.0.running_mean f4 [64]
-0.038155127 -0.009072218 -0.10958375 0.14728187 -0.17771724 0.083625376 -0.11060234 -0.07323294
-0.21797992 0.2477554 -0.056181278 -0.07538013 0.09713382 -0.13599415 0.052266996 -0.12722602
-0.0049068956 -0.09592633 -0.22949132 0.34722078 -0.1281436 0.40981716 0.3377757 0.2346464
0.02673342 0.65639067 -0.19092865 0.103627585 0.037769258 -0.4529873 0.27918154 0.06309043
-0.18037248 -0.3036036 0.056898184 -0.037339058 -0.06297239 -0.31677198 0.3732726 0.109598085
-0.04245041 -0.22549884 -0.03019102 -0.07455417 0.110313535 0.2567616 0.17825627 -0.21570635
0.015409804 0.21609154 0.37163508 -0.015612572 -0.089502186 0.19434008 0.2595479 0.25641513
0.009613985 -0.089579836 0.434716 0.26558864 -0.49852562 -0.073601015 -0.24924101 0.068132974
00000000: 8d48 1cbd a4a3 14bc 726d e0bd 0fd1 163e
00000010: 82fb 35be c843 ab3d 7b83 e2bd 27fb 95bd
00000020: 2136 5fbe 97b3 7d3e 571e 66bd e660 9abd
00000030: 19ee c63d 0d42 0bbe eb15 563d 8a47 02be
00000040: 06ca a0bb 0675 c4bd c6ff 6abe ecc6 b13e
00000050: 1338 03be 8ed3 d13e f0f0 ac3e 2547 703e
00000060: 0c00 db3c 3809 283f cd82 43be b33a d43d
00000070: f0b3 1a3d f4ed e7be e2f0 8e3e 8e35 813d
00000080: 90b3 38be ee71 9bbe 120e 693d d7f0 18bd
00000090: abf7 80bd f02f a2be 961d bf3e f674 e03d
000000a0: 7be0 2dbd 2be9 66be 2853 f7bc dbaf 98bd
000000b0: 10ec e13d 4276 833e d088 363e 20e2 5cbe
000000c0: 6779 7c3c 1a47 5d3e f446 be3e e0cb 7fbc
000000d0: ec4c b7bd 1601 473e 76e3 843e d848 833e
000000e0: fa83 1d3c a275 b7bd 1893 de3e 3cfb 873e
000000f0: c03e ffbe 21bc 96bd 0939 7fbe 4d89 8b3d

feature_extract.batch_norms.0.running_var f4 [64]
0.06898229 0.021069665 0.09182824 0.04250486 0.05775947 0.015301213 0.06969265 0.17011632
0.19576961 0.031047484 0.26248917 0.02042073 0.28143844 0.1407539 0.048457038 0.03710754
0.012383176 0.07005335 0.19541255 0.3209626 0.015548617 0.24259171 0.037858397 0.023629267
0.044307586 0.15419869 0.0983067 0.067085706 0.023018625 0.08058089 0.09891206 0.060005803
0.09761041 0.23776594 0.04006647 0.08392086 0.021032257 0.05755502 0.18692046 0.097702846
0.09245758 0.050967917 0.018849885 0.10585611 0.014079943 0.07528856 0.104126886 0.07059559
0.32000643 0.05328466 0.250562 0.046000294 0.09841651 0.10622503 0.11201025 0.23584795
0.018266564 0.14790861 0.08621204 0.25576717 0.041292466 0.1952399 0.534545 0.2719882
00000000: 9646 8d3d 4a9a ac3c 7210 bc3d 9319 2e3d
00000010: 3295 6c3d f0b1 7a3c 05bb 8e3d f932 2e3e
00000020: d477 483e 4b57 fe3c fb64 863e 6049 a73c
00000030: b318 903e ca21 103e e37a 463d 13fe 173d
00000040: cee2 4a3c 2178 8f3d 3a1a 483e 3655 a43e
00000050: a0bf 7e3c f669 783e 6811 1b3d 2a92 c13c
00000060: df7b 353d 43e6 1d3e 0655 c93d 3b64 893d
00000070: 8e91 bc3c 9807 a53d 6892 ca3d a5c8 753d
00000080: f7e7 c73d ea78 733e bd1c 243d b3de ab3d
00000090: d74b ac3c d0be 6b3d 1468 3f3e 6e18 c83d
000000a0: 665a bd3d bcc3 503d 136b 9a3c 17cb d83d
000000b0: 90af 663c e330 9a3d 7a40 d53d 6c94 903d
000000c0: e2d7 a33e 0441 5a3d aa49 803e ce6a 3c3d
000000d0: 988e c93d 828c d93d a165 e53d 2082 713e
000000e0: c3a3 953c 5b75 173e f08f b03d eaf3 823e
000000f0: 4a22 293d f8ec 473e f1d7 083f 0a42 8b3e

feature_extract.batch_norms.1.weight f4 [64]
1.0441512 1.0431741 1.0506749 1.0219952 1.0504464 1.0254916 1.0384564 1.052184
1.0437206 1.0225881 1.023373 1.0186495 1.039033 1.0485722 1.0247604 1.0284572
1.0325291 1.0365669 1.0546751 1.0282537 1.0305631 1.0157413 1.0233535 1.0440766
1.0245308 1.0434769 1.0268248 1.049452 1.0215629 1.0312053 1.029878 1.0364981
1.0109073 1.0228963 1.0433521 1.0374221 1.0134116 1.0259947 1.0451001 1.0442073
1.0242288 1.0427711 1.0200491 1.0450658 1.0483243 1.0342189 1.0338575 1.0202495
1.0102504 1.0410069 1.0365334 1.0221884 1.0409883 1.0232731 1.0077751 1.0204748
1.0450675 1.0490471 1.0193064 1.0366008 1.048636 1.0574841 1.0451794 1.0182495
00000000: bfa6 853f bb86 853f 847c 863f bdd0 823f
00000010: 0775 863f 4f43 833f 24ec 843f f7ad 863f
00000020: a398 853f 2be4 823f e3fd 823f 1b63 823f
00000030: 09ff 843f 9d37 863f 592b 833f 7ca4 833f
00000040: ea29 843f 39ae 843f 98ff 863f d19d 833f
00000050: 7ee9 833f d003 823f 3ffd 823f 4da4 853f
00000060: d323 833f a790 853f ff6e 833f 7154 863f
00000070: 93c2 823f 89fe 833f 0bd3 833f f8ab 843f
00000080: 6965 813f 44ee 823f 908c 853f 3fca 843f
00000090: 79b7 813f cb53 833f d7c5 853f 96a8 853f
000000a0: ee19 833f 8679 853f f890 823f b7c4 853f
000000b0: 7e2f 863f 4961 843f 7155 843f 8997 823f
000000c0: e34f 813f b73f 853f 20ad 843f 12d7 823f
000000d0: 1b3f 853f 9dfa 823f c6fe 803f eb9e 823f
000000e0: c6c4 853f 2d47 863f a278 823f 56af 843f
000000f0: b439 863f a45b 873f 70c8 853f 0056 823f

feature_extract.batch_norms.1.bias f4 [64]
0.040710036 0.03360016 0.04399135 0.022478538 0.035920337 0.029821608 0.028408509 0.041001853
0.03701143 0.023523694 0.01933432 0.018969504 0.035370685 0.031502977 0.022141755 0.021396665
0.021799704 0.034981385 0.0503085 0.02870434 0.033207342 0.016380839 0.026768465 0.035084635
0.016882725 0.028565904 0.033997804 0.037029736 0.017525507 0.029176345 0.028145697 0.03796334
0.025847051 0.017422546 0.036885094 0.008579837 0.010275229 0.02908853 0.023487715 0.036829542
0.02020663 0.034580924 0.01773027 0.0357666 0.03630642 0.025270155 0.03621048 0.019143788
0.015030795 0.031920467 0.034335244 0.021698233 0.037234727 0.025314188 0.016431944 0.018167295
0.035482906 0.039629843 0.007790574 0.029435668 0.04052729 0.042698994 0.044047758 0.02057216
00000000: 91bf 263d 52a0 093d 4630 343d e924 b83c
00000010: 3421 133d 724c f43c f6b8 e83c 8ff1 273d
00000020: 4c99 173d c3b4 c03c 0263 9e3c ef65 9b3c
00000030: dae0 103d 4409 013d a062 b53c 0f48 af3c
00000040: 4b95 b23c a448 0f3d 4910 4e3d 5d25 eb3c
00000050: 6c04 083d 1c31 863c 8a49 db3c e8b4 0f3d
00000060: a44d 8a3c 0b03 ea3c 4841 0b3d 7eac 173d
00000070: a791 8f3c 3b03 ef3c ce91 e63c 727f 1b3d
00000080: 32bd d33c bab9 8e3c d314 173d 7292 0c3c
00000090: 6f59 283c 124b ee3c 4f69 c03c 93da 163d
000000a0: 6088 a53c baa4 0d3d 123f 913c 0080 123d
000000b0: 0ab6 143d 5b03 cf3c 7151 143d 6fd3 9c3c
000000c0: b943 763c 09bf 023d 1da3 0c3d 7ec0 b13c
000000d0: 7183 183d b35f cf3c 499c 863c 94d3 943c
000000e0: 8656 113d e752 223d 1248 ff3b 1223 f13c
000000f0: f2ff 253d 24e5 2e3d 6c6b 343d f286 a83c
