SavedNetwork/20_15_1_199.pth (torch_old, 86544 bytes, 30 tensors)

feature_extract.mlps.0.linears.0.weight f4 [64, 2]
0	0xbe9ab724	-0.3021785
1	0x3ed63dde	0.41844076
2	0x3f0054b6	0.5012926
3	0xbe71ff64	-0.2363258
4	0x3d943f4e	0.07238637
5	0xbed9a116	-0.4250571
6	0xbf086e06	-0.5329288
7	0x3eb34a76	0.35017747
8	0x3f054847	0.5206341
9	0xbc04dc09	-0.008109101
10	0xbf34d9b7	-0.70644706
11	0xbe3f3e98	-0.18676221
12	0xbed9f159	-0.42566946
13	0xbe41f25a	-0.18940106
14	0xbe4b8e68	-0.19878542
15	0xbf1774f0	-0.5916281
16	0xbec4bfcf	-0.38427588
17	0x3e9273c3	0.28603944
18	0xbeb78b39	-0.35848406
19	0xbea98f52	-0.33117157
20	0xbec7ce71	-0.3902469
21	0x3f0f4d9d	0.55977803
22	0xbe9a95a5	-0.30192295
23	0xbe68d6f4	-0.22738248
24	0xbe10d141	-0.14142324
25	0x3f29cc9c	0.66327834
26	0xbed1b642	-0.40959364
27	0x3e80b6a7	0.25139353
28	0x3f1cc8dc	0.6124399
29	0x3e1228af	0.14273332
30	0x3f33f660	0.70297813
31	0xbeb14192	-0.3462034
32	0x3f093ddc	0.53610015
33	0xbf1fb77a	-0.6238934
34	0x3ec89592	0.39176613
35	0xbf05bc2f	-0.5224027
36	0xbf0d79e0	-0.5526409
37	0x3e045ec1	0.12926771
38	0xbc13d162	-0.009022089
39	0x3e64282d	0.22280951
40	0x3c911bbe	0.017713424
41	0x3c42a151	0.011879281
42	0xbeb03d4f	-0.34421775
43	0x3e6851e4	0.22687489
44	0xbe6127a1	-0.21987773
45	0x3e0c0d9d	0.13677068
46	0x3ccce0b9	0.0250095
47	0xbd1d1ee8	-0.038359553
48	0xbea18bb0	-0.31551886
49	0x3f00dfc1	0.5034142
50	0xbf2195dd	-0.631193
51	0xbc946d5e	-0.018118557
52	0x3ec60f75	0.38683668
53	0xbe309714	-0.17245132
54	0x3ef3c4ca	0.47611076
55	0xbef784ee	-0.48343605
56	0xbf179174	-0.5920632
57	0xbeaec53f	-0.34134862
58	0xbf05ceda	-0.52268755
59	0xbca32bff	-0.01991844
60	0xbe8f7cc6	-0.28024882
61	0x3e6ba9d8	0.23014009
62	0x3edf88b2	0.43658978
63	0x3e004f25	0.12530191
64	0xbcf8dda0	-0.030379117
65	0xbe823551	-0.25431302
66	0xbeb66c50	-0.3562951
67	0x3f0f0243	0.55862826
68	0x3f04b0b9	0.5183216
69	0x3eb40570	0.35160398
70	0xbea948c6	-0.33063334
71	0xbe7ed22c	-0.24884862
72	0x3d993c95	0.07482258
73	0x3d5f2fae	0.05448883
74	0xbcdd5427	-0.027017666
75	0xbee5d62f	-0.44889972
76	0xbeeffe2e	-0.4687361
77	0x3ebe3bad	0.37154904
78	0x3eca4306	0.3950426
79	0x3f119b57	0.56877655
80	0x3f2aaa7c	0.6666639
81	0xbe20dbd9	-0.15708865
82	0xbd685dd1	-0.056730095
83	0x3cf4d5c5	0.02988709
84	0x3e22fa52	0.15915802
85	0x3e022041	0.12707616
86	0x3d0990dc	0.033585414
87	0xbea96c7f	-0.33090588
88	0xbc67f3ae	-0.014157219
89	0x3ec0fce4	0.3769294
90	0x3eaa0d91	0.33213475
91	0x3f2172de	0.630659
92	0x3ea7bc04	0.32760632
93	0xbf2a470f	-0.66514677
94	0x3e9d8c5a	0.30771142
95	0xbf09becd	-0.53806764
96	0x3f0da4a8	0.5532937
97	0xbf0e4bd8	-0.5558448
98	0xbf0d0a84	-0.5509417
99	0x3e2bbc68	0.1677109
100	0x3e0f94ed	0.14021654
101	0x3f015782	0.5052415
102	0xbeedea6d	-0.46467915
103	0x3f0cb10e	0.54957664
104	0x3de03017	0.109466724
105	0xbe09f7b2	-0.13473395
106	0xbeffbf3a	-0.49950582
107	0x3eafd1bf	0.3433971
108	0x3db33d43	0.08751919
109	0x3f1013fe	0.56280506
110	0xbed322ec	-0.4123758
111	0x3f1899b7	0.5960955
112	0xbef1b023	-0.47204694
113	0xbed6662e	-0.41874832
114	0x3ecd013d	0.40040007
115	0xbdac160b	-0.08402642
116	0xbedd360a	-0.4320529
117	0xbd4d26c1	-0.050085787
118	0x3f3134a6	0.6922096
119	0xbcfeff6e	-0.031127658
120	0x3e7d9fbb	0.24767964
121	0xbe249b8d	-0.16074963
122	0x3e233bfa	0.15940848
123	0x3f310789	0.6915212
124	0x3ead0a9c	0.33797157
125	0xbefe74ff	-0.49698636
126	0xbed65b56	-0.4186656
127	0xbdd7f024	-0.1054385

feature_extract.mlps.0.linears.0.bias f4 [64]
0	0x3ea3301c	0.31872642
1	0xbec87dad	-0.39158383
2	0xbd4225b9	-0.047399256
3	0x3eb30fae	0.349729
4	0xbeb15fee	-0.346435
5	0xbec5ce88	-0.38634133
6	0x3c335289	0.010944971
7	0xbf140fde	-0.5783671
8	0x3e96a399	0.2942169
9	0xbe4bd935	-0.19907077
10	0x3f109596	0.5647825
11	0x3d648750	0.055793107
12	0x3ead3c3a	0.33835012
13	0xbdf8d9d3	-0.12150922
14	0xbe81ca44	-0.2534963
15	0xbe9b90d1	-0.30383924
16	0x3eaf86fc	0.34282672
17	0x3f2547fa	0.6456295
18	0x3e82e367	0.2556412
19	0xbe26c518	-0.16286123
20	0x3ebba759	0.36651114
21	0xbf092a98	-0.5358062
22	0xbf1bf7a0	-0.6092472
23	0xbe6c42f9	-0.23072423
24	0x3ea1b8b3	0.31586227
25	0xbd97c523	-0.07410648
26	0xbef8f4f1	-0.48624375
27	0xbf161e29	-0.5863977
28	0x3eb5d620	0.35514927
29	0xbeba0df5	-0.36338773
30	0xbe91eee9	-0.28502586
31	0x3f2149f3	0.6300346
32	0x3dd55a63	0.104176305
33	0xbed36e7c	-0.4129523
34	0x3d683bdc	0.05669771
35	0x3ec62dec	0.3870691
36	0xbea99836	-0.3312394
37	0xbee12c0c	-0.43978918
38	0xbf2922de	-0.6606883
39	0xbf19ccfe	-0.6007842
40	0xbf062e8b	-0.5241477
41	0x3eba539e	0.3639192
42	0x3d842d99	0.064540096
43	0x3e5f0adf	0.2178149
44	0x3ecf258f	0.40458342
45	0x3f2312e2	0.6370069
46	0xbe434564	-0.19069439
47	0x3f21bba7	0.6317696
48	0x3de3e207	0.11127096
49	0x3f10bf93	0.5654232
50	0xbf288803	-0.6583254
51	0xbe9ee643	-0.3103505
52	0xbe882e88	-0.26598
53	0x3f0439eb	0.51650876
54	0x3ed529af	0.41633365
55	0xbf329dba	-0.6977192
56	0xbecbb1d8	-0.39784122
57	0xbf0ccb40	-0.54997635
58	0xbf3207b8	-0.6954303
59	0xbf280395	-0.65630466
60	0x3eae15b9	0.34000948
61	0x3e7ee2bc	0.2489118
62	0xbd633f0f	-0.05548006
63	0xbd0914f7	-0.03346726

feature_extract.mlps.0.linears.1.weight f4 [64, 64]
0	0xbd96d484	-0.07364753
1	0x3d6142d4	0.054995373
2	0xbdf6fa9f	-0.12059521
3	0xbdc7367d	-0.0972719
4	0xbde738ae	-0.11290108
5	0xbd74bf3f	-0.0597527
6	0xbdd26e06	-0.102748916
7	0x3d936493	0.071969174
8	0xbdfef2b2	-0.12448634
9	0x3c00de74	0.007865537
10	0x3ca028fe	0.019550797
11	0xbb377577	-0.0027993598
12	0x3d1c6c0d	0.038188983
13	0x3de9281a	0.11384602
14	0x3d642c8a	0.05570654
15	0x3ca84012	0.020538364
16	0xbd6f58c4	-0.058434263
17	0xbcb44609	-0.022006052
18	0x3dea8928	0.11451942
19	0x3cf5b295	0.029992381
20	0xbd316832	-0.04331226
21	0xbc90b914	-0.017666377
22	0xbde716a6	-0.11283617
23	0xbddb1191	-0.1069671
24	0x3d854119	0.06506557
25	0x3c54a031	0.012977646
26	0x3da7aed9	0.081876464
27	0x3d8b7eb3	0.06811275
28	0xbcb6f057	-0.0223314
29	0x3dd47818	0.103744686
30	0x3d0d242f	0.034458335
31	0x3da6cef9	0.08144946
32	0x3d8f8615	0.07007996
33	0x3dd9c4ec	0.10633263
34	0xbdb8e717	-0.09028452
35	0xbcac4da4	-0.021033116
36	0x3d6b64d4	0.057469204
37	0xbdf5cb6c	-0.1200169
38	0x3cac19be	0.021008369
39	0xbdec8121	-0.11548067
40	0xbd8c123c	-0.068394154
41	0xbd5d90f9	-0.054093335
42	0xbd8f9362	-0.07010533
43	0x3cae7f68	0.021300986
44	0x3daaa4c9	0.083322115
45	0xbdf0dcb3	-0.11760845
46	0x3d99a5b2	0.07502307
47	0xbd5f4768	-0.054511458
48	0xbcb5cb0e	-0.02219155
49	0xbcc0ae45	-0.023520598
50	0xbd181e96	-0.037138544
51	0xbc1fa594	-0.009744067
52	0xbd350924	-0.04419817
53	0xbdb22254	-0.08697954
54	0xbc0e9e76	-0.008704772
55	0x3d443d60	0.047910094
56	0x3c9fb169	0.019493775
57	0x3d65b64a	0.056082048
58	0xbd1ee027	-0.038787987
59	0x3a2dd382	0.00066309434
60	0x3d9249de	0.07142995
61	0x3dd80e2c	0.10549578
62	0xbe030405	-0.12794502
63	0x3db84787	0.08998018
64	0x3dba5532	0.09098281
65	0xbdb4dfc1	-0.0883174
66	0xbd2f110c	-0.042740867
67	0x3d3e4f84	0.04646255
68	0x3d954c0e	0.07289897
69	0xbdf9c12a	-0.12195046
70	0x3b5ed873	0.0034003526
71	0xbbbb09b0	-0.005707942
72	0xbc0b3796	-0.008497139
73	0x3dbe41c9	0.09289891
74	0x3bb8b934	0.0056373123
75	0xbd7f15e7	-0.062276747
76	0x3dbb4f02	0.09145929
77	0xbd0c4751	-0.0342477
78	0x3da75d22	0.081720605
79	0x3dcf0d31	0.10109938
80	0x3d30a257	0.04312357
81	0xbda3623c	-0.07977721
82	0xbd6adfbf	-0.057342287
83	0xbdc7c281	-0.097538956
84	0xbd91a422	-0.07111384
85	0xbdf37c1a	-0.11888905
86	0x3b2f9995	0.0026794423
87	0xbd49e49d	-0.04929029
88	0x3ddcde3e	0.10784577
89	0x3cc2009d	0.023681933
90	0xbd718318	-0.05896291
91	0xbe020f7f	-0.12701224
92	0x3d5ac81b	0.05341349
93	0xbde7858e	-0.113047704
94	0xbd3fe33f	-0.04684758
95	0x3d3782d1	0.04480249
96	0x3d6c9458	0.05775866
97	0xbd1957d9	-0.037437294
98	0x3d9fbbdf	0.077995054
99	0xbd91fd2c	-0.07128367
100	0xbda3e2f0	-0.08002269
101	0x3da2d1ce	0.07950173
102	0x3bae1492	0.0053125108
103	0x3d3c172e	0.045920543
104	0x3c2a5533	0.01039629
105	0x3d194661	0.037420634
106	0xbda37575	-0.079813875
107	0x3d198005	0.037475605
108	0xbc936e90	-0.017997056
109	0xbdab551e	-0.08365844
110	0x3df1050e	0.11768542
111	0x3d96d2b0	0.07364404
112	0xbb7b3327	-0.003833005
113	0x3def1ed6	0.11675803
114	0xbdf13026	-0.11776762
115	0x3dac4275	0.08411113
116	0xbbf7e65a	-0.007565302
117	0xbda561e8	-0.08075315
118	0x3dff82af	0.12476098
119	0x3de19024	0.11013821
120	0xbd76566a	-0.060141005
121	0xbd8aca6a	-0.06776889
122	0xbd5492b4	-0.05189772
123	0xbd408a61	-0.04700697
124	0x3cf28277	0.029603226
125	0x3d4cdd0f	0.050015505
126	0x3cad5be8	0.021161988
127	0xbe000f83	-0.12505917
128	0xbda53a94	-0.080678135
129	0xbd2c48ed	-0.042061735
130	0xbc64140f	-0.013920798
131	0xbc5f798f	-0.013639822
132	0x3a406656	0.0007339468
133	0xbcb05a35	-0.021527389
134	0xbdbdd73b	-0.092695676
135	0x3d2b6820	0.04184735
136	0xbdd22446	-0.10260825
137	0xbdc61096	-0.09671132
138	0x3c159f70	0.009132251
139	0x3dedf679	0.116192766
140	0xbd4012ad	-0.04689281
141	0xbddf5c33	-0.109062575
142	0xba17eef0	-0.00057957973
143	0x3d50453e	0.050847284
144	0x3d0a171b	0.03371344
145	0xbb7b7acf	-0.003837276
146	0xbda4a54d	-0.08039341
147	0x3bf65deb	0.00751852
148	0x3c217d28	0.0098565
149	0xbdea70b5	-0.114472784
150	0x3d2ad246	0.04170444
151	0x3cf5812c	0.02996882
152	0x3d3ce99b	0.04612122
153	0x3dab8207	0.0837441
154	0xbd5ff3ad	-0.054675747
155	0x3d5082aa	0.05090586
156	0x3dc17f7c	0.09448144
157	0xbdfb800a	-0.12280281
158	0xbde08443	-0.10962727
159	0x3c4e5e03	0.012595656
160	0xbd48c6a6	-0.04901757
161	0x3d95db70	0.07317245
162	0x3dfff447	0.12497764
163	0xbc4a1b39	-0.012335592
164	0x3c55060e	0.013001932
165	0xbda4638e	-0.08026801
166	0x3de117ca	0.109908655
167	0xbceff425	-0.029291222
168	0xbda271da	-0.07931872
169	0xbe007d52	-0.12547806
170	0xbd993166	-0.07480125
171	0xbc408cac	-0.011752289
172	0xbd76739e	-0.060168855
173	0x36943fd8	4.418176e-06
174	0x3baef29f	0.0053389813
175	0xbb97715c	-0.004621668
176	0x3b3d86b8	0.002891941
177	0xbc91521a	-0.017739344
178	0x3d8768f7	0.06611817
179	0xbdf2bda1	-0.11852575
180	0xbdb5da4d	-0.08879528
181	0xbcb2911e	-0.021797713
182	0xbd8524de	-0.065011725
183	0x3daac0d4	0.0833756
184	0x3da93872	0.08262719
185	0x3cf66f90	0.030082494
186	0xbd35cd30	-0.044385135
187	0xbba9c9b0	-0.0051815137
188	0x3dc40a11	0.095722325
189	0x3c34784a	0.011015007
190	0x3dc85ce4	0.097833425
191	0x3dd28b0e	0.10280429
192	0x3c84439e	0.016145524
193	0x3dd52749	0.10407884
194	0xbb8c7da7	-0.00428744
195	0xbca3156a	-0.019907672
196	0xba87b710	-0.001035424
197	0xbde74d6e	-0.112940654
198	0x3dc4cec1	0.09609748
199	0x3dfbec91	0.12300981
200	0xbcb583a5	-0.0221575
201	0xbdb9e2dd	-0.09076474
202	0xbd305c8b	-0.043057006
203	0xbc345b87	-0.01100815
204	0xbddfbf6a	-0.10925181
205	0x3d407d67	0.046994593
206	0xbd92a5d0	-0.071605325
207	0x3da7dea2	0.08196761
208	0x3d10637f	0.035251137
209	0x3dc29e51	0.09502853
210	0x3d77ae64	0.060469046
211	0x3dbd25b7	0.09235709
212	0x3ddf2909	0.10896499
213	0x3d8c3434	0.068458945
214	0xbda3cdfa	-0.07998271
215	0xbd88a884	-0.06672767
216	0x3d338b47	0.043833997
217	0x3dd4811e	0.1037619
218	0xbd818f3b	-0.06326147
219	0xbd8d5181	-0.06900311
220	0xbe01a268	-0.1265961
221	0x3cc91e9d	0.02455073
222	0xbdaf175f	-0.085493796
223	0xbd70438d	-0.05865817
224	0x3d14669f	0.03623068
225	0xbd9846ee	-0.07435404
226	0x3dc02172	0.09381379
227	0xbc975a32	-0.018475626
228	0x3cde2aa3	0.02711994
229	0x3d1ab447	0.037769582
230	0x3ba6077c	0.00506681
231	0x3d90fbd4	0.070792824
232	0xbdd0eb91	-0.10201181
233	0x3d9ecf8c	0.0775443
234	0x3d56e55b	0.052464824
235	0x3c632e3c	0.013866004
236	0x3d726173	0.059174966
237	0x3dbeed3f	0.09322595
238	0xbd5a3171	-0.053269807
239	0x3dfe06b3	0.124036215
240	0xbc3a2376	-0.011360994
241	0xbde493bc	-0.111609906
242	0x3d4a760c	0.049428985
243	0xbd9ed12f	-0.07754742
244	0x3caa226e	0.02076837
245	0xbdbeccc8	-0.09316403
246	0x3c44399b	0.011976625
247	0x3c396784	0.011316184
248	0xbdf3a578	-0.11896795
249	0xbd35a70d	-0.044348765
250	0xbd5f4362	-0.05450762
251	0xbdb406b6	-0.087903425
252	0x3d3560e3	0.04428185
253	0xbd58e411	-0.052951876
254	0x3c9cb5ae	0.0191296
255	0x3d73f555	0.05956014

feature_extract.mlps.0.linears.1.bias f4 [64]
0	0x3d274bfb	0.040843945
1	0x3d668f03	0.05628873
2	0x3c4356cb	0.0119225485
3	0x3dd3147c	0.103066415
4	0xbdb4ab35	-0.08821718
5	0x3ced1eaa	0.028945286
6	0x3cd77724	0.026301928
7	0x3cbed420	0.023294508
8	0x3d9e5ab8	0.07732147
9	0x3ddeb3fb	0.10874172
10	0x3dae63f7	0.085151605
11	0xbc923dbf	-0.017851708
12	0x3ddd62b9	0.108098455
13	0x3d46a76b	0.048499506
14	0x3d228c35	0.039684493
15	0x3b5e1993	0.0033889755
16	0xbd86d4ab	-0.06583532
17	0x3d94c52b	0.07264169
18	0x3d0b432c	0.033999607
19	0x3cc2ba96	0.023770612
20	0xbd17e489	-0.037083182
21	0x3ddff987	0.109362654
22	0x3db3c772	0.087782755
23	0x3deefdac	0.11669478
24	0xbcd7438b	-0.026277324
25	0x3d4e72ee	0.050402574
26	0xbd4ac07f	-0.049499985
27	0x3dbfa6ad	0.09357963
28	0x3ddcf491	0.10788835
29	0x3d01bce0	0.031674266
30	0x3dd274cf	0.10276186
31	0xbdba4127	-0.09094458
32	0x3d07f1a0	0.033189416
33	0x3d881661	0.066448934
34	0xbdab9383	-0.08377745
35	0xb9faed16	-0.0004786036
36	0x3d7e464c	0.06207876
37	0xbd20133f	-0.039080855
38	0xbdaa87fe	-0.0832672
39	0x3d8eb8ab	0.06968816
40	0xbdb93716	-0.0904371
41	0xbbdee3a4	-0.006802039
42	0x3ded63d1	0.11591304
43	0xbd050cb4	-0.032482818
44	0xbbdd1efd	-0.006748079
45	0x3cd9c9de	0.026585516
46	0xbddf93fa	-0.10916896
47	0xbddb9be0	-0.1072309
48	0xbd34734b	-0.044055264
49	0x3cf83121	0.030296864
50	0x3df7b3e1	0.12094856
51	0x3d259c47	0.04043224
52	0xbdfeaed9	-0.12435693
53	0x3db7df91	0.08978189
54	0xbd52e06d	-0.05148356
55	0x3c6d4d84	0.014483813
56	0x3db2f991	0.08739007
57	0x3d9541f1	0.07287968
58	0x3d5aa497	0.05337962
59	0x3cdfe131	0.02732906
60	0xbdcfe187	-0.10150438
61	0xbcebc196	-0.028778832
62	0x3dda7cc1	0.10668326
63	0xbdfb65ab	-0.12275251

feature_extract.mlps.0.batch_norms.0.weight f4 [64]
0	0x3f7e997b	0.9945294
1	0x3f7fadc3	0.99874514
2	0x3f808ae8	1.0042391
3	0x3f800a40	1.0003128
4	0x3f7ecdbb	0.9953267
5	0x3f80e570	1.0070019
6	0x3f80c8eb	1.0061315
7	0x3f7faebb	0.9987599
8	0x3f8119a6	1.0085952
9	0x3f803668	1.0016603
10	0x3f80b20a	1.0054333
11	0x3f8002d4	1.0000863
12	0x3f7dbf6e	0.99120224
13	0x3f8026d0	1.0011845
14	0x3f7fa4a3	0.9986059
15	0x3f80075c	1.0002246
16	0x3f7feedd	0.9997385
17	0x3f7da06c	0.9907291
18	0x3f7e921b	0.9944169
19	0x3f80376a	1.0016911
20	0x3f80617f	1.0029753
21	0x3f802723	1.0011944
22	0x3f7f230d	0.9966286
23	0x3f7fb756	0.99889123
24	0x3f7fa9fb	0.99868745
25	0x3f7e7784	0.99401116
26	0x3f805244	1.0025105
27	0x3f806691	1.0031301
28	0x3f803c43	1.001839
29	0x3f803d4c	1.0018706
30	0x3f80d1f3	1.0064071
31	0x3f8007a6	1.0002334
32	0x3f819cba	1.0125954
33	0x3f7ec3ea	0.9951769
34	0x3f8094a2	1.0045359
35	0x3f7fbdf1	0.998992
36	0x3f7dcf6f	0.99144644
37	0x3f808abd	1.004234
38	0x3f80505c	1.0024524
39	0x3f7fa0ff	0.99855036
40	0x3f7f7ce9	0.9979997
41	0x3f803e61	1.0019037
42	0x3f7ff1eb	0.9997851
43	0x3f804dd6	1.0023754
44	0x3f7e6c17	0.9938368
45	0x3f7fcfd5	0.999265
46	0x3f804a69	1.0022708
47	0x3f7fb0e7	0.99879307
48	0x3f7e67f6	0.9937738
49	0x3f7f0585	0.996178
50	0x3f803dbd	1.0018841
51	0x3f80381c	1.0017123
52	0x3f7ffc26	0.99994123
53	0x3f80954b	1.0045561
54	0x3f7e42f8	0.99320936
55	0x3f7e3b28	0.99309015
56	0x3f7fca40	0.99917984
57	0x3f806b19	1.0032684
58	0x3f8087a5	1.0041395
59	0x3f7dcbaf	0.9913892
60	0x3f7ee8a5	0.9957374
61	0x3f7e6fd5	0.9938939
62	0x3f7ff2bb	0.9997975
63	0x3f8005e3	1.0001796

feature_extract.mlps.0.batch_norms.0.bias f4 [64]
0	0xbb15ddde	-0.002286784
1	0xbad59c71	-0.0016297234
2	0xbbe0a3f8	-0.006855484
3	0xbb4afcba	-0.003097339
4	0x38bf00dd	9.1077505e-05
5	0x3c51ff8a	0.012817273
6	0x3c8e3043	0.017356997
7	0x3b8c2923	0.004277365
8	0x3aba8ca9	0.0014232594
9	0x3c11577c	0.008870956
10	0x3a7afac4	0.000957411
11	0xba82a5fb	-0.0009967679
12	0xbb817ddc	-0.003951771
13	0x3c0221b1	0.007942603
14	0xbbcc8453	-0.00624136
15	0x3b59f5fc	0.003325819
16	0x3b2ab2c8	0.0026046503
17	0x3a45a19b	0.00075390347
18	0xbb98fa43	-0.0046685054
19	0xbbd8f1d3	-0.0066206246
20	0xbb53b3d8	-0.003230324
21	0xba833e3d	-0.0010013055
22	0x3b55cef5	0.0032624577
23	0x3c1e008f	0.009643688
24	0x3bd05474	0.006357724
25	0xbbca7cdc	-0.006179435
26	0x3b51cb14	0.0032011913
27	0x3c042608	0.008065708
28	0x3b23e993	0.0025011047
29	0x3be5f7b6	0.007018055
30	0xb9814b96	-0.00024661113
31	0xba449d54	-0.00075002504
32	0x3c54daa4	0.012991581
33	0xbb535fee	-0.0032253223
34	0x3c02439f	0.007950692
35	0xbbaf2bed	-0.0053458125
36	0xbb5c471d	-0.0033611723
37	0x3c1ee2cb	0.009697626
38	0x3c37e0a4	0.011222992
39	0xbc1f6d69	-0.009730675
40	0xbba230f1	-0.004949682
41	0x3b159acb	0.002282786
42	0xbc15844a	-0.009125778
43	0x3ab29f83	0.001362786
44	0xbabb5aaa	-0.0014293988
45	0xbadee6a6	-0.0017005994
46	0x3ab71838	0.001396901
47	0x3b83be5c	0.0040204953
48	0x3aac742d	0.0013157182
49	0xbbcde936	-0.0062839044
50	0xbbfe5952	-0.0077621127
51	0xbc2344a8	-0.009965099
52	0xbb3a54f0	-0.0028431974
53	0x3bca37cf	0.0061712037
54	0xbba37c5b	-0.0049891896
55	0xbba04885	-0.0048914575
56	0xb8807dad	-6.1269246e-05
57	0x3c24cdac	0.010058802
58	0x3a462355	0.00075583655
59	0xbc02a94b	-0.007974933
60	0xbaa7bb83	-0.0012796972
61	0x3b324dec	0.002720709
62	0xbaf23537	-0.0018478994
63	0x39ab7a97	0.00032706998

feature_extract.mlps.0.batch_norms.0.running_mean f4 [64]
0	0x3e7e961f	0.24861954
1	0x3f824407	1.017701
2	0xbf72abb6	-0.9479326
3	0xbf5e7c65	-0.8690856
4	0x3fe4cc48	1.7874842
5	0xc075c872	-3.8403592
6	0xc0126409	-2.2873557
7	0xc044a6f9	-3.0726912
8	0xbefad551	-0.48990873
9	0xc027a490	-2.619419
10	0x3f076bc4	0.5289881
11	0xbfeb2712	-1.8371298
12	0x3fd0153d	1.6256481
13	0xbf8ddecd	-1.1083618
14	0x402bf389	2.6867392
15	0x3fd0b969	1.6306583
16	0x3f4d4123	0.80177516
17	0x3f4b13ad	0.793269
18	0xbfd59834	-1.6687074
19	0x3edba60e	0.42900127
20	0x3ef266ce	0.4734406
21	0xbfa918d5	-1.3210703
22	0xbf9122cc	-1.1338744
23	0xbe7119a6	-0.2354494
24	0x3edc65e2	0.4304648
25	0xc02f5de5	-2.7401059
26	0x3f211832	0.62927544
27	0x3ca99525	0.020701
28	0xc043f0fe	-3.061584
29	0xc0257015	-2.584966
30	0xbf4bcafe	-0.79606616
31	0x4032b92f	2.7925527
32	0xbf3d68ea	-0.7398821
33	0xbe9f6839	-0.31134203
34	0x404c9a18	3.1969051
35	0xbfd7bba9	-1.6854144
36	0x3e07caa3	0.13260894
37	0xbfe8e3ef	-1.819456
38	0xbfc6cfcf	-1.5532168
39	0x40291723	2.6420372
40	0x3fe5a182	1.7939913
41	0x3e5a6da6	0.2133089
42	0x3f8a97ca	1.0827572
43	0xbf13db56	-0.57756555
44	0x3fb488c3	1.4104236
45	0x4072d09e	3.793983
46	0xbf3643d4	-0.7119725
47	0x3ec61f63	0.3869582
48	0x3f55685b	0.8336236
49	0xbf9f250b	-1.243318
50	0x3facb93f	1.3494033
51	0xbf2eecfb	-0.68330353
52	0xbe45a12b	-0.19299762
53	0xbf153f0a	-0.58299315
54	0x40179289	2.3683188
55	0xbf38fdbf	-0.72262186
56	0xc0624d55	-3.53597
57	0x3f5f178f	0.8714532
58	0xc0281c6c	-2.6267347
59	0x4007e59c	2.1233892
60	0x3f697ee6	0.91209257
61	0x40372ea0	2.8622208
62	0xbd71512a	-0.058915295
63	0xc004335c	-2.0656347

feature_extract.mlps.0.batch_norms.0.running_var f4 [64]
0	0x3f1d34b5	0.6140855
1	0x3fd53cef	1.665922
2	0x3db79bc9	0.089652605
3	0x3fefb35c	1.8726611
4	0x3fed35fb	1.8532099
5	0x40612292	3.517735
6	0x3fa76f2e	1.3080804
7	0x3efb4124	0.49073136
8	0x3f78fd2f	0.9726133
9	0x3f805159	1.0024825
10	0x3f839451	1.0279638
11	0x3f30b37d	0.6902388
12	0x3e82d4a8	0.2555287
13	0x3f8db779	1.1071616
14	0x40288f25	2.6337368
15	0x40517f1f	3.2733839
16	0x3ff43f44	1.9081807
17	0x3f83a874	1.0285783
18	0x4003476e	2.0512347
19	0x3ca02984	0.019551046
20	0x3b199a7b	0.0023438025
21	0x3f47fdda	0.7812172
22	0x3ea35385	0.31899658
23	0x3b8b7bd9	0.004256707
24	0x3f2e6d17	0.6813521
25	0x402f1257	2.7354944
26	0x3f7e3c47	0.99310726
27	0x3fbf9f76	1.4970539
28	0x40252006	2.5800796
29	0x3ff054ed	1.8775917
30	0x3f046827	0.51721424
31	0x3fac7591	1.3473378
32	0x3d1af7f0	0.037834108
33	0x3f5dd95c	0.8665979
34	0x40009929	2.0093482
35	0x3f53e34b	0.82768697
36	0x3d2cea03	0.04221536
37	0x3dc35368	0.09537393
38	0x3fb932f7	1.4468678
39	0x3fac8943	1.3479389
40	0x403f044f	2.984638
41	0x3cae6b65	0.021291444
42	0x3e45ecf7	0.19328676
43	0x3d395335	0.045245368
44	0x3d656354	0.05600293
45	0x3f870e30	1.0551205
46	0x3f45f2c5	0.7732356
47	0x3f288c7f	0.6583938
48	0x40015b7a	2.0212083
49	0x4001e0d4	2.0293474
50	0x3e9221bb	0.2854136
51	0x3fb7a9ca	1.434869
52	0x3da3790e	0.07982074
53	0x3fd279de	1.6443441
54	0x3e5b6865	0.21426542
55	0x3f930d24	1.1488385
56	0x3fdd083c	1.7268138
57	0x3f8a0eee	1.0785806
58	0x3fa58b66	1.2933166
59	0x40511787	3.267061
60	0x3ecf2051	0.40454343
61	0x3ee22f9b	0.44176945
62	0x3f45f104	0.77320886
63	0x3f9de631	1.2335874

feature_extract.mlps.1.linears.0.weight f4 [64, 64]
0	0x3e03b707	0.12862788
1	0x3db197e3	0.08671548
2	0x3dcee592	0.10102381
3	0x3e013b5e	0.12620303
4	0x3c1a5947	0.009420699
5	0xbd4329c7	-0.047647264
6	0xbd829818	-0.06376666
7	0x3b9f8435	0.004868055
8	0x3d2266fe	0.039649002
9	0xbd053de9	-0.032529745
10	0x3d96daec	0.07365975
11	0xbddd582a	-0.108078316
12	0xbddd6167	-0.10809594
13	0xbd591f4c	-0.053008363
14	0xbca31c81	-0.019911053
15	0x3b3fb2f8	0.002925096
16	0xbd5d9798	-0.05409965
17	0xbd0de150	-0.034638703
18	0xbd97ce03	-0.074123405
19	0x3c9c750c	0.019098781
20	0x3d6870ef	0.056748327
21	0x3cc6ed3b	0.024283042
22	0xbd4746fe	-0.048651688
23	0xbd3b02cd	-0.045656968
24	0x3d92868e	0.071545705
25	0xbd019c6c	-0.031643316
26	0x3cd317c0	0.02576816
27	0x3be7c9a9	0.0070736003
28	0xbcff160e	-0.031138446
29	0x3d006c4a	0.031353272
30	0x3dd36301	0.10321618
31	0x3d533972	0.051568456
32	0xbc114aa7	-0.008867896
33	0x3d29d64a	0.041464128
34	0xbda1e7c1	-0.07905532
35	0x3db417f8	0.08793634
36	0xbd04392c	-0.032281086
37	0x3d6dfe85	0.058104057
38	0xbe018f5f	-0.12652348
39	0x3de33a8c	0.11095151
40	0x3dc705fe	0.0971794
41	0x3d81a963	0.06331136
42	0x3d98706f	0.0744332
43	0x3d1abf4d	0.037780095
44	0x3d9fd937	0.07805102
45	0x3d9fc63b	0.07801481
46	0xbd6bda93	-0.057581495
47	0xbdfeb7fe	-0.124374375
48	0x3d90832e	0.070562705
49	0xbe0199a1	-0.12656261
50	0x3d04f16c	0.0324568
51	0xbda882b7	-0.08228057
52	0x3d386da7	0.045026448
53	0xbc8eb312	-0.017419372
54	0x3d9cef28	0.07662803
55	0x3d76a769	0.06021825
56	0x3c5d2ebf	0.013499915
57	0xbd8f0352	-0.06983055
58	0x3d8b3aad	0.06798301
59	0xbd4af40d	-0.04954915
60	0x3d183cea	0.037167467
61	0x3d97573f	0.07389688
62	0xbd13f4b0	-0.036122024
63	0x3d43cae3	0.04780091
64	0xbc839c63	-0.016065782
65	0xbdef7e9f	-0.11694073
66	0xbdde04b9	-0.108407445
67	0x3da4c248	0.08044869
68	0xbd303d03	-0.043026935
69	0x3defeaf9	0.11714739
70	0xbdb293fe	-0.087196335
71	0x3de4fe84	0.111813575
72	0xbd6bfb9f	-0.05761301
73	0x3d8fd45e	0.07022928
74	0xbe088cb2	-0.13334921
75	0x3dc46ffe	0.09591673
76	0x3ceaec16	0.028677028
77	0xbd96e795	-0.073683895
78	0x3d5f9bde	0.054592006
79	0xbda75ac3	-0.08171608
80	0x3db0f44a	0.086403444
81	0xbcbbdc4c	-0.022932194
82	0xbcff5b24	-0.031171389
83	0x3d45929e	0.04823553
84	0xbd543e48	-0.05181721
85	0x3d549736	0.05190202
86	0xbd0d9bdf	-0.03457248
87	0xbd683196	-0.056687914
88	0xbde1d449	-0.11026818
89	0x3dd50022	0.10400416
90	0xbd48e236	-0.049043857
91	0x3db3b2cf	0.087743394
92	0x3cbf5528	0.023356035
93	0xbd99702e	-0.074921
94	0x3db5f61b	0.088848315
95	0xbd82e70c	-0.06391725
96	0xbc130499	-0.008973264
97	0x3cc82b80	0.024434805
98	0xbdeda30c	-0.11603364
99	0xbc323f82	-0.010879399
100	0xbd787cca	-0.060665883
101	0xbbb7b996	-0.0056068404
102	0xbd2373cc	-0.039905354
103	0xbdea2f14	-0.11434761
104	0xbd805012	-0.06265272
105	0xbc3aa337	-0.0113914525
106	0xbc86d1ce	-0.016457465
107	0xbd0525e0	-0.032506824
108	0x3b19c9be	0.0023466195
109	0x3c08a658	0.008340441
110	0xbd6be02d	-0.057586838
111	0xbd42a570	-0.047521055
112	0x3db22229	0.08697922
113	0x3d605dc2	0.054776914
114	0x3dc1084e	0.09425412
115	0x3dc90800	0.09815979
116	0x3da08f7d	0.07839868
117	0x3df01ffc	0.117248505
118	0xbd9e8230	-0.07739675
119	0x3d08c32f	0.033389267
120	0xbd79b826	-0.060966633
121	0xbdbb1b92	-0.09136118
122	0xbdd55cf8	-0.10418123
123	0xbdc05b23	-0.09392383
124	0x3d744b1d	0.059641946
125	0x3d25070e	0.04028993
126	0x3d26844c	0.040653512
127	0xbd7f8f61	-0.062392596
128	0xbd6fc6ff	-0.058539387
129	0x3db3eca1	0.08785368
130	0xbd8b3144	-0.06796506
131	0x3d98ad49	0.074549265
132	0xbd895109	-0.06704909
133	0xbdd07669	-0.10178835
134	0xbbb988fc	-0.0056620818
135	0x3de1e8ba	0.11030717
136	0x3de5c632	0.112194434
137	0xbe0246ea	-0.12722364
138	0x3c6b9b64	0.01438031
139	0xbe00b743	-0.12569909
140	0xbdb53c45	-0.08849386
141	0x3ce5d156	0.02805392
142	0xbc51c5da	-0.012803519
143	0xbcf407a9	-0.029788809
144	0xbd83de50	-0.06438887
145	0xbcdb9f7f	-0.026809452
146	0x3c7d3a54	0.015455801
147	0xbca06b05	-0.01958228
148	0xbd6854cc	-0.056721494
149	0xbd39f2ea	-0.045397677
150	0x3de69316	0.11258523
151	0x3cb13062	0.021629516
152	0xbcd322fd	-0.02577352
153	0xbdaef7f6	-0.085433885
154	0xbd415c0c	-0.047206923
155	0xbcc4cfce	-0.02402487
156	0x3dedc8c2	0.11610557
157	0xbdbe6046	-0.092957065
158	0xbd976329	-0.0739196
159	0xbd960141	-0.07324458
160	0xbc8ba839	-0.017047988
161	0x3d91226f	0.07086646
162	0xbd2731d3	-0.040819
163	0xbd10f569	-0.03539029
164	0xbde54faa	-0.11196835
165	0x3d34f6a1	0.044180516
166	0x3c3719a8	0.0111755505
167	0xbd45e5dd	-0.048314918
168	0x3df07551	0.11741126
169	0x3dc0c216	0.09412019
170	0x3ba0d279	0.004907903
171	0xbd3aaa40	-0.04557252
172	0xbc084c5a	-0.008318985
173	0x3bb2624c	0.005443847
174	0xbcb32a27	-0.021870686
175	0x3dfaa24a	0.122379854
176	0x3d9af413	0.07566085
177	0xbd8994ce	-0.06717835
178	0xbd9e4e3e	-0.07729767
179	0x3d4527b6	0.048133574
180	0xbc08c755	-0.008348306
181	0xbcc13b81	-0.023587944
182	0xbdc4fa1a	-0.096180156
183	0xbd786ecc	-0.06065254
184	0x3e019b7a	0.12656966
185	0x3dcc2f25	0.099699296
186	0xbd0d5972	-0.03450913
187	0xbc94e9a8	-0.018177822
188	0x3d61c587	0.055120017
189	0x3c28dfdb	0.010307278
190	0x3d110e06	0.035413764
191	0x3db0a773	0.086256884
192	0x3d6fb3ef	0.058521207
193	0xbd53710d	-0.051621486
194	0x3dc52a98	0.09627265
195	0x3d361c19	0.04446039
196	0xbd813b60	-0.06310153
197	0xbcd3067d	-0.02575993
198	0x3d431085	0.047623176
199	0xbd584cd6	-0.05280765
200	0xbda417a4	-0.080123216
201	0xbda3d603	-0.07999804
202	0x3da82533	0.0821022
203	0xbda0cdfa	-0.07851787
204	0xbdf797c3	-0.12089493
205	0x3da8d88b	0.08244427
206	0xbdb2564f	-0.08707868
207	0x3dec06df	0.11524748
208	0xbdf467b9	-0.11933846
209	0x3c939597	0.018015666
210	0x3c5980b9	0.013275319
211	0x3ce95983	0.028485065
212	0x3d4daae9	0.05021182
213	0xbdf69141	-0.12039424
214	0x3d3a1cfc	0.045437798
215	0xbc33ce52	-0.010974484
216	0xbcbe2c61	-0.02321452
217	0x3ddef9a5	0.1088746
218	0xbd17a4ef	-0.037022527
219	0xbcec7b88	-0.028867498
220	0xbdd0f814	-0.10203567
221	0xbdd5bfa7	-0.104369454
222	0xbdc79bdb	-0.09746524
223	0x3ce830ae	0.028343525
224	0x3d272ca5	0.04081406
225	0xbcd1cde6	-0.025610875
226	0xbda239b9	-0.07921166
227	0xb9d491d7	-0.0004054445
228	0xbcff4d63	-0.03116483
229	0x3cefef4d	0.029288912
230	0x3d54088e	0.05176597
231	0xbd35cf11	-0.044386927
232	0xbcf098eb	-0.029369792
233	0xbdb517f7	-0.088424616
234	0x3df69fbe	0.12042187
235	0x3d6b3c3d	0.057430495
236	0xbdde0523	-0.108408235
237	0x3d63183d	0.055443037
238	0x3d7d23e1	0.061801795
239	0x3d818952	0.0632502
240	0xbcd22676	-0.025653105
241	0xbdc0bb3d	-0.09410713
242	0x3cefea26	0.029286455
243	0xbd0c8f65	-0.03431644
244	0xbd10342b	-0.035206
245	0xbd26e475	-0.040745217
246	0xbd990246	-0.07471137
247	0x3d2097d2	0.039207287
248	0x3d8d92f1	0.069127925
249	0x3bb0ebcd	0.0053992034
250	0x3dd2d61b	0.102947436
251	0xbd5dfe55	-0.054197628
252	0xbdb791f2	-0.08963384
253	0xbe01992e	-0.1265609
254	0xbdd918e3	-0.1060045
255	0xbdd93a19	-0.106067844

feature_extract.mlps.1.linears.0.bias f4 [64]
0	0xbd97a5f5	-0.07404701
1	0x3d411793	0.047141623
2	0xbc639f0c	-0.0138929
3	0x3d0cb2f4	0.03435035
4	0xbd4ecfb4	-0.05049105
5	0xbd9803b6	-0.07422583
6	0xbd420807	-0.047370937
7	0x3dcda683	0.10041525
8	0x3db38899	0.08766288
9	0x3ce5a1e8	0.028031304
10	0x3c35b3cb	0.011090229
11	0xbc8a8332	-0.016908262
12	0x3db8649b	0.09003564
13	0xbd455c35	-0.04818364
14	0x3d28e051	0.04122955
15	0xbd172693	-0.03690202
16	0x3df15dbf	0.11785459
17	0x3c415a6e	0.011801345
18	0x3dc9e8a7	0.09858828
19	0x3de6d93f	0.11271905
20	0xbd737857	-0.059440937
21	0xbdc0bd87	-0.094111495
22	0xb8400caa	-4.578816e-05
23	0x3ceaf135	0.02867947
24	0x3df62463	0.12018659
25	0x3dd86504	0.10566142
26	0xbda7e1ab	-0.081973396
27	0x3da628d6	0.081132576
28	0x3ca50435	0.020143608
29	0xbd959120	-0.07303071
30	0xbdb92752	-0.09040703
31	0x3db2bb90	0.08727181
32	0x3da605f7	0.081066065
33	0xbde02f07	-0.1094647
34	0xbda2d7e6	-0.079513356
35	0x3d821d30	0.06353223
36	0x3d5dc2fe	0.054141037
37	0x3d3e5ad0	0.046473324
38	0xbd5be474	-0.053684667
39	0x3c271536	0.010197928
40	0x3b1bb4e1	0.0023758935
41	0x3a88c3dc	0.0010434347
42	0x3d0de28f	0.03463989
43	0xbc23febe	-0.010009466
44	0x3da0d3d4	0.07852903
45	0xbdffd852	-0.12492432
46	0x3dcd70bf	0.1003127
47	0x3ddfca07	0.109272055
48	0x3c8347dd	0.016025478
49	0x3d9111ef	0.07083499
50	0xbd682503	-0.056675922
51	0x3de376e8	0.11106664
52	0x3c224afe	0.009905575
53	0xbde62033	-0.1123661
54	0x3d725b57	0.05916914
55	0x3dc82f10	0.097746015
56	0x3d094689	0.033514533
57	0x3d81d891	0.06340135
58	0xbb99ce16	-0.004693757
59	0x3d550447	0.052006032
60	0x3de0fd71	0.1098584
61	0xbdeb2b20	-0.11482835
62	0xbd9b11c9	-0.075717516
63	0xbde72603	-0.11286547

feature_extract.mlps.1.linears.1.weight f4 [64, 64]
0	0xbcdab471	-0.02669737
1	0x3db5b49a	0.08872338
2	0x3d95e1c8	0.07318455
3	0xbbd6f2c3	-0.006559701
4	0xbd9810a0	-0.07425046
5	0xbd9d3409	-0.076759405
6	0x3dd930a6	0.10604982
7	0x3de1aa2a	0.11018784
8	0x3d4ad82d	0.049522568
9	0xb9be40d2	-0.0003628792
10	0xbdcda89e	-0.10041927
11	0xbd957dca	-0.07299383
12	0xbdb7ee8a	-0.089810446
13	0x3d8def07	0.069303565
14	0xbd411735	-0.047141273
15	0x3daf5514	0.08561149
16	0x3e111de9	0.14171566
17	0x3d993b97	0.07482069
18	0xbb9236d7	-0.004462104
19	0x3c556989	0.01302565
20	0x3e0324d3	0.12807016
21	0xbdbefe15	-0.09325806
22	0x3d4d80df	0.05017173
23	0x3df1320c	0.11777124
24	0xbd019eef	-0.03164571
25	0xbd2a066a	-0.041510023
26	0xbdd9d815	-0.106369175
27	0xbd664d1b	-0.056225877
28	0x3d6afa71	0.057367746
29	0xbd216805	-0.03940584
30	0x3d70f5b8	0.058828086
31	0xbc7246c0	-0.014787376
32	0x3dafbda6	0.085810944
33	0x3c93f9bb	0.018063417
34	0xbdbd3c70	-0.09240043
35	0xbd9b9643	-0.075970195
36	0xbd5e0022	-0.054199345
37	0x3dc34df5	0.095363535
38	0xbdc623ce	-0.09674798
39	0x3d2aadf5	0.041669805
40	0xbda89b16	-0.08232705
41	0x3d4a6fc7	0.049423005
42	0xbc8ba2bd	-0.017045373
43	0xbd46ed00	-0.048565865
44	0x3dcfc6ac	0.101453155
45	0xbdcd0437	-0.100105695
46	0x3e035371	0.12824799
47	0x3cd351ff	0.025795935
48	0x3ce1069b	0.02746897
49	0xbda13cfe	-0.078729615
50	0x3b4a341f	0.003085382
51	0x3da3be1f	0.07995247
52	0x3da8067f	0.08204364
53	0x3e03f542	0.12886527
54	0xb82e51cc	-4.1561012e-05
55	0x3c9e26e5	0.019305656
56	0xbce2a2ea	-0.027665574
57	0xbdefb554	-0.117045075
58	0x3d53c8a8	0.051705033
59	0xbdc13939	-0.094347425
60	0x3d96ba40	0.07359743
61	0xbd007b7a	-0.031367756
62	0xbb13ec70	-0.0022571348
63	0x3d8ac4e8	0.06775838
64	0xbb39036b	-0.0028230797
65	0x3dba0722	0.09083392
66	0x3dac2fe3	0.08407571
67	0xbdb10f20	-0.08645463
68	0xbdf1b4cf	-0.118020646
69	0xbde984de	-0.114022955
70	0x3dfbd295	0.12296025
71	0x3dd709b9	0.10499901
72	0x3bbcc6d0	0.005761005
73	0x3d4541b4	0.048158363
74	0x3cf3f5a4	0.029780217
75	0xbdd37b2e	-0.10326229
76	0x3d19da1a	0.037561513
77	0xbd2c00df	-0.04199302
78	0xbdbf8ba7	-0.093528084
79	0x3a567636	0.0008181067
80	0x3d9019c1	0.07036162
81	0xbde0e113	-0.109804295
82	0x3cdd674c	0.027026795
83	0xbdaa0ed9	-0.08303613
84	0xbd5dfb4f	-0.054194745
85	0xbd144da0	-0.03620684
86	0x3d9847dc	0.07435581
87	0xbdf31bd6	-0.11870544
88	0xbd48beae	-0.04900997
89	0x3d94e8cc	0.07270965
90	0x3d47c61e	0.048772924
91	0x3ca28079	0.019836651
92	0x3dbf24a6	0.09333162
93	0xbd55cfec	-0.052200243
94	0x3d1867e1	0.03720844
95	0xbd23c835	-0.039985854
96	0xbcd1db3f	-0.02561724
97	0x3a8907a5	0.0010454549
98	0x3cd1f841	0.025631072
99	0xbdd8eafb	-0.10591694
100	0x3d7a2ffe	0.061080925
101	0x3d798848	0.060920984
102	0x3d2294d3	0.03969271
103	0x3d676b12	0.056498595
104	0xbcc945f6	-0.024569493
105	0x3c6558a1	0.013998182
106	0xbd964322	-0.07337023
107	0x3d856eb7	0.06515258
108	0xbd57c9d4	-0.052682713
109	0x3de7133f	0.11282968
110	0xbd4ef4cd	-0.05052643
111	0x3e06bd06	0.13158044
112	0x3df31695	0.118695416
113	0xbd3467bb	-0.044044238
114	0x3d672c85	0.05643894
115	0x3d9a72ec	0.07541451
116	0xbe02f3d3	-0.12788324
117	0x3d997ee0	0.074949026
118	0x3d69146f	0.056904253
119	0xbdb8771a	-0.09007092
120	0xbcf7c5f9	-0.030245768
121	0xbdda4bea	-0.10659011
122	0xbd567765	-0.052359957
123	0xbdc6c5f9	-0.09705729
124	0xbdcb1927	-0.09916907
125	0xbd764f83	-0.060134422
126	0xbcfeb899	-0.031093882
127	0xbcf453aa	-0.02982505
128	0xbb768af8	-0.0037619453
129	0x3d9df5f6	0.07712929
130	0x3d9beda5	0.076136865
131	0xbd3439e5	-0.044000525
132	0xbdf4f06a	-0.11959918
133	0x3df94cb7	0.12172835
134	0x3dd502c7	0.1040092
135	0xbcd46822	-0.02592856
136	0x3c0a4841	0.008440078
137	0x3da0a1e2	0.07843377
138	0x3cbfb74a	0.023402829
139	0x3d6d79a7	0.057977345
140	0x3dab30e1	0.08358932
141	0x3caed637	0.02134238
142	0xbcea61c3	-0.02861107
143	0xbde8dd32	-0.11370315
144	0x3cffe66c	0.031237803
145	0xbd28e41f	-0.04123318
146	0xbd756e14	-0.05991943
147	0x3d9c8afb	0.07643696
148	0xbdf82ccd	-0.1211792
149	0x3d980d22	0.0742438
150	0xbaa3afda	-0.0012488321
151	0x3dc37b7f	0.095450394
152	0xbce31c2f	-0.0277234
153	0x3de3af8f	0.111174695
154	0xbbe574bf	-0.0070024426
155	0xbdc6ca35	-0.09706537
156	0x3c06e7de	0.008233992
157	0xbca84d0f	-0.020544557
158	0x3cfa648f	0.030565528
159	0x3d0165dd	0.031591285
160	0xba8799f4	-0.0010345564
161	0xbe08554d	-0.1331379
162	0xbdb3c244	-0.087772876
163	0xbd7ea330	-0.062167346
164	0xbd603390	-0.054736674
165	0xbd4b91f4	-0.04969974
166	0xbd8b8f06	-0.06814389
167	0x3d9ea127	0.07745581
168	0x3d038562	0.032109626
169	0xbb87d86f	-0.004145674
170	0xbe2453f2	-0.16047648
171	0x3dbbd486	0.09171395
172	0x3d440c37	0.04786321
173	0xbde7ae35	-0.11312524
174	0x3de164c8	0.110055506
175	0x3da62e23	0.08114269
176	0x3da5e4d9	0.0810029
177	0x3b854cb2	0.0040679807
178	0xbdc9af16	-0.09847848
179	0xbc0db2ba	-0.008648569
180	0xbdd50832	-0.10401954
181	0x3daea31b	0.08527204
182	0x3d9e239d	0.077216364
183	0x3d2d56f8	0.042319268
184	0x3c2db804	0.010602955
185	0xbd2749cf	-0.040841874
186	0xbd6e3944	-0.05816008
187	0x3da12475	0.07868282
188	0x3db6aeaf	0.08920037
189	0x3cd43d4d	0.025908137
190	0xbc49ecd6	-0.0123245325
191	0x3c4245df	0.011857479
192	0xbc057da9	-0.0081476355
193	0xbc40b073	-0.011760819
194	0xbc016fc2	-0.00790018
195	0x3cc824a6	0.024431538
196	0x3cd17b52	0.025571499
197	0x3df0f564	0.117655545
198	0xbdb01d9a	-0.08599396
199	0xbd1bf673	-0.03807683
200	0x3cf33482	0.029688124
201	0x3dcf3e31	0.10119284
202	0x3df0ab63	0.117514394
203	0x3da0793e	0.07835625
204	0xba7bb11f	-0.0009601283
205	0x3da6e406	0.08148961
206	0xbdaa853e	-0.08326195
207	0x3cc8d756	0.024516743
208	0xbd1f904d	-0.038955975
209	0x3d947bce	0.07250176
210	0xbd726ff6	-0.059188806
211	0x3e0037e9	0.12521328
212	0x3cb72843	0.022358065
213	0xbde878ba	-0.11351152
214	0x3db0fd3a	0.08642049
215	0x3a860e2b	0.0010227611
216	0xbe05f84f	-0.13083003
217	0x3df1e086	0.118104026
218	0xbda47387	-0.080298476
219	0xbc3de951	-0.0115912715
220	0x3e019a1e	0.12656447
221	0xbd066150	-0.03280765
222	0xbdd5a6d9	-0.10432214
223	0x3e08a2d7	0.13343368
224	0xbdbb9812	-0.091598645
225	0x3df63fac	0.12023863
226	0x3dc5ad94	0.09652248
227	0x3db576b7	0.08860534
228	0x3dac8d41	0.084253795
229	0x3c4244a7	0.011857188
230	0xbdf1d267	-0.11807709
231	0xbdb90d84	-0.09035781
232	0x3db4e0d8	0.08831948
233	0x3de5b102	0.11215402
234	0x3d8b372a	0.06797631
235	0xbdeacf74	-0.1146535
236	0x3d9b1454	0.07572237
237	0xbbb35678	-0.0054729544
238	0xbbb31f7b	-0.0054663992
239	0xbdcaa32d	-0.098944046
240	0xbdb38f6d	-0.08767591
241	0xbdf37e35	-0.118893065
242	0x3cea178c	0.028575681
243	0x3e010145	0.1259814
244	0xbd8008b8	-0.06251663
245	0xbd36fdc9	-0.044675622
246	0xbdaba814	-0.08381668
247	0xbddf63ad	-0.109076835
248	0x3dd684df	0.10474562
249	0x3d8eee0e	0.06978999
250	0xbb251615	-0.0025190164
251	0x3d2911dd	0.0412768
252	0x3da98519	0.082773395
253	0xbcaee4a3	-0.021349257
254	0xbdac9fd1	-0.0842892
255	0x3cc7ba3a	0.024380792

feature_extract.mlps.1.linears.1.bias f4 [64]
0	0x3d9a96eb	0.075483166
1	0xbd069abc	-0.03286241
2	0xbdba35f5	-0.09092323
3	0x3d2ea182	0.042634495
4	0x3ce52532	0.027971838
5	0x3d253486	0.040333293
6	0xbcc3d4bc	-0.02390515
7	0xbd873364	-0.06601599
8	0x3cf22b30	0.029561609
9	0x3da05a43	0.07829716
10	0x3dfaec5e	0.12252115
11	0xbdb4c872	-0.088272944
12	0xbd0794fe	-0.033101074
13	0x3dc67ac3	0.09691384
14	0xbda7dfec	-0.081970066
15	0x3dd25be8	0.10271436
16	0x3d10d3d9	0.035358284
17	0x3d8f0393	0.069831036
18	0xbd27229a	-0.040804483
19	0x3dd4608d	0.10369978
20	0xbdf6e233	-0.12054863
21	0x3da9fd7f	0.08300304
22	0x3c061041	0.008182586
23	0x3d12f3b7	0.035876956
24	0x3d8750e4	0.066072255
25	0xbdf47de0	-0.11938071
26	0x3b0e87fb	0.002174853
27	0x3b24a632	0.0025123474
28	0x3d106b2d	0.03525846
29	0xbc95b7a1	-0.018276038
30	0x3c93bf50	0.01803556
31	0xbbb02bc0	-0.005376309
32	0xbde7d821	-0.1132052
33	0xbd7b5b9c	-0.061366662
34	0x3db6499c	0.089007586
35	0xbdce833d	-0.100836255
36	0xbd36c6de	-0.04462325
37	0xbdc5c1ee	-0.0965613
38	0xbb9ee389	-0.0048489016
39	0x3d563fbf	0.052306887
40	0xbc60b8eb	-0.013715963
41	0x3d852f5e	0.06503175
42	0xbdb0076b	-0.08595165
43	0xbda6e903	-0.08149912
44	0xbdd927de	-0.10603307
45	0x3d63d708	0.05562499
46	0x3c996080	0.018722773
47	0xbda9aecf	-0.08285295
48	0xbdef5d41	-0.11687709
49	0xbd24e91b	-0.04026137
50	0xbb6366cd	-0.0034698725
51	0x3dafaa3e	0.08577393
52	0xbda28509	-0.07935531
53	0x3dab6f47	0.08370834
54	0x3d51ddb6	0.05123683
55	0xbde339ed	-0.11095033
56	0x3d410c89	0.047131095
57	0x3da72f82	0.08163358
58	0xbd928927	-0.07155066
59	0x3db616f3	0.08891096
60	0x3de97e7f	0.1140108
61	0xbdbbb441	-0.0916524
62	0x3db7ee07	0.08980947
63	0x3da2c79a	0.07948227

feature_extract.mlps.1.batch_norms.0.weight f4 [64]
0	0x3f802db3	1.0013946
1	0x3f810639	1.0080024
2	0x3f806905	1.003205
3	0x3f7e8640	0.994236
4	0x3f80e417	1.0069607
5	0x3f802cdd	1.0013691
6	0x3f808bae	1.0042627
7	0x3f802034	1.0009828
8	0x3f81b870	1.0134411
9	0x3f815675	1.010451
10	0x3f7f2b9f	0.99675936
11	0x3f824eea	1.0180333
12	0x3f7cd546	0.9876293
13	0x3f7e669d	0.99375325
14	0x3f7ea5df	0.9947185
15	0x3f7c497b	0.9854962
16	0x3f81e0e5	1.0146757
17	0x3f7a6090	0.9780359
18	0x3f7c145d	0.9846857
19	0x3f80fe02	1.0077517
20	0x3f80d9bb	1.0066446
21	0x3f7d863c	0.9903295
22	0x3f7fc0f2	0.99903786
23	0x3f809aaf	1.0047206
24	0x3f802fba	1.0014565
25	0x3f7fe5f5	0.9996026
26	0x3f814f05	1.010224
27	0x3f805d9a	1.0028565
28	0x3f8085ad	1.0040795
29	0x3f7f5a8f	0.99747556
30	0x3f7fd921	0.9994069
31	0x3f810188	1.0078592
32	0x3f7ff97a	0.99990046
33	0x3f7f1735	0.99644786
34	0x3f801cfa	1.0008843
35	0x3f7f198f	0.99648374
36	0x3f7bedc7	0.98409694
37	0x3f7e89c0	0.9942894
38	0x3f7e01bd	0.992214
39	0x3f7c555f	0.98567766
40	0x3f80116f	1.000532
41	0x3f7dcf7e	0.9914473
42	0x3f80199e	1.0007818
43	0x3f79f955	0.97646075
44	0x3f807edc	1.0038714
45	0x3f825452	1.0181983
46	0x3f81b90a	1.0134594
47	0x3f7f0c2d	0.99627954
48	0x3f7edf6e	0.99559677
49	0x3f79189c	0.97303176
50	0x3f80aa61	1.0051996
51	0x3f80df3d	1.0068127
52	0x3f81582d	1.0105034
53	0x3f802655	1.0011698
54	0x3f7b898b	0.9825675
55	0x3f7df963	0.9920866
56	0x3f7b7e7b	0.9823987
57	0x3f7e2483	0.9927446
58	0x3f7c9930	0.98671246
59	0x3f82f396	1.0230587
60	0x3f7aacd6	0.97919977
61	0x3f7f53ba	0.9973713
62	0x3f807ee9	1.003873
63	0x3f807073	1.0034317

feature_extract.mlps.1.batch_norms.0.bias f4 [64]
0	0xbc4b2a0d	-0.012400162
1	0x3bc2cd89	0.005944912
2	0x3c11315f	0.008861869
3	0xbb09de3c	-0.0021037003
4	0x3b6813e4	0.0035412246
5	0x3c166655	0.009179671
6	0x3c836971	0.01604149
7	0xbb852725	-0.0040635043
8	0x3ca42a1b	0.020039609
9	0x3c67eec3	0.014156046
10	0xbc8471c4	-0.016167529
11	0x3caa0408	0.020753875
12	0xbac3d7f8	-0.0014941683
13	0xbac413a1	-0.0014959463
14	0x3b810feb	0.003938665
15	0xba6e1ee8	-0.0009083585
16	0x3b854f62	0.004068301
17	0xbc58aaf2	-0.01322435
18	0xbc2fb9aa	-0.010725418
19	0x3bbd4eea	0.0057772296
20	0x3b928f57	0.004472654
21	0xbc081729	-0.008306303
22	0x3bd78e26	0.0065782247
23	0x3c4d8ec5	0.012546246
24	0xbb35b150	-0.0027724095
25	0xbc4c71dc	-0.012478318
26	0x3bb3470d	0.0054711164
27	0x3bc550e2	0.006021605
28	0x3b61d103	0.0034456856
29	0xba8acd11	-0.0010589679
30	0x3ba65b8b	0.0050768307
31	0x3c7aa364	0.015297744
32	0x3b9679c9	0.0045921546
33	0x3a6f226f	0.00091222575
34	0x3baf476f	0.0053490917
35	0x3ba30e56	0.004976074
36	0xbb0ab00c	-0.002116206
37	0xbaa9629c	-0.0012923065
38	0xbb6f53e7	-0.0036518516
39	0xbc060f83	-0.008182409
40	0xbb892e05	-0.004186394
41	0x3a17d475	0.00057918514
42	0x3bd7a462	0.0065808753
43	0xbbd6ff93	-0.0065612285
44	0x3bbc0049	0.0057373387
45	0x3cde51ec	0.027138673
46	0x3b3f3a14	0.0029178904
47	0x3c4f8384	0.012665633
48	0x3ca5479b	0.020175746
49	0xbbf2b339	-0.007406619
50	0x3bfaa2fb	0.0076488233
51	0x3c8c4c5a	0.017126251
52	0x3b3ebf0c	0.0029105572
53	0x3c4cbc09	0.012496003
54	0xbc2b418c	-0.010452639
55	0x3abe4134	0.0014515282
56	0xbc8f7ba7	-0.017515017
57	0xb9f7071e	-0.00047116814
58	0xbc8170f3	-0.015800929
59	0x3bad2808	0.005284313
60	0x3b4b557e	0.00310263
61	0x3b18afcf	0.002329815
62	0x391e5786	0.00015100659
63	0x3c67a22b	0.014137785

feature_extract.mlps.1.batch_norms.0.running_mean f4 [64]
0	0x3f43a008	0.76416063
1	0xbf17f075	-0.59351283
2	0xbe56ac3f	-0.20964144
3	0xbf7658b1	-0.9622908
4	0xbe8715ef	-0.26383922
5	0xbe7f1b6b	-0.24912803
6	0xbe99de65	-0.30052486
7	0xbdf509d5	-0.11964766
8	0x3f563425	0.83673316
9	0xbf06df2f	-0.526843
10	0xbefaf12f	-0.49012133
11	0xbf39bdda	-0.72555315
12	0x3ea6ee43	0.32603654
13	0xbea5907d	-0.32336798
14	0x3ee2a65e	0.44267553
15	0x3f42c19c	0.76076674
16	0x3f87fe21	1.0624429
17	0xbf40827e	-0.75199115
18	0x3f385cc3	0.72016543
19	0xbea7f4d3	-0.32803974
20	0x3ea6eb7f	0.32601544
21	0xbe70ae90	-0.2350409
22	0xbf188120	-0.5957203
23	0xbf9b12a1	-1.211506
24	0x3d8866e4	0.0666025
25	0xbeda5aff	-0.4264755
26	0xbf243e24	-0.6415732
27	0x3f32f6d0	0.69907856
28	0xbf50cf7a	-0.81566584
29	0x3e737261	0.23774101
30	0xbedbd7f5	-0.429382
31	0xbeceead1	-0.40413526
32	0xbfa1c21b	-1.2637361
33	0xbf5cd082	-0.8625566
34	0xbed5b4dc	-0.41739547
35	0x3e884cbf	0.26621053
36	0xbe3c8fd0	-0.18414235
37	0xbf6efb64	-0.9335234
38	0x3f21bafb	0.63175935
39	0xbf44d88e	-0.76892936
40	0x3f0c901d	0.549074
41	0x3f60fba6	0.87883985
42	0xbe5a4fa5	-0.21319444
43	0xbd681cae	-0.056667976
44	0xbf0909c6	-0.5353054
45	0xbf06a855	-0.52600604
46	0xbf295bfe	-0.66155994
47	0xbd0e19b9	-0.0346925
48	0xbe23801f	-0.15966843
49	0x3f18b8c8	0.59656954
50	0xbf553f83	-0.83300036
51	0x3dbc0802	0.09181215
52	0x3f7244df	0.9463634
53	0xbf06d356	-0.52666223
54	0x3c99377d	0.018703217
55	0x3e042fbb	0.12908833
56	0x3f349299	0.7053619
57	0xbeb1abec	-0.34701478
58	0x3f84d7cb	1.0378355
59	0xbfb91f3d	-1.4462658
60	0x3ee0e077	0.43921253
61	0x3e1b5c71	0.15171982
62	0x3f417de4	0.7558272
63	0xbd899335	-0.06717531

feature_extract.mlps.1.batch_norms.0.running_var f4 [64]
0	0x3dde0d94	0.108424336
1	0x3ebe2bed	0.37142888
2	0x3f727aaf	0.9471845
3	0x3eaf9430	0.34292746
4	0x3f2a2b99	0.66472775
5	0x3d388464	0.045048133
6	0x3eb88037	0.3603532
7	0x3e89a362	0.26882464
8	0x3f18a4e6	0.59626615
9	0x3f2300de	0.636732
10	0x3e9c51be	0.30531114
11	0x3eb7820a	0.358414
12	0x3eab2bf1	0.33431962
13	0x4009cb1c	2.1530218
14	0x3f0caf05	0.5495456
15	0x3f23c27a	0.6396862
16	0x3e21b447	0.15791427
17	0x3f028658	0.5098624
18	0x3f05c582	0.522545
19	0x3ec48657	0.38383743
20	0x3f1e988b	0.6195151
21	0x3ea05ad6	0.31319302
22	0x3f3f642b	0.7476222
23	0x3fcbc56d	1.5919625
24	0x3f0546fb	0.5206143
25	0x3f8b980a	1.0905774
26	0x3ed369ea	0.41291744
27	0x3e0579e0	0.13034773
28	0x3f9cb402	1.2242434
29	0x3f758748	0.9590955
30	0x3f22b152	0.6355182
31	0x3e222ca6	0.15837345
32	0x3f072d88	0.5280385
33	0x3f8c2c05	1.0950934
34	0x3e895e2d	0.26829663
35	0x3f1cabb9	0.6119953
36	0x3e231578	0.15926158
37	0x3f3e18be	0.74256504
38	0x3eb5a209	0.35475186
39	0x3ed1f9e8	0.41010976
40	0x3e6097b8	0.21932876
41	0x3f0eb3d2	0.55743134
42	0x3e514081	0.20434763
43	0x3dfe07f6	0.12403862
44	0x3e809fb7	0.25121853
45	0x3fe5e012	1.7959006
46	0x3e60748b	0.21919458
47	0x3e1779f3	0.14792614
48	0x403b92d4	2.9308367
49	0x3fb19451	1.3873388
50	0x3f5b7272	0.85721505
51	0x3e5031fa	0.20331565
52	0x3e0d7232	0.13813093
53	0x3f3b1d85	0.7309192
54	0x3eeea83a	0.46612722
55	0x3e7e3023	0.2482305
56	0x3f5eaebb	0.8698537
57	0x3e469162	0.19391397
58	0x3f3ae887	0.7301106
59	0x3edf652a	0.4363187
60	0x3f95e11b	1.1709322
61	0x3e3ca199	0.1842102
62	0x3f682e5e	0.9069575
63	0x3ffdbb0d	1.9822708

feature_extract.batch_norms.0.weight f4 [64]
0	0x3f7f0858	0.99622107
1	0x3f7face0	0.9987316
2	0x3f80ba75	1.0056902
3	0x3f7fc834	0.9991486
4	0x3f807816	1.0036647
5	0x3f7fe1db	0.99954003
6	0x3f809ad5	1.0047251
7	0x3f7e87b5	0.9942582
8	0x3f7d7055	0.9899953
9	0x3f7d1a79	0.9886852
10	0x3f808e6a	1.0043461
11	0x3f811fb1	1.0087796
12	0x3f80a117	1.0049161
13	0x3f7e376e	0.9930333
14	0x3f8013e1	1.0006067
15	0x3f82169c	1.016315
16	0x3f802212	1.0010397
17	0x3f7c5dcd	0.9858063
18	0x3f7ed8ea	0.99549735
19	0x3f7dedfa	0.9919125
20	0x3f806508	1.0030832
21	0x3f8075fc	1.0036006
22	0x3f7f01a0	0.99611855
23	0x3f80ffd9	1.0078079
24	0x3f7f6ac6	0.997723
25	0x3f7cc368	0.98735666
26	0x3f8049d8	1.0022535
27	0x3f7e61a4	0.9936774
28	0x3f7fc59a	0.9991089
29	0x3f7f9901	0.9984284
30	0x3f7f4275	0.9971078
31	0x3f7ef1a0	0.9958744
32	0x3f7e9baf	0.99456304
33	0x3f807089	1.0034343
34	0x3f803a5f	1.0017813
35	0x3f7fc207	0.9990544
36	0x3f806fb1	1.0034086
37	0x3f80a3ab	1.0049948
38	0x3f7e36e3	0.993025
39	0x3f80637d	1.0030361
40	0x3f80e7fe	1.0070798
41	0x3f7dc90b	0.9913489
42	0x3f80815d	1.0039479
43	0x3f807792	1.003649
44	0x3f7dc1ad	0.9912365
45	0x3f80710c	1.0034499
46	0x3f7eac09	0.99481255
47	0x3f80c74e	1.0060823
48	0x3f822294	1.0166802
49	0x3f800a56	1.0003154
50	0x3f8177b7	1.0114659
51	0x3f80f958	1.0076094
52	0x3f802074	1.0009904
53	0x3f80ccfd	1.0062557
54	0x3f7e1d8b	0.9926383
55	0x3f7e3e78	0.9931407
56	0x3f7e0b83	0.99236315
57	0x3f812946	1.0090721
58	0x3f80820f	1.0039691
59	0x3f821f72	1.0165846
60	0x3f809416	1.0045192
61	0x3f7ef394	0.9959042
62	0x3f804b7b	1.0023035
63	0x3f7fb626	0.9988731

feature_extract.batch_norms.0.bias f4 [64]
0	0x3bec3fc6	0.007209751
1	0xbab850bc	-0.0014062147
2	0x3c03b633	0.008039045
3	0x3ba842a5	0.005134898
4	0x3b7b93ab	0.0038387578
5	0xbb0aaacd	-0.0021158934
6	0x3bc44af0	0.0059903786
7	0xbbb1d91a	-0.005427492
8	0xbbcbd6be	-0.0062206676
9	0xbc34aa1d	-0.011026886
10	0x3c08aa50	0.008341387
11	0x3be9ce3e	0.0071351817
12	0xbb355758	-0.002767047
13	0xbb7d0b09	-0.0038611314
14	0x3baf6f35	0.005353833
15	0x3cb86f18	0.022513911
16	0xbc5d6a1f	-0.013514071
17	0xbc4b2e03	-0.012401107
18	0xbac90b05	-0.0015338367
19	0x3b4f0456	0.0031588278
20	0x3c1835c3	0.009290162
21	0xbaef4ae9	-0.0018256578
22	0xba141aa2	-0.00056497206
23	0x3a02c617	0.0004988624
24	0x3b83b663	0.004019545
25	0xbbfae130	-0.007656239
26	0x3bcc8519	0.0062414524
27	0xbbfe5ddd	-0.007762654
28	0x3a09f0bd	0.0005262008
29	0x3baa160d	0.005190617
30	0xbbfabdcf	-0.0076520215
31	0xbc370421	-0.011170418
32	0xbac2c282	-0.0014858993
33	0x3c39e67a	0.011346454
34	0xbb85fa85	-0.004088702
35	0xbb8db14c	-0.004324114
36	0x3c84ee60	0.016226947
37	0x3bb7b55e	0.0056063375
38	0xbbc82fa7	-0.006109196
39	0x3b6113a3	0.003434398
40	0x3c43b06a	0.011943916
41	0xbb94b44f	-0.004538096
42	0x3bb5835c	0.005539341
43	0xbb7b5188	-0.0038348157
44	0xbb398b7f	-0.0028311906
45	0x3af9e428	0.0019065188
46	0xbb80bdf0	-0.0039288923
47	0x3bc43f29	0.0059889746
48	0x3cbd6e12	0.023123775
49	0x3b99351a	0.0046755197
50	0x3c2ee896	0.01067557
51	0xba3b2294	-0.00071386364
52	0x3bd34c20	0.006448284
53	0x3acdc137	0.0015697841
54	0xbbd64d38	-0.006539967
55	0x3ac40684	0.0014955555
56	0xbc566cfa	-0.0130875055
57	0x3bb006d4	0.0053719077
58	0x3b7f5c72	0.0038965014
59	0x3c389475	0.011265864
60	0x3bb164e8	0.0054136403
61	0xbba5ca65	-0.0050595277
62	0xba95bfa2	-0.0011424909
63	0xbc23d4ab	-0.009999434

feature_extract.batch_norms.0.running_mean f4 [64]
0	0xbe04a0b0	-0.12951922
1	0xbd0aa986	-0.033853076
2	0xbe287b88	-0.16453373
3	0x3dcc53f9	0.09976954
4	0xbd95772f	-0.07298123
5	0x3da0b74b	0.0784746
6	0xbc8a8fef	-0.016914336
7	0xbd627dff	-0.05529594
8	0xbe44ee22	-0.19231465
9	0x3e6284ec	0.22121018
10	0xbd32f8bb	-0.04369424
11	0xbd8aaa47	-0.06770759
12	0x3e2edbdc	0.17076057
13	0xbcf79727	-0.030223442
14	0x3e07be79	0.13256253
15	0xbb8d9095	-0.004320214
16	0x3d7dd7b2	0.06197328
17	0xbd0dbac9	-0.03460196
18	0xbe348c21	-0.1763158
19	0x3ecc1e1f	0.3986673
20	0xbde1cc19	-0.11025257
21	0x3f0a669a	0.5406281
22	0x3eb8537c	0.36001194
23	0x3e9d451a	0.30716783
24	0x3df0c52c	0.117563576
25	0x3f3a6653	0.72812384
26	0xbe548494	-0.207537
27	0x3ddf2db0	0.10897386
28	0x3cfc466b	0.030795297
29	0xbebac226	-0.36476249
30	0x3ec63507	0.38712332
31	0x3df6ec3e	0.12056778
32	0xbe82378b	-0.25433
33	0xbea16398	-0.31521297
34	0x3e02ddf1	0.12779976
35	0x3d7a32ca	0.061083592
36	0xbd49c586	-0.04926064
37	0xbeb116b8	-0.34587646
38	0x3eceb0bd	0.40369216
39	0x3e330559	0.17482509
40	0x3cc4d0f2	0.024025414
41	0xbe49a07f	-0.1969013
42	0xbd54470b	-0.051825564
43	0xbe19e2a8	-0.15027869
44	0x3dcb9cc8	0.09942013
45	0x3e839a83	0.2570382
46	0x3e22ffa1	0.15917827
47	0xbe90f907	-0.28314993
48	0xbd0160b7	-0.031586375
49	0x3e4c4b9d	0.19950719
50	0x3eae130b	0.33998904
51	0xbcbac74c	-0.02280011
52	0xbca233e3	-0.019800132
53	0x3ddc52c6	0.10757975
54	0x3e70a660	0.23500967
55	0x3e0ef516	0.1396068
56	0x3d948134	0.07251206
57	0xbcc2e1cd	-0.02378931
58	0x3ed11865	0.40838924
59	0x3e397361	0.1811042
60	0xbef5c2ed	-0.4800028
61	0xbda77ae8	-0.081777394
62	0xbe3b15df	-0.18270062
63	0x3e5014b2	0.20320395

feature_extract.batch_norms.0.running_var f4 [64]
0	0x3d9a61ed	0.07538209
1	0x3c8708b9	0.016483651
2	0x3e00ae10	0.125664
3	0x3e1880ca	0.14892879
4	0x3d0fb818	0.035087675
5	0x3d4745d2	0.04865057
6	0x3d414fc1	0.0471952
7	0x3e9a6acc	0.30159605
8	0x3e5b276c	0.21401757
9	0x3d2060f5	0.039154965
10	0x3e844dc2	0.25840575
11	0x3c8316cc	0.016002081
12	0x3e910e4a	0.28331214
13	0x3d88ef9c	0.06686327
14	0x3cc14d8c	0.023596548
15	0x3c316e6f	0.010829552
16	0x3ca21dd4	0.019789614
17	0x3e0bf42b	0.13667361
18	0x3e3aeda1	0.1825471
19	0x3e7b0419	0.24513282
20	0x3ba934f0	0.0051637813
21	0x3e318568	0.17336047
22	0x3d16385e	0.03667485
23	0x3cd167d5	0.025562206
24	0x3cceabac	0.025228344
25	0x3e283ace	0.16428682
26	0x3db49bcd	0.08818779
27	0x3d6ef0f1	0.05833525
28	0x3cf4408f	0.02981594
29	0x3d82d886	0.06388955
30	0x3dca13e7	0.09867077
31	0x3da555cd	0.08073006
32	0x3d81042f	0.06299626
33	0x3e83e1b7	0.25758144
34	0x3c66a111	0.014076487
35	0x3dcfc854	0.101456314
36	0x3c2c60d2	0.010521131
37	0x3d066ae6	0.03281679
38	0x3e148f5e	0.14507815
39	0x3dcc40c8	0.099732935
40	0x3d9c2a1f	0.076252215
41	0x3cf068f2	0.029346917
42	0x3c9d5c77	0.01920913
43	0x3d355198	0.044267267
44	0x3c3564f2	0.0110714305
45	0x3d05af99	0.032638166
46	0x3dd6ad4b	0.10482272
47	0x3d47519b	0.04866181
48	0x3edf2439	0.43582323
49	0x3da523c6	0.08063464
50	0x3e5a5254	0.21320468
51	0x3d2c66da	0.042090274
52	0x3d53778c	0.05162768
53	0x3d81284b	0.063065134
54	0x3d64bf9d	0.0558468
55	0x3ea3a4cf	0.31961676
56	0x3ca08e5f	0.019599138
57	0x3e2ce2ef	0.16883443
58	0x3e026793	0.12734823
59	0x3df34bd3	0.11879697
60	0x3d38f21c	0.04515277
61	0x3e039b2b	0.1285216
62	0x3f067123	0.5251638
63	0x3dda8ce8	0.10671407
