SavedNetwork/20_20_1_199.pth (torch_old, 86544 bytes, 30 tensors)

feature_extract.mlps.0.linears.0.weight f4 [64, 2]
-0.2985365 0.42208493 0.49917194 -0.23842709 0.058924045 -0.43849045 -0.5372522 0.34586194
0.52071106 -0.008792088 -0.6975412 -0.19570866 -0.41974378 -0.19533506 -0.19218485 -0.5980949
-0.3842378 0.28609148 -0.35677126 -0.3329525 -0.39358547 0.5564757 -0.3027345 -0.22650109
-0.1429976 0.6616409 -0.41932416 0.2416057 0.6159174 0.13920967 0.70579225 -0.34338117
0.5400855 -0.6199263 0.38853055 -0.5256496 -0.5528991 0.12899834 -0.0036346149 0.22713782
0.015966479 0.013474966 -0.34790263 0.22328083 -0.22000322 0.13664024 0.016053773 -0.047216102
-0.31548655 0.50345486 -0.63267404 -0.0166437 0.38961565 -0.16960794 0.47756797 -0.481973
-0.59891766 -0.33455592 -0.51869434 -0.024049357 -0.27965856 0.23070736 0.43585384 0.12605193
-0.034529444 -0.24981064 -0.36297944 0.55194175 0.51158214 0.3583759 -0.33070678 -0.24880931
0.07598609 0.053312648 -0.031049458 -0.44535354 -0.46847907 0.37188518 0.40713334 0.55660564
0.6638358 -0.15993802 -0.055659562 0.03099042 0.15153606 0.13496338 0.034510247 -0.330034
-0.016047264 0.3752887 0.3341885 0.6285746 0.32525632 -0.66751194 0.304456 -0.5414122
0.5487735 -0.5603643 -0.5496938 0.16894858 0.13744207 0.5080456 -0.46199366 0.5522336
0.11030763 -0.1338783 -0.4978239 0.34506065 0.0926774 0.55768293 -0.41309664 0.59537417
-0.47044617 -0.42031348 0.39504114 -0.08962172 -0.43166113 -0.05043927 0.687503 -0.035822183
0.2517597 -0.15656708 0.16103728 0.68990046 0.34466735 -0.49028802 -0.4215341 -0.10259339
00000000: c7d9 98be 841b d83e 7793 ff3e 3b26 74be
00000010: 575a 713d d281 e0be 5c89 09bf d114 b13e
00000020: 524d 053f b10c 10bc 0f92 32bf da67 48be
00000030: a8e8 d6be ea05 48be 1bcc 44be bf1c 19bf
00000040: d1ba c4be 957a 923e b9aa b6be c078 aabe
00000050: 0984 c9be 3175 0e3f 0400 9bbe e7ef 67be
00000060: f66d 12be 4c61 293f a8b1 d6be 7c67 773e
00000070: c3ac 1d3f fb8c 0e3e cdae 343f a8cf afbe
00000080: 0b43 0a3f 7db3 1ebf 7aed c63e f990 06bf
00000090: cc8a 0dbf 2418 043e b832 6ebb d196 683e
000000a0: 22cc 823c 1bc6 5c3c 4b20 b2be bba3 643e
000000b0: 8648 61be 6beb 0b3e 3483 833c ac65 41bd
000000c0: 7487 a1be 6be2 003f edf6 21bf 5e58 88bc
000000d0: b47b c73e b4ad 2dbe ca83 f43e 2ac5 f6be
000000e0: ab52 19bf ea4a abbe 27c9 04bf 2803 c5bc
000000f0: 682f 8fbe 8d3e 6c3e 3c28 df3e c213 013e
00000100: bf6e 0dbd 5cce 7fbe 71d8 b9be 0e4c 0d3f
00000110: 0cf7 023f 0c7d b73e 6652 a9be dec7 7ebe
00000120: 989e 9b3d 5d5e 5a3d 6f5b febc 6105 e4be
00000130: 7ddc efbe bc67 be3e c873 d03e b57d 0e3f
00000140: 25f1 293f cbc6 23be 48fb 63bd 9fdf fd3c
00000150: 452c 1b3e d733 0a3e 9e5a 0d3d 37fa a8be
00000160: 8d75 83bc d725 c03e c11a ab3e 44ea 203f
00000170: ff87 a63e 10e2 2abf a8e1 9b3e fd99 0abf
00000180: 6c7c 0c3f 0974 0fbf bcb8 0cbf db00 2d3e
00000190: 9dbd 0c3e 470f 023f 6f8a ecbe 2e5f 0d3f
000001a0: f7e8 e13d 6517 09be c6e2 febe caab b03e
000001b0: a6cd bd3d 4fc4 0e3f 6781 d3be 716a 183f
000001c0: 52de f0be 5433 d7be d542 ca3e 988b b7bd
000001d0: b002 ddbe 6899 4ebd 3200 303f 48ba 12bd
000001e0: a6e6 803e 1f53 20be f5e6 243e 519d 303f
000001f0: 3d78 b03e 0807 fbbe 51d3 d7be 7c1c d2bd

feature_extract.mlps.0.linears.0.bias f4 [64]
0.32124588 -0.38817212 -0.047085308 0.34757894 -0.34480524 -0.382874 0.014873924 -0.57969
0.29547596 -0.19482158 0.56149143 0.051902596 0.34083563 -0.12307266 -0.2530692 -0.30541396
0.34323007 0.6428007 0.25396466 -0.16406941 0.36606523 -0.5350445 -0.61133784 -0.23104712
0.3138246 -0.07544334 -0.48982385 -0.5859817 0.35313317 -0.36439422 -0.28291658 0.62958425
0.10217307 -0.41378206 0.054256156 0.3901201 -0.32786688 -0.43837282 -0.659691 -0.60117084
-0.52461547 0.36300007 0.065877624 0.21433899 0.40390378 0.63821435 -0.18959534 0.62985116
0.112214305 0.5651244 -0.6614799 -0.3123886 -0.26583812 0.51730317 0.41934907 -0.6995447
-0.39898512 -0.5513329 -0.6964386 -0.65420663 0.33781075 0.25140917 -0.055257868 -0.033168778
00000000: 577a a43e 7fbe c6be 86dc 40bd def5 b13e
00000010: 508a b0be 1008 c4be c2b1 733c 9066 14bf
00000020: a048 973e 4f7f 47be e7bd 0f3f d197 543d
00000030: 0282 ae3e 850d fcbd 4992 81be 385f 9cbe
00000040: dabb af3e 968e 243f a807 823e d001 28be
00000050: e76c bb3e adf8 08bf a380 1cbf 9e97 6cbe
00000060: 9ead a03e 0a82 9abd 31ca fabe e602 16bf
00000070: dfcd b43e e191 babe 71da 90be 6f2c 213f
00000080: 1d40 d13d 3edb d3be b43b 5e3d d2bd c73e
00000090: 2bde a7be 6772 e0be 82e1 28bf 55e6 19bf
000000a0: 334d 06bf 25db b93e d9ea 863d ae7b 5b3e
000000b0: 7acc ce3e 0462 233f 4825 42be ed3d 213f
000000c0: 9dd0 e53d feab 103f bf56 29bf 66f1 9fbe
000000d0: ef1b 88be fb6d 043f ecb4 d63e 5d15 33bf
000000e0: c747 ccbe 2724 0dbf cd49 32bf 167a 27bf
000000f0: 88f5 ac3e b4b8 803e 1356 62bd fcdb 07bd

feature_extract.mlps.0.linears.1.weight f4 [64, 64]
-0.073728435 0.068598226 -0.1308269 -0.09656124 -0.098481804 -0.056309402 -0.099445745 0.061948374
-0.12411752 0.008790258 0.019671137 -0.00053756975 0.03494011 0.11466656 0.070183486 0.034043144
-0.049679864 -0.013570135 0.116192766 0.02750984 -0.03135068 -0.016907567 -0.11213958 -0.10760991
0.06561844 0.015399374 0.0955665 0.07799929 -0.019136952 0.10614173 0.034658015 0.095833614
0.061147157 0.10697115 -0.078093715 -0.018819667 0.06974957 -0.12965007 0.021259487 -0.10695455
-0.054053422 -0.053091224 -0.05892303 0.011117873 0.08081264 -0.11072886 0.081220895 -0.04706074
-0.012360086 -0.021987416 -0.034998555 -0.010371236 -0.03535916 -0.08636387 -0.008788509 0.0480656
0.020603478 0.07048097 -0.036042165 0.015031608 0.08399598 0.10680892 -0.119447194 0.0933702
0.092509784 -0.08398575 -0.04054604 0.047603734 0.07682514 -0.12046208 0.005895804 -0.004671882
-0.0071943933 0.09847833 0.0071444926 -0.056754876 0.09221613 -0.03310856 0.084194705 0.105506115
0.047614124 -0.075820394 -0.055804756 -0.09652077 -0.06761727 -0.1177618 0.0038395121 -0.045760073
0.10912217 0.025421586 -0.05468603 -0.12208072 0.057223815 -0.111399375 -0.045385387 0.047094256
0.05969235 -0.036124565 0.080581926 -0.06626697 -0.077301696 0.081409514 0.006745952 0.046631925
0.014144402 0.038541686 -0.07686148 0.039552532 -0.01705506 -0.085146055 0.12051141 0.07670004
0.0011368485 0.11816203 -0.11655957 0.085908905 -0.0026630703 -0.07959408 0.12594579 0.11152899
-0.05443606 -0.06399476 -0.050358467 -0.043166853 0.034373898 0.051246718 0.024868917 -0.12350074
-0.07922799 -0.043372877 -0.013794309 -0.013680553 -6.3674083e-06 -0.021098148 -0.092224784 0.041764714
-0.102252595 -0.09618533 0.010415624 0.116758645 -0.04519049 -0.10933666 -0.0010038858 0.049488965
0.0348089 -0.0040508597 -0.07992796 0.008166886 0.010015707 -0.11453289 0.04153847 0.030565267
0.046471793 0.08408504 -0.0559686 0.052892603 0.09500672 -0.122438796 -0.1089825 0.012244156
-0.04928714 0.073674224 0.12505414 -0.011688306 0.013098975 -0.08034084 0.11054412 -0.029199343
-0.08031032 -0.12542203 -0.07462708 -0.011545713 -0.059397254 0.00014014188 0.004895392 -0.0052239555
0.0048847343 -0.017264621 0.066307105 -0.11687134 -0.08678033 -0.021558082 -0.06479216 0.08432471
0.08317988 0.02908429 -0.043989774 -0.005978306 0.09444405 0.011198234 0.09766507 0.10322186
0.014387271 0.102154486 -0.004386645 -0.019732801 -0.0035037247 -0.107990235 0.10012111 0.12637451
-0.02229475 -0.08490182 -0.044737823 -0.004847442 -0.11031121 0.04738689 -0.07415422 0.07995723
0.031977754 0.09205406 0.061572164 0.09237915 0.10639958 0.0686271 -0.079601765 -0.071881965
0.042258482 0.10660861 -0.06525484 -0.07192225 -0.12280679 0.027461147 -0.08588116 -0.061230887
0.038455747 -0.07583583 0.09146049 -0.012470574 0.024714677 0.039639343 0.0047952156 0.07019993
-0.104390316 0.078141004 0.050510265 0.014072034 0.059030302 0.09287586 -0.0550719 0.12201651
-0.014291271 -0.110721715 0.049596686 -0.07941677 0.017152779 -0.09315029 0.012242771 0.009699863
-0.11297042 -0.046714485 -0.050945416 -0.09033098 0.04163884 -0.052688736 0.01641982 0.064502686
00000000: effe 96bd 3a7d 8c3d 7df7 05be e6c1 c5bd
00000010: d4b0 c9bd b0a4 66bd 36aa cbbd 94bd 7d3d
00000020: 5431 febd 0405 103c 5d25 a13c b2eb 0cba
00000030: 5c1d 0f3d 4dd6 ea3d 5cbc 8f3d d370 0b3d
00000040: 1d7d 4bbd 4655 5ebc 79f6 ed3d 515c e13c
00000050: 9269 00bd bd81 8abc 70a9 e5bd 9662 dcbd
00000060: f662 863d a84d 7c3c 5fb8 c33d 17be 9f3d
00000070: 19c5 9cbc d660 d93d 90f5 0d3d 6a44 c43d
00000080: 7175 7a3d b113 db3d 99ef 9fbd b42b 9abc
00000090: ddd8 8e3d fdc2 04be 6028 ae3c fd0a dbbd
000000a0: 1f67 5dbd 2f76 59bd 4659 71bd bd27 363c
000000b0: 1981 a53d d0c5 e2bd 2457 a63d c3c2 40bd
000000c0: f581 4abc f41e b4bc a55a 0fbd 1eec 29bc
000000d0: c4d4 10bd 8adf b0bd aefd 0fbc 6fe0 443d
000000e0: a0c8 a83c 5458 903d f3a0 13bd 2247 763c
000000f0: 1606 ac3d a3be da3d bba0 f4bd e038 bf3d
00000100: c575 bd3d b900 acbd 9b13 26bd 22fc 423d
00000110: 8056 9d3d d3b4 f6bd 9731 c13b 9616 99bb
00000120: f2be ebbb 02af c93d 591c ea3b cd77 68bd
00000130: cfdb bc3d d79c 07bd 466e ac3d 9713 d83d
00000140: 0707 433d b947 9bbd 8793 64bd aeac c5bd
00000150: ec7a 8abd 192d f1bd 53a0 7b3b ea6e 3bbd
00000160: 727b df3d ee40 d03c 75fe 5fbd 7505 fabd
00000170: 8563 6a3d 5b25 e4bd 07e6 39bd e8e5 403d
00000180: f77f 743d 5af7 13bd 2308 a53d fab6 87bd
00000190: 5a50 9ebd 08ba a63d 260d dd3b 1e01 3f3d
000001a0: ecbd 673c e3dd 1d3d 8d69 9dbd d601 223d
000001b0: 0eb7 8bbc 0e61 aebd b0ce f63d e914 9d3d
000001c0: 4e02 953a effe f13d c9b6 eebd 02f1 af3d
000001d0: e886 2ebb 3902 a3bd eff7 003e 5069 e43d
000001e0: 59f8 5ebd af0f 83bd ae44 4ebd bacf 30bd
000001f0: a5cb 0c3d 14e8 513d e6b9 cb3c f5ed fcbd
00000200: 4942 a2bd c2a7 31bd 8701 62bc 6624 60bc
00000210: 9fa7 d5b6 06d6 acbc 59e0 bcbd 7a11 2b3d
00000220: cf69 d1bd d0fc c4bd 4ba6 2a3c 281f ef3d
00000230: aa19 39bd e6eb dfbd d194 83ba f1b4 4a3d
00000240: c793 0e3d 13bd 84bb 45b1 a3bd 67ce 053c
00000250: ec18 243c 3890 eabd 3e24 2a3d 0364 fa3c
00000260: 3559 3e3d c734 ac3d 553f 65bd eaa5 583d
00000270: e292 c23d 31c1 fabd 3832 dfbd b69b 483c
00000280: 50e1 49bd 83e2 963d 310e 003e 4f80 3fbc
00000290: 159d 563c bd89 a4bd f564 e23d 7633 efbc
000002a0: bd79 a4bd a26e 00be 15d6 98bd 3b2a 3dbc
000002b0: 894a 73bd 0df3 1239 8669 a03b b72d abbb
000002c0: 1f10 a03b 896e 8dbc 05cc 873d 3e5a efbd
000002d0: e3b9 b1bd 939a b0bc c1b1 84bd 6fb2 ac3d
000002e0: 375a aa3d 2d42 ee3c 9f2e 34bd aae5 c3bb
000002f0: e26b c13d cc78 373c a004 c83d fc65 d33d
00000300: 97b8 6b3c 5f36 d13d d8bd 8fbb afa6 a1bc
00000310: bf9e 65bb fc29 ddbd 4c0c cd3d 5268 013e
00000320: 7ba3 b6bc 01e1 adbd 023f 37bd 4ad7 9ebb
00000330: d8ea e1bd c118 423d 2bde 97bd 9ec0 a33d
00000340: 1bfb 023d d786 bc3d 1833 7c3d 4831 bd3d
00000350: 06e8 d93d 5d8c 8c3d 4006 a3bd da36 93bd
00000360: 3b17 2d3d 9d55 da3d 54a4 85bd f94b 93bd
00000370: 2082 fbbd 33f6 e03c 76e2 afbd 3dcd 7abd
00000380: c683 1d3d d14f 9bbd a34f bb3d 6151 4cbc
00000390: 6f76 ca3c dd5c 223d 2f21 9d3b fbc4 8f3d
000003a0: 97ca d5bd 6408 a03d dae3 4e3d 638e 663c
000003b0: c2c9 713d b335 be3d 1393 61bd cbe3 f93d
000003c0: ef25 6abc 11c2 e2bd e525 4b3d 42a5 a2bd
000003d0: fc83 8c3c 94c5 bebd e795 483c 2dec 1e3c
000003e0: 095d e7bd b057 3fbd 24ac 50bd 73ff b8bd
000003f0: 7d8d 2a3d 25d0 57bd dc82 863c fc19 843d

feature_extract.mlps.0.linears.1.bias f4 [64]
0.043503992 0.052873522 0.0116497865 0.104344994 -0.08565291 0.026170142 0.029294807 0.020952165
0.079469204 0.11524789 0.08432891 -0.01396599 0.11186223 0.046459243 0.036661003 0.005196443
-0.06826644 0.06983679 0.03256335 0.02622149 -0.035772488 0.10728087 0.09170205 0.11549483
-0.0261592 0.055517256 -0.047023762 0.09303986 0.1052635 0.0337774 0.10757949 -0.095152676
0.031439554 0.068228245 -0.08535636 -0.0010223237 0.062747635 -0.03634738 -0.08420131 0.06813862
-0.09201988 -0.010607822 0.114481926 -0.032964867 -0.005882222 0.024958933 -0.108622335 -0.105691254
-0.044728883 0.029294826 0.12179881 0.04338477 -0.12294488 0.09243323 -0.051958583 0.016783547
0.08653488 0.07073904 0.051244058 0.025102293 -0.10070413 -0.027395345 0.10474733 -0.120694436
00000000: 3e31 323d e891 583d bfde 3e3c d4b2 d53d
00000010: cb6a afbd c462 d63c aafb ef3c e0a3 ab3c
00000020: c0c0 a23d 1607 ec3d a3b4 ac3d 9cd1 64bc
00000030: 0618 e53d 0c4c 3e3d d929 163d ec46 aa3b
00000040: 46cf 8bbd 9706 8f3d 2661 053d 73ce d63c
00000050: 2c86 12bd 13b6 db3d 49ce bb3d 8e88 ec3d
00000060: d24b d6bc 1066 633d fd9b 40bd af8b be3d
00000070: 6494 d73d 2c5a 0a3d a352 dc3d 68df c2bd
00000080: c3c6 003d 40bb 8b3d 51cf aebd 7eff 85ba
00000090: d581 803d fee0 14bd bd71 acbd 438c 8b3d
000000a0: eb74 bcbd 6ecc 2dbc 8075 ea3d 2b06 07bd
000000b0: a8bf c0bb ad76 cc3c 6375 debd a874 d8bd
000000c0: a235 37bd b4fb ef3c a871 f93d 3bb4 313d
000000d0: 86ca fbbd a24d bd3d 86d2 54bd a67d 893c
000000e0: 3339 b13d a1df 903d 4ae5 513d 53a3 cd3c
000000f0: f83d cebd 346c e0bc c585 d63d a52e f7bd

feature_extract.mlps.0.batch_norms.0.weight f4 [64]
0.99497336 1.0010805 1.008837 0.99890953 0.9945478 1.0053054 1.0109093 1.0017204
1.0086812 1.0028036 1.0038292 1.0002048 0.99543387 1.0009644 1.0005367 0.99985814
0.9965036 0.9911779 0.9925364 0.998177 1.0028039 0.9983103 0.99850583 1.0016079
1.0027971 0.9953997 1.0047162 1.0066973 1.0033052 1.0013583 1.0043283 1.0015042
1.0150303 0.99398625 1.0032955 0.99533635 0.9956442 1.004473 1.001608 0.9948052
0.99415845 1.0014813 0.99700975 0.99995506 0.9955878 0.9977108 1.0056328 1.0055399
0.99693406 0.99635285 1.0016847 0.9989204 0.9953102 1.0027071 0.9927964 0.9950116
1.0037266 1.0062251 1.0039805 0.99402994 0.99625725 0.99765456 0.99590296 1.0001022
00000000: 93b6 7e3f 6823 803f 9221 813f 89b8 7f3f
00000010: af9a 7e3f d9ad 803f 7a65 813f 6038 803f
00000020: 771c 813f de5b 803f 7a7d 803f b606 803f
00000030: c1d4 7e3f 9a1f 803f 9611 803f b4f6 7f3f
00000040: dc1a 7f3f d6bd 7d3f de16 7e3f 8788 7f3f
00000050: e15b 803f 4491 7f3f 149e 7f3f b034 803f
00000060: a85b 803f 84d2 7e3f 8a9a 803f 75db 803f
00000070: 4e6c 803f 822c 803f d48d 803f 4a31 803f
00000080: 83ec 813f e275 7e3f fd6b 803f 5dce 7e3f
00000090: 8ae2 7e3f 9292 803f b134 803f 8eab 7e3f
000000a0: 2b81 7e3f 8a30 803f 083c 7f3f 0efd 7f3f
000000b0: d8de 7e3f fa69 7f3f 93b8 803f 88b5 803f
000000c0: 1237 7f3f fb10 7f3f 3437 803f 3fb9 7f3f
000000d0: a6cc 7e3f b558 803f e827 7e3f 15b9 7e3f
000000e0: 1d7a 803f fccb 803f 6f82 803f bf78 7e3f
000000f0: b70a 7f3f 4a66 7f3f 7ff3 7e3f 5903 803f

feature_extract.mlps.0.batch_norms.0.bias f4 [64]
0.0043477053 -0.0021820436 0.0046561016 0.0027563532 0.003614791 0.009692007 0.020524949 -0.00234324
0.0051786914 0.005394824 0.004370517 -0.0033195727 0.00011649436 0.0006964874 -0.00939765 0.0018264232
0.001715341 -0.0018899275 -0.00732711 -0.008667324 -0.00963598 -0.004319995 0.0021385762 0.00780324
0.011884773 -0.0063605807 0.0026085826 0.0041666613 0.0047539873 0.0044111297 -0.001747515 0.0014161608
0.022773081 -0.0047902255 0.009298573 -0.006595331 -0.00069511734 0.012233159 0.012878932 -0.02492239
-0.0054933643 0.0016142343 -0.0030219913 0.002409035 0.0014445303 -0.0011663722 0.006237092 0.0038824424
0.0036288388 -0.010725455 -0.008693901 -0.0051374137 -0.0021193202 0.0074291015 -0.009065217 -0.011213282
-0.0028854203 0.010354639 -0.0009116674 -0.0067171142 -0.0036616162 0.00063394307 -0.00435241 0.0011022978
00000000: 3277 8e3b 9e00 0fbb 3692 983b efa3 343b
00000010: 21e6 6c3b 39cb 1e3c f023 a83c 0b91 19bb
00000020: 03b2 a93b 10c7 b03b 8e36 8f3b 308d 59bb
00000030: 6f4e f438 7a94 363a 9af8 19bc 9864 ef3a
00000040: 4bd5 e03a 72b7 f7ba 4118 f0bb 6401 0ebc
00000050: 3be0 1dbc bf8e 8dbb 5b27 0c3b 52b2 ff3b
00000060: 5ab8 423c 6b6c d0bb c1f4 2a3b 7d88 883b
00000070: 56c7 9b3b 3d8b 903b e00c e5ba 799e b93a
00000080: 9d8e ba3c 53f7 9cbb 0b59 183c a51d d8bb
00000090: 8938 36ba 966d 483c 2802 533c 0a2a ccbc
000000a0: ae01 b4bb b794 d33a 9a0c 46bb e7e0 1d3b
000000b0: 6556 bd3a f5e0 98ba 8560 cc3b 9370 7e3b
000000c0: d0d1 6d3b d2b9 2fbc dd70 0ebc c057 a8bb
000000d0: 4be4 0abb d26f f33b 4786 14bc eab7 37bc
000000e0: 5219 3dbb 81a6 293c f7fc 6eba 3d1b dcbb
000000f0: baf7 6fbb 332f 263a a99e 8ebb fa7a 903a

feature_extract.mlps.0.batch_norms.0.running_mean f4 [64]
-0.040558998 1.5465264 -0.9863128 -1.4807693 2.3560586 -4.591317 -2.7382617 -3.2875931
-0.90192723 -3.0098805 0.084511295 -2.177379 1.4749026 -1.6307299 3.3673203 2.4122875
1.4065816 1.1810321 -2.2733629 0.4632067 0.48799032 -1.7209584 -1.3742377 -0.28135645
0.09481942 -3.4347982 1.0671769 0.5426317 -3.7341077 -3.1481473 -1.0904464 3.2699153
-0.78940254 -0.74344313 3.752078 -2.0490692 0.22161123 -1.8681334 -2.0539706 3.1139174
2.4954193 0.15980756 1.2431837 -0.5440886 1.3877524 4.176225 -0.386258 0.6831078
1.3905274 -1.831748 1.5036216 -1.1595509 -0.06932677 -1.1069216 2.4913507 -1.1679811
-4.0577016 1.261664 -3.0996711 2.8428864 1.2102532 3.0574846 0.3539716 -2.5317864
00000000: 3121 26bd 94f4 c53f ff7e 7cbf d989 bdbf
00000010: aac9 1640 12ec 92c0 ae3f 2fc0 ed67 52c0
00000020: b4e4 66bf e2a1 40c0 4214 ad3d 2d5a 0bc0
00000030: 9cc9 bc3f c2bb d0bf 2d82 5740 eb62 1a40
00000040: de0a b43f 0f2c 973f c77e 11c0 6e29 ed3e
00000050: ded9 f93e 5d48 dcbf 05e7 afbf f40d 90be
00000060: af30 c23d bcd3 5bc0 4199 883f e9e9 0a3f
00000070: 9ffb 6ec0 3f7b 49c0 bf93 8bbf 4b46 5140
00000080: 4916 4abf 4a52 3ebf 0c22 7040 f323 03c0
00000090: 0eee 623e ff1e efbf 4174 03c0 6c4a 4740
000000a0: f3b4 1f40 98a4 233e a520 9f3f 6449 0bbf
000000b0: dfa1 b13f a3a3 8540 9cc3 c5be 27e0 2e3f
000000c0: cdfc b13f b876 eabf ac76 c03f 2a6c 94bf
000000d0: 32fb 8dbd 9baf 8dbf 4a72 1f40 6880 95bf
000000e0: b1d8 81c0 357e a13f 0361 46c0 daf1 3540
000000f0: 94e9 9a3f d4ad 4340 c43b b53e ca08 22c0

feature_extract.mlps.0.batch_norms.0.running_var f4 [64]
0.8357277 2.3743613 0.074696 2.7311313 2.658475 4.8915844 1.803352 0.56092936
1.3922143 1.3737136 1.4526068 0.96741873 0.26625818 1.6681628 3.7949126 4.7447944
2.7315764 1.4145105 2.9526472 0.015625698 0.002721501 1.1453376 0.45837066 0.0026557953
0.936711 3.9377034 1.4495089 2.1382957 3.7074084 2.6508942 0.735848 1.911344
0.037697546 1.2377762 2.747582 1.1550122 0.060623586 0.081842296 2.066654 1.8947686
4.254358 0.02941524 0.24653281 0.037142918 0.04199295 1.378068 1.0142915 0.8774456
2.8230474 2.9054422 0.31867903 1.998545 0.11393376 2.3408675 0.22041066 1.6008452
2.3769002 1.5079294 1.8464874 4.6221633 0.60023004 0.486963 1.1140981 1.7803277
00000000: 40f2 553f 89f5 1740 37fa 983d dbca 2e40
00000010: 7424 2a40 dc87 9c40 3dd4 e63f 1199 0f3f
00000020: 1434 b23f d9d5 af3f 05ef b93f c1a8 773f
00000030: fe52 883e 5c86 d53f d9df 7240 5bd5 9740
00000040: 26d2 2e40 ae0e b53f 2cf8 3c40 7701 803c
00000050: 365b 323b 6c9a 923f 8faf ea3e da0c 2e3b
00000060: 4bcc 6f3f 5503 7c40 8289 b93f d6d9 0840
00000070: 2e46 6d40 40a8 2940 8960 3c3f eca6 f43f
00000080: be68 1a3d 736f 9e3f 62d8 2f40 71d7 933f
00000090: 7050 783d ef9c a73d 0f44 0440 c787 f23f
000000a0: b323 8840 3bf8 f03c 1973 7c3e 2c23 183d
000000b0: cd00 2c3d 8864 b03f 4ed4 813f 46a0 603f
000000c0: cfac 3440 c4f2 3940 e629 a33e 53d0 ff3f
000000d0: 1a56 e93d c6d0 1540 55b3 613e 7fe8 cc3f
000000e0: 221f 1840 d503 c13f b359 ec3f c3e8 9340
000000f0: ada8 193f 3753 f93e c49a 8e3f c7e1 e33f

feature_extract.mlps.1.linears.0.weight f4 [64, 64]
0.1301931 0.07937807 0.090472184 0.124405235 0.011072176 -0.042985268 -0.08536002 0.015311317
0.047383055 -0.031799454 0.0686428 -0.104316935 -0.11065212 -0.052434582 -0.015900366 0.009985124
-0.04861874 -0.044815205 -0.06853641 0.021284517 0.05671775 0.02545248 -0.042118344 -0.035818193
0.07668125 -0.029647788 0.023052543 -0.0014179124 -0.033015665 0.008165775 0.10348599 0.05933267
-0.019476434 0.042161625 -0.072012156 0.09355427 -0.04079632 0.051350977 -0.11476329 0.11880796
0.10342683 0.0653639 0.07486916 0.040340926 0.0806961 0.07784824 -0.049106915 -0.119037844
0.06697636 -0.12646903 0.037814107 -0.07762735 0.044025995 -0.023678444 0.081745625 0.058536064
0.02222894 -0.075928375 0.06855085 -0.0461454 0.033331368 0.07881346 -0.028971525 0.053576674
-0.018033098 -0.11533727 -0.105174236 0.08154969 -0.03432641 0.12242955 -0.09599289 0.113447495
-0.0511848 0.06656152 -0.13240618 0.09893081 0.029561188 -0.07756484 0.04789303 -0.08579927
0.06965994 -0.029204186 -0.029054657 0.04344211 -0.048199628 0.053466775 -0.03232794 -0.05839438
-0.11299199 0.099429734 -0.042999376 0.09284042 0.029414885 -0.07090618 0.08695368 -0.06319386
0.0026404965 0.037031878 -0.11803206 -0.008774468 -0.057904597 -0.0017534968 -0.043731358 -0.116792075
-0.060893044 -0.0033768872 -0.017721627 -0.034278896 0.008130426 0.005120161 -0.05858517 -0.047346137
0.09283037 0.054330666 0.09655207 0.09831926 0.08969998 0.10916982 -0.07003466 0.038054418
-0.060194466 -0.09012336 -0.09926609 -0.100071564 0.051143974 0.039031558 0.04814478 -0.06588703
-0.057919532 0.093032934 -0.067308374 0.08049761 -0.065953866 -0.098985635 -0.0033532279 0.10949381
0.11182204 -0.1242958 0.023613062 -0.12543748 -0.08061169 0.042602893 -0.004488415 -0.023838809
-0.07035731 -0.02458673 0.015465084 -0.012706468 -0.053895283 -0.04516669 0.11204012 0.020448502
-0.026672352 -0.08542127 -0.04629887 -0.022285763 0.11773807 -0.09288325 -0.06301284 -0.07260563
-0.018335762 0.0695294 -0.041800223 -0.03409677 -0.11531153 0.042996824 0.009262985 -0.04961628
0.11936319 0.09661435 0.006967748 -0.04218462 -0.00617064 0.008883561 -0.021213613 0.12559578
0.08317831 -0.05705379 -0.078417175 0.04743336 -0.004852979 -0.0161885 -0.09179564 -0.05779121
0.12769102 0.107116416 -0.034147758 -0.0118220905 0.053878434 0.0100365365 0.034000576 0.08481276
0.05951971 -0.05113344 0.09837896 0.044784393 -0.06360076 -0.02848009 0.04635115 -0.05323952
-0.08002996 -0.08092292 0.08289525 -0.07596792 -0.118836366 0.08263959 -0.0883891 0.11687201
-0.12510554 0.018590657 0.015210147 0.03012815 0.046907622 -0.12001014 0.048324123 -0.008267623
-0.02066054 0.10814915 -0.031914152 -0.03338775 -0.11202825 -0.11341374 -0.0940393 0.027057223
0.038110178 -0.024920987 -0.07654324 -0.0024663997 -0.031407826 0.024579423 0.048465475 -0.04264955
-0.031930987 -0.08728227 0.11548673 0.051565245 -0.11579164 0.056283344 0.060117193 0.060617987
-0.025437046 -0.09182591 0.02941164 -0.02639354 -0.035833742 -0.03604272 -0.0761959 0.040618464
0.07146064 0.0069149495 0.10283816 -0.05705743 -0.093947716 -0.1249097 -0.105201714 -0.10578489
00000000: 5751 053e f890 a23d 7b49 b93d 2cc8 fe3d
00000010: 1268 353c 5211 30bd 3cd1 aebd 51dc 7a3c
00000020: bc14 423d 2540 02bd 9994 8c3d 1ea4 d5bd
00000030: 949d e2bd a5c5 56bd 7c41 82bc a598 233c
00000040: 7224 47bd 2690 37bd d15c 8cbd de5c ae3c
00000050: df50 683d b881 d03c 4984 2cbd 19b6 12bd
00000060: 0f0b 9d3d ebdf f2bc b0d8 bc3c 3fd9 b9ba
00000070: 6f3b 07bd bec9 053c 76f0 d33d d006 733d
00000080: 0b8d 9fbc abb1 2c3d 1c7b 93bd 6299 bf3d
00000090: 0b1a 27bd 6755 523d 0409 ebbd 9651 f33d
000000a0: 72d1 d33d 82dd 853d 0155 993d 873c 253d
000000b0: ff43 a53d e66e 9f3d 5524 49bd 1dca f3bd
000000c0: e72a 893d 1981 01be f7e2 1a3d 17fb 9ebd
000000d0: 9a54 343d 4cf9 c1bc 406a a73d 83c3 6f3d
000000e0: 7719 b63c 5680 9bbd 6364 8c3d f502 3dbd
000000f0: 7986 083d f468 a13d b155 edbc 3773 5b3d
00000100: 26ba 93bc f235 ecbd 9765 d7bd 8603 a73d
00000110: da99 0cbd 58bc fa3d ec97 c4bd 2957 e83d
00000120: 27a7 51bd 6851 883d 7c95 07be 3d9c ca3d
00000130: 4e2a f23c 51da 9ebd 7b2b 443d 87b7 afbd
00000140: dfa9 8e3d 9e3d efbc 0804 eebc 5bf0 313d
00000150: f96c 45bd faff 5a3d 4d6a 04bd f22e 6fbd
00000160: 5868 e7bd d1a1 cb3d 1d20 30bd 1e23 be3d
00000170: 7cf7 f03c 4237 91bd c514 b23d c86b 81bd
00000180: 2e0c 2d3b bdae 173d cbba f1bd c9c2 0fbc
00000190: 5f2d 6dbd 97d5 e5ba a71f 33bd af30 efbd
000001a0: fc6a 79bd c44e 5dbb f22c 91bc 0768 0cbd
000001b0: 7a35 053c 06c7 a73b 01f7 6fbd 06ee 41bd
000001c0: d91d be3d d589 5e3d 17bd c53d 9c5b c93d
000001d0: a0b4 b73d 6d94 df3d 556e 8fbd f3de 1b3d
000001e0: 798e 76bd 9992 b8bd 054c cbbd 52f2 ccbd
000001f0: 587c 513d 8edf 1f3d 7633 453d c7ef 86bd
00000200: 083d 6dbd 0d88 be3d f9d8 89bd eedb a43d
00000210: d212 87bd fbb8 cabd d4c1 5bbb 4a3e e03d
00000220: f402 e53d cc8e febd 2e70 c13c af72 00be
00000230: be17 a5bd 5f80 2e3d 8e13 93bb 9b49 c3bc
00000240: 7e17 90bd 1c6a c9bc 4461 7d3c ca2e 50bc
00000250: 4dc1 5cbd b500 39bd 4a75 e53d 9e83 a73c
00000260: fa7f dabc 59f1 aebd e2a3 3dbd a290 b6bc
00000270: a820 f13d 9339 bebd e00c 81bd 43b2 94bd
00000280: e134 96bc 6e65 8e3d b636 2bbd 0ea9 0bbd
00000290: 7428 ecbd 701d 303d c6c3 173c 713a 4bbd
000002a0: b074 f43d bfdd c53d b551 e43b c8c9 2cbd
000002b0: 1433 cabb 5b8c 113c 2cc8 adbc 2e9c 003e
000002c0: 6459 aa3d 3cb1 69bd 2f99 a0bd 7c49 423d
000002d0: bd05 9fbb bf9d 84bc 5aff bbbd 7ab6 6cbd
000002e0: 6fc1 023e da5f db3d 85de 0bbd 71b1 41bc
000002f0: a2af 5c3d 4970 243c 3044 0b3d 50b2 ad3d
00000300: f0ca 733d 4c71 51bd e87a c93d d76f 373d
00000310: 1e41 82bd 144f e9bc b4da 3d3d af11 5abd
00000320: bfe6 a3bd eaba a5bd fcc4 a93d 1295 9bbd
00000330: 7b60 f3bd f23e a93d 5805 b5bd 985a ef3d
00000340: ab1b 00be 6f4b 983c fb33 793c 4fcf f63c
00000350: 3522 403d e0c7 f5bd 84ef 453d ed74 07bc
00000360: 4b40 a9bc 4d7d dd3d 6ab8 02bd 98c1 08bd
00000370: 116f e5bd 7745 e8bd ad97 c0bd 1ca7 dd3c
00000380: 6b19 1c3d 1927 ccbc b4c2 9cbd 52a3 21bb
00000390: 7ea5 00bd c95a c93c bc83 463d 4bb1 2ebd
000003a0: 11ca 02bd 0cc1 b2bd 4f84 ec3d 1436 533d
000003b0: 2b24 edbd 5d89 663d 723d 763d 914a 783d
000003c0: 5a61 d0bc 390f bcbd aef0 f03c 4437 d8bc
000003d0: 67c6 12bd 88a1 13bd 990c 9cbd 8c5f 263d
000003e0: f559 923d cd96 e23b d09c d23d 0db5 69bd
000003f0: a967 c0bd a8d0 ffbd ff73 d7bd c0a5 d8bd

feature_extract.mlps.1.linears.0.bias f4 [64]
-0.06839618 0.048457768 -0.012908479 0.033244796 -0.051123552 -0.07326553 -0.045766532 0.099333905
0.09005904 0.027694535 0.009809746 -0.015086907 0.093422495 -0.04540857 0.042546913 -0.034123987
0.117928684 0.009675968 0.099802546 0.11613637 -0.05975155 -0.0944988 0.00013025678 0.028211163
0.11935531 0.10565997 -0.0776932 0.07743445 0.020734992 -0.06928029 -0.0904609 0.08661398
0.081327625 -0.11254826 -0.07435356 0.0643855 0.05344632 0.05076135 -0.053723663 0.007431015
0.0006721582 0.0027501085 0.03548753 -0.008601587 0.076166555 -0.12256918 0.10189428 0.10827854
0.0153659675 0.07027306 -0.054449387 0.10868021 0.009332689 -0.113327496 0.059387963 0.10014721
0.036504384 0.0641518 -0.004017385 0.05105137 0.110324934 -0.11750587 -0.07765678 -0.11154049
00000000: 4c13 8cbd a77b 463d 167e 53bc b22b 083d
00000010: ee66 51bd 3d0c 96bd b075 3bbd 936f cb3d
00000020: e070 b83d a6df e23c 0fb9 203c 132f 77bc
00000030: 4b54 bf3d 56fe 39bd ac45 2e3d 98c5 0bbd
00000040: 9884 f13d f487 1e3c 4765 cc3d e8d8 ed3d
00000050: 0bbe 74bd 9688 c1bd 8a95 0839 191b e73c
00000060: 8f70 f43d 4164 d83d 9d1d 9fbd f495 9e3d
00000070: 6edc a93c d3e2 8dbd 9043 b9bd ac62 b13d
00000080: 198f a63d b47f e6bd ae46 98bd 8cdc 833d
00000090: 87ea 5a3d 22eb 4f3d 580d 5cbd df7f f33b
000000a0: c633 303a 2a3b 343b 5f5b 113d aced 0cbc
000000b0: 36fd 9b3d 8d05 fbbd f3ad d03d 24c1 dd3d
000000c0: 8ac1 7b3c 52eb 8f3d 5206 5fbd bb93 de3d
000000d0: 23e8 183c 3f18 e8bd cb40 733d fb19 cd3d
000000e0: 9f85 153d 0562 833d 45a4 83bb 3e1b 513d
000000f0: 0af2 e13d eba6 f0bd 850a 9fbd 576f e4bd

feature_extract.mlps.1.linears.1.weight f4 [64, 64]
-0.030188138 0.084087074 0.07507555 -0.0071518905 -0.06795208 -0.07602964 0.108283795 0.10556825
0.04564934 -0.0056975153 -0.09614933 -0.074807525 -0.10142271 0.06767116 -0.04695356 0.08008297
0.13248344 0.08157658 -0.01196335 0.012059294 0.12291704 -0.092399515 0.045614816 0.11826032
-0.03688171 -0.04529172 -0.11702718 -0.056153618 0.05883775 -0.050966974 0.059124764 -0.022153929
0.08874319 0.020600045 -0.104151 -0.07112707 -0.060734935 0.090570346 -0.10435653 0.042006675
-0.08478398 0.047752324 -0.019126205 -0.06577758 0.10630484 -0.098036304 0.12579937 0.032003608
0.02856175 -0.06520489 0.0010463515 0.08079555 0.07734238 0.13022402 -0.008042106 0.012842787
-0.025473695 -0.116093405 0.05112675 -0.09206028 0.07630102 -0.029029207 -0.00809535 0.065064974
0.0017984345 0.08289769 0.08686794 -0.08669565 -0.117981136 -0.11211475 0.11500462 0.11504962
-0.010359053 0.040532835 0.036572244 -0.1011123 0.04264179 -0.042008143 -0.09680953 0.0045677116
0.07054542 -0.10658008 0.02218694 -0.09151707 -0.044686235 -0.02886892 0.08162483 -0.11461222
-0.050128967 0.06873238 0.04243571 0.02585141 0.09715587 -0.041555412 0.03995571 -0.053812485
-0.016833168 0.0012395151 0.0023342555 -0.099105634 0.054605924 0.06501127 0.04063292 0.055366237
-0.030858584 0.011025711 -0.082376376 0.050478313 -0.044416938 0.10888407 -0.056863677 0.12569034
0.11992353 -0.055316813 0.064779304 0.078499794 -0.11496947 0.08603238 0.06129047 -0.10551785
-0.038811468 -0.10826448 -0.054455165 -0.10118705 -0.09148777 -0.06431038 -0.034002066 -0.031896394
-0.016001267 0.09175237 0.061274726 -0.048450798 -0.10619543 0.11681769 0.11089458 -0.02233514
0.013528795 0.08542047 0.02751756 0.04287878 0.09061202 0.021490121 -0.03273421 -0.12296302
0.041375566 -0.04473153 -0.057590216 0.06165619 -0.124640554 0.08332758 0.01820305 0.10260748
-0.032417342 0.1119523 0.011531448 -0.09896121 -0.0041707745 -0.02247687 0.046672463 0.011924572
0.0026235175 -0.12136174 -0.105066165 -0.07091272 -0.049958795 -0.034541726 -0.061765824 0.07119271
0.036216952 -0.002005509 -0.16399702 0.094876 0.051403794 -0.110456534 0.102426715 0.07320255
0.09092782 0.0056648855 -0.10692348 -0.012121053 -0.10395359 0.09106567 0.072189294 0.035650283
0.0021083488 -0.040322673 -0.053304084 0.059231672 0.10087333 0.03352754 -0.0054540327 0.020034943
-0.007999224 -0.012220344 -0.0019003153 0.021734372 0.019853173 0.11571258 -0.08661555 -0.03921727
0.0306976 0.10516117 0.1060302 0.07894118 -0.0014544259 0.090033546 -0.08230702 0.032244273
-0.039728828 0.08454994 -0.058958054 0.12413221 0.02125973 -0.11486595 0.08199941 -0.003802904
-0.1304551 0.11378574 -0.080184154 -0.010393616 0.12670782 -0.03044492 -0.10561351 0.13704364
-0.09318607 0.120364495 0.09215547 0.09086764 0.07963293 0.009093162 -0.12278594 -0.08650746
0.08582117 0.11303557 0.06382249 -0.10830321 0.06682843 -0.006287392 -0.006505292 -0.108895265
-0.09104187 -0.11610064 0.026826076 0.12683782 -0.061469235 -0.046507873 -0.08513386 -0.104313515
0.1148571 0.07410006 -0.002661561 0.03789 0.08319847 -0.01871494 -0.08462043 0.022964327
00000000: 1d4d f7bc d835 ac3d 36c1 993d 685a eabb
00000010: 762a 8bbd 6eb5 9bbd e5c3 dd3d 2b34 d83d
00000020: cdfa 3a3d 39b2 babb f1e9 c4bd b034 99bd
00000030: b6b6 cfbd 2d97 8a3d 6052 40bd 8a02 a43d
00000040: bda9 073e 9f11 a73d ed01 44bc 5894 453c
00000050: eebb fb3d f53b bdbd 9ad6 3a3d 7732 f23d
00000060: 4711 17bd d083 39bd f2ab efbd 5601 66bd
00000070: daff 703d bfc2 50bd cf2c 723d 287c b5bc
00000080: fdbe b53d 6dc1 a83c 1f4d d5bd 12ab 91bd
00000090: 32c5 78bd f27c b93d e0b8 d5bd 310f 2c3d
000000a0: 39a3 adbd f197 433d 8fae 9cbc 65b6 86bd
000000b0: 5ab6 d93d 42c7 c8bd 8dd1 003e 3716 033d
000000c0: 55fa e93c 248a 85bd bb25 893a 2378 a53d
000000d0: af65 9e3d 7259 053e 0ac3 03bc 8e6a 523c
000000e0: 36ae d0bc 61c2 edbd 486a 513d 1a8a bcbd
000000f0: b643 9c3d a9ce edbc 5ca2 04bc c940 853d
00000100: 73b9 eb3a 44c6 a93d d2e7 b13d 7d8d b1bd
00000110: 18a0 f1bd 6b9c e5bd 8b87 eb3d 239f eb3d
00000120: 04b9 29bc c205 263d c7cc 153d f713 cfbd
00000130: 28a9 2e3d bb10 2cbd 1344 c6bd beac 953b
00000140: 1e7a 903d a846 dabd 63c1 b53c 4d6d bbbd
00000150: ea08 37bd 837e ecbc eb2a a73d d0b9 eabd
00000160: 0854 4dbd 90c3 8c3d 11d1 2d3d 56c6 d33c
00000170: a8f9 c63d 0236 2abd 99a8 233d 7b6a 5cbd
00000180: b6e5 89bc 3a77 a23a 4ffa 183b e5f7 cabd
00000190: 76aa 5f3d a124 853d b46e 263d b5c7 623d
000001a0: 24cb fcbc 2fa5 343c f2b4 a8bd 59c2 4e3d
000001b0: 89ee 35bd 9cfe de3d e3e9 68bd f8b4 003e
000001c0: 789a f53d e293 62bd 03ab 843d 80c4 a03d
000001d0: 1d75 ebbd bf31 b03d b70b 7b3d be19 d8bd
000001e0: c6f8 1ebd c5b9 ddbd 610c 5fbd 283b cfbd
000001f0: f15d bbbd 29b5 83bd c045 0bbd cba5 02bd
00000200: 1715 83bc abe8 bb3d 35fb 7a3d 5874 46bd
00000210: fd7c d9bd 1d3e ef3d b31c e33d 2ff8 b6bc
00000220: e1a7 5d3c edf0 ae3d 826c e13c a9a1 2f3d
00000230: cb92 b93d 0d0c b03c 4f14 06bd 09d4 fbbd
00000240: 6d79 293d 6938 37bd b8e3 6bbd 338b 7c3d
00000250: 8c43 ffbd a6a7 aa3d 901e 953c df23 d23d
00000260: 0cc8 04bd 3f47 e53d 66ee 3c3c 2dac cabd
00000270: feaa 88bb 6a21 b8bc a02b 3f3d 485f 433c
00000280: 52ef 2b3b 818c f8bd ee2c d7bd b03a 91bd
00000290: 98a1 4cbd a07b 0dbd 29fe 7cbd 7ccd 913d
000002a0: 3a58 143d dc6e 03bb d6ee 27be 594e c23d
000002b0: c98c 523d 0937 e2bd 19c5 d13d 38eb 953d
000002c0: 5d38 ba3d 81a0 b93b b3fa dabd 6297 46bc
000002d0: 9fe5 d4bd a380 ba3d fbd7 933d 0806 123d
000002e0: 392c 0a3b 6329 25bd 6255 5abd e99c 723d
000002f0: ad96 ce3d 2c54 093d beb7 b2bb 5220 a43c
00000300: 2d0f 03bc d637 48bc 0014 f9ba 480c b23c
00000310: 1fa3 a23c b8fa ec3d 7e63 b1bd 4aa2 20bd
00000320: 8979 fb3c bd5e d73d 5d26 d93d eaab a13d
00000330: 6fa2 beba 8263 b83d 9590 a8bd 9212 043d
00000340: b2ba 22bd 8528 ad3d 007e 71bd 0739 fe3d
00000350: e328 ae3c d73e ebbd 4fef a73d 243a 79bb
00000360: 0696 05be 8008 e93d 9737 a4bd fc49 2abc
00000370: b2bf 013e a067 f9bc e54b d8bd 2b55 0c3e
00000380: 57d8 bebd a981 f63d 02bc bc3d d018 ba3d
00000390: 9716 a33d 7cfb 143c 3277 fbbd d32a b1bd
000003a0: 02c3 af3d 317f e73d 5eb5 823d 13ce ddbd
000003b0: 58dd 883d 7806 cebb 582a d5bb 7b04 dfbd
000003c0: 2974 babd 2cc6 edbd 5cc2 db3c c6e1 013e
000003d0: 2ac7 7bbd 0a7f 3ebd a95a aebd 53a2 d5bd
000003e0: 333a eb3d c6c1 973d 956d 2ebb 8b32 1b3d
000003f0: f663 aa3d 1350 99bc 7a4d adbd af1f bc3c

feature_extract.mlps.1.linears.1.bias f4 [64]
0.07547041 -0.03504857 -0.08995241 0.041353635 0.022626247 0.03883319 -0.021901477 -0.067551866
0.027180426 0.07741094 0.12027405 -0.09065948 -0.03233804 0.09492768 -0.08075126 0.10127503
0.036259305 0.07084251 -0.042404674 0.10279426 -0.12087127 0.08462164 0.008685973 0.035914775
0.06617445 -0.11738635 0.0017661033 0.00060886133 0.03439591 -0.018993996 0.015924206 -0.006725907
-0.109191835 -0.063641034 0.08650107 -0.0995411 -0.043824326 -0.097934134 -0.005584703 0.052409325
-0.011892207 0.064200506 -0.08636103 -0.08154494 -0.10161732 0.055557746 0.019543769 -0.07927965
-0.117255256 -0.039444204 -0.0056597083 0.08392436 -0.0809828 0.081106134 0.04787816 -0.110590026
0.04853481 0.08169762 -0.072150245 0.093686685 0.11393635 -0.08889631 0.08731061 0.080914535
00000000: 3b90 9a3d 178f 0fbd f838 b8bd 6e62 293d
00000010: ae5a b93c 8d0f 1f3d ba6a b3bc a258 8abd
00000020: 7ca9 de3c a089 9e3d 3e52 f63d adab b9bd
00000030: e574 04bd 7269 c23d eb60 a5bd 4869 cf3d
00000040: a384 143d e115 913d 86b0 2dbd cc85 d23d
00000050: 5b8b f7bd 1c4e ad3d 9c4f 0e3c 5f1b 133d
00000060: 7886 873d 4168 f0bd 987c e73a fe9b 1f3a
00000070: bae2 0c3d 4c99 9bbc 7b73 823c ff64 dcbb
00000080: f89f dfbd 3b56 82bd 7927 b13d 34dc cbbd
00000090: 2381 33bd b191 c8bd e2ff b6bb 29ab 563d
000000a0: 88d7 42bc 8e7b 833d 0dde b0bd 0901 a7bd
000000b0: be1c d0bd 8590 633d 411a a03c 5e5d a2bd
000000c0: 8623 f0bd 3f90 21bd 1375 b9bb 89e0 ab3d
000000d0: 4fda a5bd f91a a63d e41b 443d 067d e2bd
000000e0: 70cc 463d 1551 a73d 82c3 93bd cede bf3d
000000f0: 7657 e93d 450f b6bd e8cf b23d 85b6 a53d

feature_extract.mlps.1.batch_norms.0.weight f4 [64]
0.9981218 1.0018922 1.0028406 0.9956406 0.9963921 0.99875975 0.9965375 1.0097306
1.0085202 1.0072049 0.99326813 1.0105561 0.99998343 0.99043816 0.9921019 0.9862148
1.0085686 0.97845626 0.98792195 1.0055437 1.0098691 0.98919445 0.99192137 1.0063139
1.0043964 1.0046854 1.0117652 1.0079188 1.00817 1.0023485 1.0038146 1.0054798
1.000424 0.99535346 1.0016826 0.99384147 0.9844042 0.9947782 0.9998715 0.98593724
1.0117419 0.993067 1.003105 0.98403424 0.994573 1.0091923 1.0109404 1.0009432
0.9975751 0.9868536 1.0042392 1.007519 1.0145822 1.0048919 0.98899275 0.9882001
0.9881978 0.9947676 0.99115205 1.014893 0.985033 0.998846 1.0037417 1.0071658
00000000: e984 7f3f 013e 803f 155d 803f 4de2 7e3f
00000010: 8d13 7f3f b8ae 7f3f 151d 7f3f da3e 813f
00000020: 3117 813f 17ec 803f d246 7e3f e759 813f
00000030: eafe 7f3f 5b8d 7d3f 64fa 7d3f 9378 7c3f
00000040: c718 813f 1c7c 7a3f 74e8 7c3f a8b5 803f
00000050: 6443 813f d93b 7d3f 8fee 7d3f e5ce 803f
00000060: 1090 803f 8899 803f 8681 813f 7c03 813f
00000070: b70b 813f f54c 803f ff7c 803f 90b3 803f
00000080: e50d 803f 7ccf 7e3f 2337 803f 656c 7e3f
00000090: ea01 7c3f c9a9 7e3f 94f7 7f3f 6266 7c3f
000000a0: c280 813f a439 7e3f bf65 803f abe9 7b3f
000000b0: 569c 7e3f 372d 813f 7f66 813f e81e 803f
000000c0: 1561 7f3f 70a2 7c3f e98a 803f 62f6 803f
000000d0: d4dd 813f 4ca0 803f a12e 7d3f affa 7c3f
000000e0: 88fa 7c3f 17a9 7e3f 24bc 7d3f 04e8 813f
000000f0: 1f2b 7c3f 5fb4 7f3f 9c7a 803f cfea 803f

feature_extract.mlps.1.batch_norms.0.bias f4 [64]
-0.0073158094 0.0034309435 0.0038964646 -0.0021257047 -0.006678899 -0.001728103 0.008983724 0.001763314
0.015484263 0.0100706145 -0.012760373 0.015848368 -0.0027988655 -0.001873043 -0.0144536095 -0.0077074156
0.004241395 -0.011716205 -0.0058084507 -0.00031940461 0.0072163297 -0.010745291 0.0014061651 0.011161963
-0.00769605 -0.0032793575 0.00950351 0.010376438 0.0046062088 0.00023007188 0.006495001 0.014429848
0.004377562 -0.0043677823 0.0063709207 0.008491186 -0.004822539 0.0059777373 -0.0016188483 -0.0066730413
0.0029073043 -0.0013735893 0.0070490544 -0.008318497 0.0019612852 0.022708278 0.0050944453 0.00804764
0.021044148 -0.00252678 0.009616795 0.014653879 0.006537712 0.0059921257 -0.00041954243 -0.0054305084
-0.014458306 0.0024144333 -0.017441759 0.00071855786 0.0015191322 0.0010630103 -0.0050760848 0.01677339
00000000: 75b9 efbb aed9 603b d45b 7f3b 684f 0bbb
00000010: aada dabb 8481 e2ba 7830 133c 001f e73a
00000020: b5b1 7d3c 38ff 243c e210 51bc 70d4 813c
00000030: 2c6d 37bb e580 f5ba d5ce 6cbc 7d8e fcbb
00000040: 66fb 8a3b 53f5 3fbc d154 bebb c375 a7b9
00000050: f676 ec3b 040d 30bc 124f b83a abe0 363c
00000060: 262f fcbb 7dea 56bb 9cb4 1b3c ef01 2a3c
00000070: aeef 963b 733f 7139 04d4 d43b 2b6b 6c3c
00000080: a771 8f3b 9d1f 8fbb 28c3 d03b 9e1e 0b3c
00000090: 6406 9ebb e5e0 c33b 892f d4ba 87a9 dabb
000000a0: 7988 3e3b 020a b4ba c1fb e63b 4e4a 08bc
000000b0: e888 003b b606 ba3c 4eef a63b 40da 033c
000000c0: c764 ac3c 5598 25bb c38f 1d3c d316 703c
000000d0: 4e3a d63b 9859 c43b 08f6 dbb9 68f2 b1bb
000000e0: 88e2 6cbc 783b 1e3b 05e2 8ebc 9a5d 3c3a
000000f0: 9e1d c73a b554 8b3a 4955 a6bb 5968 893c

feature_extract.mlps.1.batch_norms.0.running_mean f4 [64]
0.8259972 -0.4862239 -0.16439633 -0.9650306 -0.26018885 -0.040127587 -0.051104035 -0.05772866
0.84203196 -0.45521492 -0.43919578 -0.59310496 0.5640824 -0.4167265 0.68190455 0.7578722
0.7302633 -0.46286237 0.9700674 -0.18647687 0.3591147 -0.19322626 -0.6133275 -1.1439075
0.016108377 -0.44760728 -0.5261896 0.5211441 -0.5255267 0.18335682 -0.3520369 -0.31682217
-1.0832573 -0.77191377 -0.43503928 0.20027922 -0.16428444 -0.81201774 0.73887694 -0.6852957
0.81990373 0.8978488 -0.14140406 0.12879227 -0.6034282 -0.4441849 -0.63081455 -0.054330375
-0.070627175 0.66679096 -0.9002692 0.026192283 0.8783714 -0.45949256 -0.0040991395 0.31315205
0.8461454 -0.44113797 1.1862518 -1.3685206 0.44824925 0.110752195 0.7121648 0.060318638
00000000: 8d74 533f 57f2 f8be 8357 28be 3f0c 77bf
00000010: 7937 85be d35c 24bd 7752 51bd e374 6cbd
00000020: 688f 573f ee11 e9be 45de e0be bad5 17bf
00000030: b467 103f 2d5d d5be 4c91 2e3f ea03 423f
00000040: 89f2 3a3f 4cfc ecbe 5656 783f cbf3 3ebe
00000050: e2dd b73e 1bdd 45be 0803 1dbf 906b 92bf
00000060: b7f5 833c c82c e5be 5db4 06bf b369 053f
00000070: eb88 06bf e4c1 3b3e 2e3e b4be 8436 a2be
00000080: 2da8 8abf 249c 45bf 78bd debe ff15 4d3e
00000090: 2e3a 28be 65e0 4fbf 0a27 3d3f 8a6f 2fbf
000000a0: 36e5 513f 6bd9 653f 3acc 10be 1fe2 033e
000000b0: 457a 1abf 346c e3be 107d 21bf 8789 5ebd
000000c0: fba4 90bd d0b2 2a3f 0b78 66bf 3391 d63c
000000d0: f3dc 603f 9c42 ebbe 1352 86bb 7755 a03e
000000e0: fc9c 583f d6dc e1be 19d7 973f af2b afbf
000000f0: ed80 e53e 0cd2 e23d 6f50 363f ad10 773d

feature_extract.mlps.1.batch_norms.0.running_var f4 [64]
0.17484498 0.3319916 0.6227199 0.44512373 1.0803252 0.028158855 0.23473735 0.35787255
0.61589843 0.7682079 0.3800943 0.3376142 0.39648157 1.8688974 0.7189514 0.7158576
0.37211043 0.51748747 0.8184042 0.3760271 0.6190073 0.22606607 0.83169925 1.464808
0.67532426 0.97631466 0.55425155 0.24048524 1.3335059 0.9059798 0.46430078 0.13116643
0.33783153 0.42523384 0.28013816 1.0153476 0.30802792 0.55590105 0.2885063 0.6349408
0.29349637 0.50071394 0.21389057 0.11674011 0.28624204 1.9612297 0.096765794 0.38806653
2.4219036 0.9270666 0.73016894 0.45396078 0.25076288 0.70852107 0.85721874 0.18651313
0.614851 0.3109632 0.69263434 0.5702027 0.6644658 0.25751525 0.814071 1.6305795
00000000: 900a 333e cefa a93e 926a 1f3f 42e7 e33e
00000010: 1948 8a3f 66ad e63c fd5e 703e 123b b73e
00000020: 85ab 1d3f 46a9 443f b89b c23e c5db ac3e
00000030: a2ff ca3e 0838 ef3f 330d 383f 7242 373f
00000040: 4285 be3e 0f7a 043f f082 513f a086 c03e
00000050: 4377 1e3f dd7d 673e 3eea 543f d47e bb3f
00000060: 0de2 2c3f c2ef 793f 6ee3 0d3f c341 763e
00000070: 52b0 aa3f 4bee 673f d5b8 ed3e 7e50 063e
00000080: 41f8 ac3e 40b8 d93e 456e 8f3e e9f6 813f
00000090: d6b5 9d3e 884f 0e3f 19b7 933e 7b8b 223f
000000a0: 2845 963e ca2e 003f 2106 5b3e 7015 ef3d
000000b0: 518e 923e 9309 fb3f 252d c63d a8b0 c63e
000000c0: 7800 1b40 3d54 6d3f 5aec 3a3f 8c6d e83e
000000d0: fe63 803e a361 353f b072 5b3f 4cfd 3e3e
000000e0: e066 1d3f 9236 9f3e 7c50 313f cef8 113f
000000f0: 6e1a 2a3f 0ad9 833e f566 503f d4b6 d03f

feature_extract.batch_norms.0.weight f4 [64]
1.0078638 0.9997177 0.99948573 0.9995864 0.9996443 0.9978346 1.0052705 0.9972258
0.9887359 0.98994184 1.0004594 1.011333 1.0032209 0.99220926 1.0057708 1.0139008
1.0022973 0.998983 0.99764305 0.99711186 1.0044682 1.0049556 0.99765855 1.0064858
0.99768215 0.98768425 1.000182 0.99724877 1.003437 0.9958734 0.9934113 1.0025735
0.9966924 1.0053647 0.9988486 0.998525 1.001704 1.007713 0.9917833 1.0006058
1.0134394 0.987127 1.0002605 1.0030144 0.9944814 1.0061328 0.9920662 1.0020269
1.0077324 1.0007861 1.0045195 1.0066136 1.002451 1.0010827 1.0047451 0.9962795
1.0019526 1.0082473 1.004197 1.006333 1.0013326 0.99673575 0.99657404 0.9976102
00000000: ae01 813f 80ed 7f3f 4cde 7f3f e5e4 7f3f
00000010: b0e8 7f3f 1772 7f3f b4ac 803f 314a 7f3f
00000020: cc1d 7d3f d46c 7d3f 0e0f 803f 5c73 813f
00000030: 8b69 803f 6d01 7e3f 19bd 803f 80c7 813f
00000040: 474b 803f 5abd 7f3f 8965 7f3f b942 7f3f
00000050: 6a92 803f 63a2 803f 8d66 7f3f 87d4 803f
00000060: 1968 7f3f e0d8 7c3f f705 803f b24b 7f3f
00000070: a070 803f 8ff1 7e3f 3450 7e3f 5454 803f
00000080: 3c27 7f3f caaf 803f 8bb4 7f3f 569f 7f3f
00000090: d637 803f bdfc 803f 83e5 7d3f da13 803f
000000a0: 62b8 813f 5bb4 7c3f 8908 803f c762 803f
000000b0: 5596 7e3f f6c8 803f 0df8 7d3f 6b42 803f
000000c0: 60fd 803f c219 803f 1894 803f b7d8 803f
000000d0: 5050 803f 7a23 803f 7d9b 803f 2c0c 7f3f
000000e0: fc3f 803f 3f0e 813f 8789 803f 85cf 803f
000000f0: ab2b 803f 132a 7f3f 7a1f 7f3f 6263 7f3f

feature_extract.batch_norms.0.bias f4 [64]
0.022269798 -0.0030607989 0.00735071 0.003914782 -0.00018962359 -0.0064982404 0.0056942576 -0.0041409624
-0.00836944 -0.005933588 0.0027239325 0.011352165 -0.0015890539 -0.013221722 0.0025239275 0.011396529
-0.008511803 -0.0023189443 -0.0016927166 0.004232536 0.011645688 0.00018072317 -0.0026448967 0.0011994776
0.00045334804 -0.00903783 0.0033614426 -0.0025590872 -0.0002875708 0.0023241225 -0.009532921 -0.0013090741
0.00040818928 0.008301428 -0.007987503 -0.005083666 0.014141248 0.004799393 -0.006027141 0.0049968096
0.017647505 -0.009314185 0.000414483 -0.0039500953 -0.004492324 -0.0019134516 -0.007120103 -0.003024324
0.012847035 0.0051543517 0.0066920295 5.650781e-05 0.006934914 0.0006462527 0.0023708215 0.0027755273
-0.0012223776 0.0063160714 0.0002613292 0.010587846 -0.0012959738 -0.0037520907 -0.002908533 -0.01884094
00000000: 276f b63c af97 48bb 3ade f03b 9247 803b
00000010: b2d5 46b9 31ef d4bb e596 ba3b e9b0 87bb
00000020: fa1f 09bc 8b6e c2bb 0184 323b 6efe 393c
00000030: cd47 d0ba ec9f 58bc 7a68 253b 82b8 3a3c
00000040: 1775 0bbc 6ef9 17bb 25de ddba 16b1 8a3b
00000050: 8ecd 3e3c 8280 3d39 0156 2dbb ca37 9d3a
00000060: 58af ed39 6813 14bc a64b 5c3b 5cb6 27bb
00000070: 19c5 96b9 4e50 183b f82f 1cbc 3d95 abba
00000080: 3d02 d639 b602 083c 04de 02bc e294 a6bb
00000090: b1b0 673c 3a44 9d3b 537f c5bb 47bc a33b
000000a0: 8091 903c 869a 18bc f74e d939 cd6f 81bb
000000b0: 5834 93bb c8cc faba c14f e9bb bd33 46bb
000000c0: 5f7c 523c d6e5 a83b d048 db3b cd02 6d38
000000d0: 463e e33b 4969 293a c95f 1b3b 9fe5 353b
000000e0: 3038 a0ba 0cf7 ce3b 0303 8939 a578 2d3c
000000f0: aadd a9ba a3e5 75bb 169d 3ebb 5158 9abc

feature_extract.batch_norms.0.running_mean f4 [64]
-0.013492699 0.041767422 -0.16225824 0.09254104 -0.087108515 0.033434123 -0.04073302 -0.0948619
-0.17379075 0.22886246 -0.02636493 -0.098335564 0.14452691 0.14133385 0.16251305 -0.03852642
0.06229082 0.009225359 -0.1737216 0.3778235 -0.07113384 0.51707697 0.36762318 0.33220547
0.10752824 0.73643416 -0.12511928 0.10006214 0.062186863 -0.40734634 0.37180582 0.118868135
-0.23543178 -0.27653608 0.056340575 0.08562999 -0.051454663 -0.26059082 0.39784664 0.09903504
0.026005449 -0.25556117 -0.028385608 -0.096714035 0.13284028 0.2621892 0.17672876 -0.2210054
-0.0109462105 0.21101023 0.2810448 -0.01862718 -0.0608049 0.15670732 0.16854687 0.123045266
0.0695723 -0.07810731 0.43739358 0.1874755 -0.50545377 -0.076043524 -0.26253706 0.2615096
00000000: 7b10 5dbc 5114 2b3d 0627 26be 2886 bd3d
00000010: f365 b2bd 38f2 083d abd7 26bd f546 c2bd
00000020: 34f6 31be ec5a 6a3e 44fb d7bc 2864 c9bd
00000030: ddfe 133e d2b9 103e d269 263e e1cd 1dbd
00000040: a924 7f3d f625 173c 13e4 31be 1572 c13e
00000050: 9eae 91bd 285f 043f 1b39 bc3e d616 aa3e
00000060: c437 dc3d f386 3c3f 451f 00be 61ed cc3d
00000070: a7b7 7e3d b38f d0be 555d be3e 2371 f33d
00000080: 0715 71be 2396 8dbe 60c5 663d c75e af3d
00000090: 20c2 52bd 296c 85be 8eb2 cb3e e2d2 ca3d
000000a0: 6109 d53c ead8 82be ef88 e8bc 0212 c6bd
000000b0: 4807 083e aa3d 863e 62f8 343e 3d4f 62be
000000c0: bc57 33bc 1113 583e 1be5 8f3e 0798 98bc
000000d0: 8f0e 79bd e277 203e 8d97 2c3e 28ff fb3d
000000e0: ec7b 8e3d baf6 9fbd 0df2 df3e 94f9 3f3e
000000f0: 6b65 01bf b5bc 9bbd 426b 86be 96e4 853e

feature_extract.batch_norms.0.running_var f4 [64]
0.033198617 0.009476928 0.13244419 0.116610095 0.024690887 0.068496 0.05053663 0.3024671
0.19249594 0.029444285 0.2227069 0.018699847 0.3583208 0.054433346 0.019397654 0.024111781
0.020171238 0.13919641 0.1994444 0.2155273 0.0038469988 0.19247581 0.031168172 0.021322452
0.01116048 0.1547095 0.06550903 0.04458298 0.030628528 0.10809778 0.07543616 0.105809726
0.051039957 0.25454202 0.019168392 0.112537734 0.012208476 0.017590808 0.15047668 0.119413435
0.054756142 0.040950235 0.0080833845 0.045451015 0.011157218 0.031860165 0.12453876 0.030960623
0.37911943 0.09089503 0.20725934 0.035170943 0.077234015 0.046428762 0.067495756 0.32397464
0.02085485 0.17565332 0.09958775 0.09233854 0.03824998 0.14071186 0.5035011 0.084639534
00000000: 46fb 073d 1e45 1b3c 739f 073e 46d1 ee3d
00000010: 8b44 ca3c a147 8c3d 7fff 4e3d f8dc 9a3e
00000020: a81d 453e 2435 f13c 470d 643e 6c30 993c
00000030: d375 b73e 80f5 5e3d d4e7 9e3c 1286 c53c
00000040: 273e a53c 8189 0e3e 273b 4c3e 30b3 5c3e
00000050: ee1d 7c3b 6118 453e 6554 ff3c 6cac ae3c
00000060: 72da 363c 2b6c 1e3e 9929 863d a59c 363d
00000070: aee8 fa3c 5e62 dd3d 467e 9a3d c5b2 d83d
00000080: 460f 513d 5553 823e 0807 9d3c 2f7a e63d
00000090: 0f06 483c 991a 903c 8f16 1a3e 088f f43d
000000a0: fa47 603d 6fbb 273d 2c70 043c d82a 3a3d
000000b0: c4cc 363c ce7f 023d 2d0e ff3d 22a1 fd3c
000000c0: f11b c23e 2c27 ba3d cb3b 543e 680f 103d
000000d0: de2c 9e3d 162c 3e3d 373b 8a3d 01e0 a53e
000000e0: cad7 aa3c 77de 333e aaf4 cb3d fd1b bd3d
000000f0: 03ac 1c3d c516 103e 73e5 003f 7e57 ad3d

feature_extract.batch_norms.1.weight f4 [64]
1.0469487 1.0425756 1.065476 1.0262228 1.0613393 1.0480583 1.0396878 1.0598958
1.051992 1.0294119 1.027039 1.027779 1.0381272 1.0389683 1.037332 1.033054
1.0080622 1.0429825 1.0550774 1.0320268 1.0289725 1.034355 1.0201008 1.0464928
1.0276215 1.0420357 1.0345501 1.0485001 1.0245539 1.0363287 1.0425113 1.046156
1.0294574 1.0244236 1.0521259 1.0238752 1.0289407 1.031526 1.050776 1.0423847
1.0266842 1.0478542 1.0196881 1.0392871 1.0547101 1.0316242 1.0477538 1.0267718
1.010419 1.0388516 1.0563799 1.0392656 1.0448962 1.0292903 1.0243702 1.0217704
1.0477971 1.0532387 1.0322843 1.0459692 1.0579796 1.0690521 1.0391003 1.0382344
00000000: 6a02 863f 1e73 853f 8461 883f 455b 833f
00000010: f7d9 873f c626 863f 7d14 853f aaaa 873f
00000020: ada7 863f c5c3 833f 0476 833f 438e 833f
00000030: 5ae1 843f eafc 843f 4cc7 843f 1d3b 843f
00000040: 2f08 813f 7380 853f c70c 873f 7419 843f
00000050: 5fb5 833f bf65 843f aa92 823f 7af3 853f
00000060: 1a89 833f 6d61 853f 236c 843f 4035 863f
00000070: 9524 833f 6ba6 843f 0371 853f 71e8 853f
00000080: 43c5 833f 5020 833f 10ac 863f 580e 833f
00000090: 54b4 833f 0b09 843f d47f 863f dd6c 853f
000000a0: 636a 833f 1620 863f 2485 823f 5c07 853f
000000b0: be00 873f 430c 843f cc1c 863f 426d 833f
000000c0: 6955 813f 17f9 843f 7537 873f a806 853f
000000d0: 29bf 853f c9bf 833f 901e 833f 5fc9 823f
000000e0: 371e 863f 87d0 863f e421 843f 52e2 853f
000000f0: e06b 873f b3d6 883f 3d01 853f dde4 843f

feature_extract.batch_norms.1.bias f4 [64]
0.045692388 0.035636425 0.04670675 0.034220867 0.05242993 0.026945353 0.036152452 0.040610496
0.041405268 0.0318441 0.026389651 0.033041995 0.044761576 0.03395504 0.03299407 0.029161971
0.0019676518 0.040086802 0.049472407 0.02852248 0.027409052 0.025089484 0.021240782 0.03655327
0.02139678 0.031028988 0.038239945 0.046193648 0.021052228 0.036482062 0.039112918 0.047439083
0.024855327 0.022630762 0.045113288 0.010740451 0.028382445 0.034166165 0.028279606 0.033962373
0.026854431 0.036996245 0.018662075 0.023831798 0.042381514 0.026671119 0.040882565 0.027543409
0.0073305727 0.037843145 0.040035814 0.028008448 0.040636428 0.028009823 0.031972073 0.019039722
0.041389953 0.045712754 0.02465882 0.033257294 0.0439774 0.049904652 0.025233272 0.029666241
00000000: f127 3b3d 80f7 113d 944f 3f3d 2e2b 0c3d
00000010: c4c0 563d 80bc dc3c 9814 143d 3157 263d
00000020: 9298 293d f66e 023d 1c2f d83c 0b57 073d
00000030: ea57 373d 7114 0b3d ca24 073d 16e5 ee3c
00000040: b8f3 003b 0f32 243d 94a3 4a3d faa7 e93c
00000050: f388 e03c 7688 cd3c 2601 ae3c e2b8 153d
00000060: 4d48 af3c 8130 fe3c 7da1 1c3d 8d35 3d3d
00000070: b975 ac3c 376e 153d de34 203d 7c4f 423d
00000080: 669d cb3c 2664 b93c b6c8 383d b7f8 2f3c
00000090: 4d82 e83c d2f1 0b3d a2aa e73c 211c 0b3d
000000a0: d3fd db3c 6089 173d 35e1 983c e73a c33c
000000b0: 3d98 2d3d 647d da3c 7a74 273d b7a2 e13c
000000c0: 4d35 f03b 6a01 1b3d 98fc 233d f971 e53c
000000d0: 6272 263d db74 e53c 26f5 023d 31f9 9b3c
000000e0: 8388 293d 4c3d 3b3d 4b01 ca3c cd38 083d
000000f0: a521 343d d268 4c3d 02b6 ce3c 9e06 f33c
