SavedNetwork/20_20_1_99.pth (torch_old, 86548 bytes, 30 tensors)

feature_extract.mlps.0.linears.0.weight f4 [64, 2]
000000 98 7b 9b be 13 7c d5 3e 0b 42 fe 3e bd b3 76 be
       -0.30367732 0.41696224 0.49659762 -0.24092002
000010 d5 d1 9e 3d bd e0 d6 be 63 16 08 bf 0e f9 b3 3e
       0.07754866 -0.41968337 -0.5315916 0.3515095
000020 4a 8b 04 3f 62 07 41 bc 5c 45 34 bf 12 84 41 be
       0.5177504 -0.011781545 -0.70418334 -0.18898037
000030 48 b4 d8 be d0 6d 44 be 7f 42 57 be 5f 8b 14 bf
       -0.42325044 -0.19182515 -0.2102146 -0.58025163
000040 7b f6 c5 be 8f 30 91 3e 61 60 b8 be b8 c2 a8 be
       -0.38664612 0.2835736 -0.3601103 -0.3296106
000050 0c 4e cd be 00 93 0c 3f 7a 8a 98 be 3d fb 6c be
       -0.40098608 0.54911804 -0.2979315 -0.23142715
000060 ae 4b 0a be 19 6d 2b 3f 36 b8 cf be e4 ac 82 3e
       -0.13505432 0.66963345 -0.4057023 0.2552253
000070 ec 0c 1c 3f 16 24 15 3e 47 e5 34 3f 30 64 af be
       0.6095722 0.14564547 0.7066235 -0.34256124
000080 f8 b0 09 3f 74 42 1f bf b0 72 c9 3e cc 4e 05 bf
       0.5378566 -0.62210774 0.39345312 -0.5207336
000090 71 16 0c bf 34 b7 09 3e 83 75 fd bb ac 97 65 3e
       -0.5472174 0.13448793 -0.0077349558 0.2242114
0000a0 da 71 b2 3c a2 b1 f7 3b 49 fa ae be 37 ea 6a 3e
       0.021782804 0.0075590173 -0.34175327 0.22940908
0000b0 45 c2 62 be d1 6e 0a 3e 48 eb a7 3c 5c 15 30 bd
       -0.2214442 0.13518836 0.020497933 -0.04298912
0000c0 87 66 a1 be 0b ef 00 3f e2 6c 21 bf b4 c4 99 bc
       -0.31523535 0.5036475 -0.63056767 -0.018770553
0000d0 a9 84 c3 3e 90 b6 35 be 42 c7 f0 3e bc 80 fa be
       0.3818715 -0.17745423 0.47027022 -0.48926342
0000e0 07 58 1b bf 6a 44 a7 be 9f 88 05 bf 9b 1c ac bc
       -0.60681194 -0.32669383 -0.5216159 -0.021009734
0000f0 88 e5 91 be 1d de 66 3e 8a 18 de 3e fd 37 03 3e
       -0.2849543 0.22545667 0.43378097 0.12814327
000100 3a fa b5 bc 69 d8 86 be 1b 9d b3 be 10 65 10 3f
       -0.022214044 -0.26336983 -0.350808 0.5640421
000110 e4 b6 05 3f ae ee b1 3e e8 5b aa be fc 98 7c be
       0.52232194 0.3475241 -0.33273244 -0.24667734
000120 f3 c0 97 3d 91 8e 61 3d c6 89 33 bd 52 ff dd be
       0.07409849 0.055067603 -0.043832563 -0.43358856
000130 f3 ab f4 be 22 9f b9 3e 8c 88 cc 3e 71 79 10 3f
       -0.47787437 0.3625422 0.39947927 0.56435305
000140 13 1a 2a 3f a3 28 23 be b6 eb 6c bd 42 db ea 3c
       0.66446036 -0.1593347 -0.05784198 0.028669003
000150 2d 65 18 3e 20 2c 0d 3e 79 b3 c9 3c e1 c9 ad be
       0.14882345 0.13786364 0.024621712 -0.33943084
000160 2d 60 ad bc 90 1c bd 3e c5 fc a7 3e 95 7c 22 3f
       -0.021164024 0.36935854 0.32810035 0.6347135
000170 14 ad a9 3e d0 4b 29 bf a2 0d 99 3e 2b 09 0c bf
       0.3313986 -0.66131306 0.29893214 -0.5470149
000180 5d ed 0d 3f 1f 02 0e bf 21 f4 0d bf b2 0f 28 3e
       0.5544031 -0.55471987 -0.55450636 0.16412237
000190 1a c4 0e 3e 31 8a 01 3f 82 de f0 be a5 37 0b 3f
       0.13941994 0.5060149 -0.4704476 0.5438178
0001a0 f1 8c f6 3d 25 4f fe bd 39 19 01 bf ab 63 ad 3e
       0.12038601 -0.12417439 -0.5042911 0.33865103
0001b0 ae 7f bb 3d 58 0d 0f 3f 33 06 d0 be f9 27 1a 3f
       0.09155212 0.55879736 -0.4062973 0.60217243
0001c0 74 fc f4 be bf 1c d3 be 9b 56 c9 3e 8f 47 bb bd
       -0.47848856 -0.4123287 0.39323887 -0.09144508
0001d0 24 38 dc be ec d8 54 bd 6e 5f 2f 3f fb a8 1d bd
       -0.43011582 -0.051964685 0.6850499 -0.03849123
0001e0 0d 8c 80 3e 49 0e 21 be 81 eb 1d 3e b6 4f 32 3f
       0.2510685 -0.15728106 0.15421869 0.6965288
0001f0 62 ef aa 3e 1f 43 00 bf de 3c d6 be 77 85 d8 bd
       0.3338576 -0.5010242 -0.41843313 -0.105723314

feature_extract.mlps.0.linears.0.bias f4 [64]
000000 d8 4d a4 3e 4b 37 c7 be 55 91 3f bd 54 2f b1 3e
       0.3209064 -0.38909373 -0.04676946 0.3460642
000010 c6 42 b0 be fe ed c2 be 85 2f 84 3c e5 55 14 bf
       -0.34425944 -0.380722 0.01613594 -0.57943565
000020 7b 70 96 3e 0f e0 46 be 5e bb 0f 3f 1d ba 54 3d
       0.2938269 -0.19421409 0.56145275 0.051935304
000030 b6 ec ad 3e d2 30 fc bd e9 87 83 be f3 4e 9c be
       0.3396966 -0.12313999 -0.2568963 -0.30528983
000040 85 3a b0 3e 39 f1 24 3f 1a 5b 83 3e df 67 2a be
       0.34419647 0.64430577 0.25655442 -0.16641186
000050 01 bc be 3e c6 ea 08 bf 24 72 1c bf 7a f4 6d be
       0.3725281 -0.53483236 -0.61111665 -0.23237792
000060 84 69 a1 3e 62 0c 9c bd 7f d7 f9 be 9c 2a 16 bf
       0.31525815 -0.07619549 -0.48797223 -0.58658767
000070 b2 31 b5 3e fb 24 ba be 07 b0 91 be 4b bb 21 3f
       0.35389477 -0.3635634 -0.2845461 0.6317641
000080 59 ce d1 3d af d8 d3 be b7 a1 5c 3d e5 17 c8 3e
       0.10244436 -0.41376254 0.05386516 0.3908073
000090 ad d0 a9 be 17 c8 e0 be 76 23 29 bf d3 44 19 bf
       -0.3316702 -0.43902656 -0.66069734 -0.5987064
0000a0 1e 7c 06 bf b2 a5 bb 3e 2d 44 83 3d a5 b9 5f 3e
       -0.5253314 0.36649853 0.06409488 0.21848162
0000b0 ea 88 cf 3e 79 8b 23 3f 24 78 41 be 5f c1 21 3f
       0.40534145 0.63884693 -0.18893486 0.63185686
0000c0 81 35 e6 3d 94 23 11 3f 75 9f 28 bf de 41 9f be
       0.11240674 0.5669491 -0.6586831 -0.3110494
0000d0 9c e9 88 be d7 d6 03 3f 10 18 d7 3e 18 13 33 bf
       -0.2674073 0.51499695 0.42010546 -0.6995101
0000e0 ba 72 cb be 7c d0 0c bf 17 b0 32 bf 5e c6 27 bf
       -0.39735967 -0.5500562 -0.6979994 -0.6553706
0000f0 4e 2d ae 3e 1f df 7e 3e 73 a6 60 bd 8d 48 0d bd
       0.3401894 0.24889801 -0.05484624 -0.034493018

feature_extract.mlps.0.linears.1.weight f4 [64, 64]
000000 95 6a 81 bd 95 e3 6c 3d e1 6b ec bd 90 87 b9 bd
       -0.06319157 0.057834227 -0.11544014 -0.090590596
000010 02 0d e5 bd 37 e8 79 bd ad 2a d4 bd 16 57 94 3d
       -0.11184122 -0.061012473 -0.10359702 0.07243173
000020 c3 58 f0 bd 95 62 c4 3b d4 54 f9 3c ae 9f 8f bb
       -0.1173568 0.005993197 0.030435957 -0.004383049
000030 34 0e 5a 3d 29 4e f6 3d 1e bc 69 3d 09 ca bf 3c
       0.0532362 0.120266266 0.05706417 0.023411768
000040 03 2e 53 bd 5e d6 6a bc 07 a5 f0 3d c7 48 21 3d
       -0.051557552 -0.014333336 0.117502265 0.039376047
000050 3c 72 2b bd f0 2f 35 bc 93 7a d9 bd 26 35 d6 bd
       -0.04185699 -0.0110587925 -0.10619082 -0.10459356
000060 3c b6 9b 3d 35 a0 4d 3c a4 96 ad 3d 61 24 99 3d
       0.07603118 0.012550403 0.08475998 0.07477642
000070 9e 91 bf bc 62 3e d3 3d 3e 20 2b 3d 64 0b aa 3d
       -0.023384865 0.10314633 0.041778795 0.08302954
000080 2c e4 93 3d 49 81 ef 3d a6 df b5 bd 2e 84 b9 bc
       0.07221255 0.11694581 -0.08880548 -0.022646036
000090 64 a6 71 3d c0 aa f0 bd 2f 30 e8 3c f6 68 eb bd
       0.058996573 -0.11751318 0.028343288 -0.11494629
0000a0 88 1e 88 bd d8 7d 46 bd fd 23 8d bd d1 6c d6 3c
       -0.066464484 -0.048459858 -0.0689163 0.026174935
0000b0 24 27 be 3d d5 93 ed bd a4 72 a2 3d 61 fa 4d bd
       0.09284809 -0.11600462 0.07932022 -0.050287608
0000c0 46 56 80 bc dd 5f a0 bc 54 7b 09 bd e4 fc 23 ba
       -0.015666138 -0.019576961 -0.03356488 -0.000625564
0000d0 63 7e 1c bd 30 3c a4 bd 17 e6 64 bb 40 76 6e 3d
       -0.03820647 -0.08019292 -0.0034927183 0.05821824
0000e0 04 ff 90 3c fe 4a 6d 3d 43 11 23 bd ae 8b ef 3a
       0.017699726 0.057932846 -0.039811384 0.0018275881
0000f0 e8 6a 9a 3d be 27 e0 3d 0e 39 f8 bd 52 bb b5 3d
       0.07539922 0.1094508 -0.12120257 0.08873619
000100 b0 b1 b4 3d c5 ee b1 bd 36 9f 36 bd 7a db 32 3d
       0.08822954 -0.0868812 -0.04458543 0.04366634
000110 d7 4d 96 3d 7b c4 fc bd f1 84 a3 3b ac a3 46 bb
       0.073390655 -0.12342163 0.004990213 -0.0030309958
000120 71 c1 3a bc 2d 71 de 3d f4 e0 36 3b 19 ec 48 bd
       -0.011398659 0.1086143 0.0027905079 -0.049053285
000130 a2 ac b6 3d fe 8e 17 bd 8f 29 a8 3d 96 0a d2 3d
       0.08919646 -0.037001602 0.08211052 0.10255925
000140 44 05 2b 3d f9 13 a7 bd 1b 73 6f bd 70 14 c7 bd
       0.04175307 -0.08158106 -0.058459383 -0.09720695
000150 40 e6 8b bd 1c 37 f9 bd b2 70 49 b7 40 1a 52 bd
       -0.06831026 -0.121687144 -1.20067725e-05 -0.051294565
000160 63 61 d6 3d c9 3f b6 3c 49 26 6b bd a7 2e 03 be
       0.10467794 0.022247212 -0.05740956 -0.12810765
000170 d6 d6 6e 3d f0 a5 ea bd 48 89 4b bd ec a4 3a 3d
       0.058310352 -0.11457431 -0.04969147 0.045567438
000180 41 e3 6a 3d cc a0 25 bd b0 c9 a8 3d 9a fc 6e bd
       0.057345632 -0.04043655 0.08241594 -0.05834637
000190 13 f3 99 bd d6 d8 a2 3d 42 67 23 3b bc 2d 55 3d
       -0.07517066 0.079515144 0.0024933373 0.05204557
0001a0 d2 d1 3d 3c 6b d1 10 3d f2 56 96 bd ca 4c 14 3d
       0.01158567 0.035355967 -0.07340802 0.036206044
0001b0 bb ce 91 bc d7 6e a3 bd dd 3e ec 3d 63 43 92 3d
       -0.017798772 -0.079801254 0.11535428 0.07141759
0001c0 27 bf a6 bb bf d0 ec 3d fb 3b eb bd f0 33 a7 3d
       -0.005088705 0.11563253 -0.1148605 0.08164203
0001d0 d8 18 12 bc 5b 1f ab bd 6c 68 02 3e e2 a7 db 3d
       -0.008917056 -0.0835559 0.12735146 0.107253805
0001e0 14 5f 38 bd 8f 37 88 bd 86 52 5b bd 6c 7c 3e bd
       -0.04501255 -0.06651222 -0.053545497 -0.046505377
0001f0 93 ac f1 3c ee f5 57 3d b4 9f 9d 3c c8 ae 01 be
       0.029501235 0.05272477 0.019241191 -0.1266433
000200 d9 c6 b8 bd 16 43 1b bd e3 48 5f bc d0 3f 34 bc
       -0.09022302 -0.037905775 -0.013628217 -0.011001542
000210 cd ad c7 3a 08 c8 80 bc 9c c4 b2 bd dc a7 36 3d
       0.0015234292 -0.015720382 -0.087289065 0.044593677
000220 9e 78 cf bd 82 b0 bc bd 77 82 77 ba 5f c7 f7 3d
       -0.10130428 -0.09213354 -0.0009441743 0.12098574
000230 64 f2 57 bd 0a 90 d8 bd aa 79 3d b9 10 f8 62 3d
       -0.052721396 -0.10574348 -0.00018069768 0.055412352
000240 10 c5 13 3d 60 12 29 bb 58 f9 97 bd ec 2d 7e 3b
       0.036076605 -0.0025798306 -0.074206054 0.0038784696
000250 8b 7e 23 3c f1 45 e5 bd 7b 51 38 3d 92 6f fb 3c
       0.009978901 -0.11194981 0.04499958 0.03069285
000260 79 32 19 3d a8 a8 b7 3d c5 81 4f bd 4c d5 58 3d
       0.03740165 0.089677155 -0.050660867 0.05293779
000270 50 fb cb 3d e2 2e ef bd 87 01 e0 bd a2 97 52 3c
       0.099600434 -0.11678864 -0.10937791 0.012853535
000280 cb 08 42 bd f2 58 82 3d af 41 ff 3d eb 8c fd bb
       -0.047371667 0.06364621 0.124637 -0.007737746
000290 1e 8d 50 3c 97 5a a1 bd fc cd e1 3d f6 5f f5 bc
       0.012728957 -0.07878607 0.110256165 -0.029952984
0002a0 33 e3 9e bd 08 7f f7 bd e7 ef 99 bd 77 92 35 bc
       -0.077581786 -0.12084776 -0.07516461 -0.011082283
0002b0 d6 a9 82 bd ac e1 92 ba 65 0d b2 3b de a0 88 bb
       -0.0638005 -0.0011206171 0.0054337257 -0.0041695675
0002c0 dd 6d 9e 3b c6 3b 3e bc e0 f8 83 3d 1d 27 fd bd
       0.004834874 -0.011610931 0.064439535 -0.12360976
0002d0 47 6e b1 bd 02 92 a0 bc 37 c2 89 bd cf 22 97 3d
       -0.08663612 -0.019600872 -0.06726497 0.07379686
0002e0 aa 92 b2 3d 91 49 02 3d 3d 54 1d bd 55 ce 8d bb
       0.0871938 0.03180844 -0.038410414 -0.004327575
0002f0 ae dc d3 3d 03 59 15 3c 31 5f cb 3d 04 6d de 3d
       0.10344826 0.00911546 0.09930266 0.10860637
000300 84 86 6c 3c d6 68 cf 3d ed 5e 71 3b 81 7b 8f bc
       0.014436368 0.10127418 0.0036830262 -0.017514946
000310 bf 87 1e bc 57 d5 d2 bd fe fc e1 3d 77 2f 08 3e
       -0.009675919 -0.102945976 0.110345826 0.13299356
000320 ce 12 9b bc fe 1f 9b bd 99 7b 36 bd d4 e6 89 3b
       -0.018929865 -0.075744614 -0.044551466 0.004208425
000330 b3 da d7 bd ab b5 49 3d af 81 a6 bd 92 69 a2 3d
       -0.105397604 0.049245518 -0.08130204 0.07930292
000340 58 4a 01 3d 23 3a ba 3d c4 63 7c 3d 11 d9 c0 3d
       0.03156504 0.0909312 0.06161858 0.09416402
000350 dd b3 cd 3d 56 26 91 3d e6 36 9f bd 43 c4 88 bd
       0.10044072 0.0708739 -0.07774143 -0.06678059
000360 e3 a7 2b 3d e1 f6 e2 3d 72 ed 87 bd cd 2d 93 bd
       0.041908156 0.11082245 -0.06637086 -0.0718647
000370 3a ce e5 bd 68 5f 02 3d ee 92 a7 bd 8e f4 8b bd
       -0.11220975 0.031829268 -0.081823215 -0.068337545
000380 3f 86 36 3d 78 28 9c bd 20 3a b1 3d 96 e4 51 bb
       0.04456162 -0.07624906 0.086536646 -0.0032027117
000390 10 f2 a1 3c 82 f8 3c 3d 03 9d 0d 3c 95 60 8a 3d
       0.019768745 0.046135433 0.008643392 0.06756703
0003a0 6d ef df bd b7 4a a0 3d 49 44 3e 3d b5 06 b4 3c
       -0.10934339 0.07826751 0.04645184 0.021975854
0003b0 9f 96 7a 3d 3f 8a ba 3d 5f 75 52 bd b1 53 fe 3d
       0.0611788 0.091083996 -0.051381465 0.124183066
0003c0 6c 0c 68 bc d8 05 e4 bd 1b b0 46 3d 9d 66 9c bd
       -0.014163118 -0.11133927 0.04850779 -0.076367594
0003d0 61 61 8f 3c c7 97 b9 bd 2c 3d 42 3c 8e d0 1b 3c
       0.017502489 -0.09062152 0.011855405 0.0095101725
0003e0 62 6b d4 bd 39 4d 54 bd e2 18 3f bd 23 8b c5 bd
       -0.10372044 -0.051831458 -0.04665459 -0.09645679
0003f0 74 55 29 3d 64 f7 5b bd eb da 81 3c 55 fb 8c 3d
       0.04134126 -0.053702727 0.015851459 0.06883875

feature_extract.mlps.0.linears.1.bias f4 [64]
000000 52 11 30 3d 8d 3a 67 3d cf 7e 52 3c 22 ef d7 3d
       0.042985268 0.056452323 0.012847616 0.10543658
000010 02 db b2 bd e9 5a ea 3c bd 6c e4 3c ff c9 a7 3c
       -0.08733179 0.028607802 0.027883882 0.020482061
000020 e9 f5 9f 3d 12 b7 e2 3d 35 87 ae 3d 36 fa 90 bc
       0.078105755 0.11070074 0.085218824 -0.017697435
000030 14 2d df 3d 7b 9e 50 3d b0 e8 1c 3d 6e 7f 91 3a
       0.1089727 0.05093239 0.038307846 0.0011100599
000040 1e 94 8a bd 99 60 93 3d 86 4c 09 3d ef 2e be 3c
       -0.06766532 0.07196159 0.033520244 0.023215739
000050 9d 3a 0e bd e3 5b db 3d fb ef b7 3d 15 bb eb 3d
       -0.034723867 0.107108854 0.089813195 0.115102924
000060 be 56 e6 bc a3 39 74 3d 5d 62 3e bd c1 8a c2 3d
       -0.028117534 0.05962528 -0.046480525 0.094991215
000070 0f 27 df 3d 22 2d ff 3c cb b0 d6 3d bb 49 c0 bd
       0.10896122 0.03114945 0.10482939 -0.09389063
000080 c9 50 fc 3c dd 6b 8c 3d 20 fc ad bd 0f 9e 06 bb
       0.03080024 0.06856511 -0.08495355 -0.0020540988
000090 15 0e 82 3d f6 c7 0f bd 3f 39 a3 bd 72 bb 8b 3d
       0.06350342 -0.035102807 -0.07969903 0.06822862
0000a0 bc f0 ba bd 8e 5d 39 bc d5 be ed 3d f1 fb 10 bd
       -0.09127948 -0.011313809 0.11608664 -0.03539652
0000b0 c3 f2 e6 bb f3 ff e6 3c 4d 2d dd bd 0c 88 de bd
       -0.0070479824 0.028198218 -0.10799656 -0.10865793
0000c0 47 86 3c bd f8 06 f9 3c ef f2 f9 3d 15 51 1a 3d
       -0.046026494 0.03039883 0.12204539 0.037674982
0000d0 73 f1 fa bd 77 56 bd 3d c2 22 5e bd 9a 6f 6d 3c
       -0.12253084 0.092450075 -0.054232366 0.01449194
0000e0 35 4e b7 3d a4 08 94 3d e1 f4 57 3d 8c 53 e2 3c
       0.08950464 0.072282106 0.05272377 0.027627729
0000f0 d5 ee c6 bd c7 39 fb bc 2b 0d d5 3d e6 41 f8 bd
       -0.09713522 -0.030667199 0.10402902 -0.12121944

feature_extract.mlps.0.batch_norms.0.weight f4 [64]
000000 ff d0 7e 3f 2a 93 7f 3f 37 03 81 3f 3d 59 80 3f
       0.9953765 0.9983393 1.0079106 1.0027233
000010 10 45 7d 3f 91 7b 80 3f b0 4d 80 3f 76 39 80 3f
       0.98933506 1.003771 1.0023708 1.0017536
000020 e3 1a 80 3f 89 ed 7f 3f 63 2e 81 3f d8 6a 80 3f
       1.0008205 0.99971825 1.0092281 1.0032606
000030 25 76 7f 3f 81 d5 80 3f 3e e0 80 3f 52 87 80 3f
       0.9978965 1.0065156 1.0068433 1.0041296
000040 b6 1e 80 3f 37 68 7d 3f 24 7e 7f 3f d3 b9 80 3f
       1.0009372 0.98987144 0.9980185 1.0056709
000050 2f 82 7e 3f 00 c1 7f 3f 63 7a 7e 3f 49 84 80 3f
       0.99417394 0.9990387 0.994055 1.004037
000060 e3 0c 7f 3f 38 94 7e 3f eb 8d 80 3f 6d d3 7e 3f
       0.9962904 0.99444914 1.004331 0.9954136
000070 10 9d 80 3f 46 1c 80 3f 21 2a 80 3f d4 8a 80 3f
       1.0047932 1.0008628 1.0012857 1.0042367
000080 d8 4d 81 3f 96 40 80 3f 2d 23 80 3f 77 53 80 3f
       1.0101881 1.001971 1.0010735 1.0025471
000090 a3 57 7d 3f 1a cb 80 3f 05 2c 80 3f 7d 7a 80 3f
       0.9896185 1.0061982 1.0013434 1.003738
0000a0 d7 04 7f 3f 9f 3e 80 3f 32 9c 7f 3f 22 57 81 3f
       0.9961676 1.001911 0.9984771 1.0104716
0000b0 4d 65 7f 3f 09 c0 7f 3f f8 c2 80 3f a1 ba 80 3f
       0.9976395 0.999024 1.00595 1.0056955
0000c0 6d c3 7c 3f bc 3a 7e 3f 3e 7f 80 3f dc 87 7f 3f
       0.98735696 0.9930837 1.0038831 0.9981668
0000d0 f2 e6 7e 3f e1 8d 80 3f 32 f6 7d 3f 2a 95 7f 3f
       0.99571145 1.0043298 0.9920379 0.9983698
0000e0 02 7d 7f 3f f6 65 80 3f 97 a5 7e 3f 73 35 7e 3f
       0.9980012 1.0031116 0.9947142 0.9930031
0000f0 1a be 7f 3f 15 55 80 3f e1 28 7e 3f 6c 69 7f 3f
       0.99899447 1.0025965 0.99281126 0.99770236

feature_extract.mlps.0.batch_norms.0.bias f4 [64]
000000 ee f8 ed 3a c5 53 b4 ba 90 46 5c 3b 65 30 07 bb
       0.0018155852 -0.0013757875 0.0033611394 -0.002062821
000010 55 43 d9 bb d4 17 7a 3b 09 9a 9d 3b 39 d6 92 3b
       -0.006630341 0.0038161175 0.004809622 0.0044811037
000020 9e 01 d5 3b 09 a7 f8 39 cc e2 4a 3b b6 09 1d 3a
       0.006500437 0.00047426697 0.0030957935 0.0005990522
000030 e0 4d ae 3b f3 d5 8e 3b f4 28 ba 3a 80 23 43 3b
       0.005319342 0.004359001 0.0014202879 0.0029775798
000040 c5 c8 25 3a fe 9e 99 bc 0a f1 b9 3b 0e a6 a8 bb
       0.00063241675 -0.018752571 0.005674486 -0.0051467484
000050 c7 d6 c5 bb 3c 63 2e bb c7 7d 17 bb 26 1d 0f 3c
       -0.0060375663 -0.0026609441 -0.002311574 0.008734977
000060 bb 81 a7 bb 7b 11 99 bb 11 c1 13 3b d5 45 12 3c
       -0.0051119006 -0.0046712733 0.0022545496 0.008927782
000070 d5 f1 ae ba 67 69 8f 3b 93 4b 12 3b 3e bc 8a 3b
       -0.0013347218 0.0043765786 0.0022322878 0.004233866
000080 32 f2 77 3b 3c 72 4f 3b 22 45 e8 3b 2b e3 c7 bb
       0.0037833569 0.0031653782 0.0070883194 -0.0061000786
000090 72 ec d5 bb 4e c0 72 3c bd e3 5c 3b 27 e2 35 bc
       -0.0065284306 0.014816357 0.0033705079 -0.011101282
0000a0 88 8f d6 bb 56 a4 1a 3b de 9e 7f 3a 63 30 9a 3a
       -0.006547872 0.0023596487 0.0009751151 0.0011763688
0000b0 9d a7 5a ba ff 86 97 ba 6a 68 09 3c c6 86 d4 3b
       -0.00083410164 -0.0011560618 0.008386711 0.006485793
0000c0 f6 2f 50 bb 70 ec 5d bb 5e fe b1 bb bb 1f 78 ba
       -0.0031766868 -0.0033862852 -0.0054319343 -0.00094651774
0000d0 9e a2 b8 bb 60 ef 25 ba 5e 18 6f bc 72 a8 9a ba
       -0.00563462 -0.000632992 -0.014593212 -0.0011799468
0000e0 e6 00 86 bb 05 fa 4f ba ed 3f 11 3c 62 8b c9 bb
       -0.0040894626 -0.0007933679 0.008865339 -0.006150649
0000f0 5e de 98 bb 19 26 2d 3c b9 24 d5 3b 37 d2 72 3b
       -0.00466518 0.010568165 0.006504622 0.0037051567

feature_extract.mlps.0.batch_norms.0.running_mean f4 [64]
000000 0a ea 43 3f 94 3e 0c 3e fa 69 86 bf 12 55 48 3d
       0.7652899 0.13695747 -1.0501091 0.048909254
000010 fb 65 62 3f c6 96 28 c0 f6 c1 c7 bf 5b 63 2f c0
       0.8843686 -2.6342025 -1.5606067 -2.7404392
000020 af c0 20 3e 6d 8b 00 c0 f2 71 92 3f a2 79 aa bf
       0.15698503 -2.0085099 1.1441023 -1.3318369
000030 2d dd f4 3f b4 21 c6 be 5c 48 d2 3f 59 4e e3 3e
       1.9129997 -0.38697588 1.6428332 0.44395712
000040 34 c0 e5 bd a9 d2 fd 3d c4 fd 31 bf 79 4b e7 3e
       -0.112183005 0.12393696 -0.6952784 0.4517477
000050 b7 ea e4 3e 3a 54 37 bf 3e 4f 44 bf ca ed 9b be
       0.44710323 -0.71612895 -0.76683414 -0.30454856
000060 eb 4d 7a 3f 5a 54 d5 bf fb f5 7a bd ec 8d 54 bf
       0.97775143 -1.6666367 -0.06126974 -0.83029056
000070 61 6c 03 c0 7d ee d8 bf 06 5f ad be 6b 68 03 40
       -2.05349 -1.6947781 -0.3386156 2.0532482
000080 96 31 33 bf 62 ce aa 3e 51 20 14 40 11 81 8f bf
       -0.6999754 0.33360583 2.3144724 -1.1211263
000090 f7 52 b1 3b a4 8d e3 bf f6 a9 4b bf 37 3f fd 3f
       0.0054115015 -1.77776 -0.79556215 1.9784917
0000a0 f0 46 24 3f c0 28 9d 3e 84 8d 51 3f 00 95 2f bf
       0.6417074 0.30695152 0.8185656 -0.6858673
0000b0 61 9a b3 3f 20 7c 4f 40 ea 46 a1 bf b3 3c 46 be
       1.4031488 3.241951 -1.2599766 -0.19359092
0000c0 7d be e5 bd c0 0c a3 be e8 35 8f 3f 6b 9f b2 3d
       -0.112179734 -0.31845665 1.1188326 0.08721813
0000d0 df 4a a7 be a7 ce 7d 3e fe c6 0e 40 85 70 ab 3c
       -0.3267431 0.24785863 2.2308955 0.020927677
0000e0 17 0e 2f c0 fd 49 18 3e 6a 72 f2 bf a0 ba 67 3f
       -2.735235 0.14871974 -1.8941166 0.9051914
0000f0 cc 5e 01 3f 0f a4 26 40 21 1c 2a bf 40 6c ad bf
       0.50535274 2.6037633 -0.6644917 -1.354866

feature_extract.mlps.0.batch_norms.0.running_var f4 [64]
000000 9e 88 61 3e 3d df 0a 3f 49 23 6c 3d 28 f3 1e 3f
       0.22024772 0.54246885 0.057650838 0.62089777
000010 2e de 1d 3f f2 79 9a 3f f6 8f e9 3e 08 e2 82 3e
       0.61667144 1.2068465 0.45617646 0.25563073
000020 41 88 a8 3e 6c 1a c2 3e 87 77 c4 3e 92 26 7e 3e
       0.32916453 0.37910783 0.38372442 0.24819401
000030 6a 45 1a 3e 52 13 b9 3e a2 fe 65 3f 3b 97 8c 3f
       0.15065542 0.36147553 0.89841664 1.0983652
000040 17 0a 2a 3f d2 69 bb 3e ff 51 2b 3f cd ea 7d 3c
       0.66421646 0.36604172 0.6692199 0.015497875
000050 c9 2d 9a 3a 7e 6a 83 3e 80 87 dc 3d 32 7c a0 3a
       0.0011762913 0.25667185 0.10768032 0.0012244044
000060 9d fc 7f 3e 32 34 6c 3f ae 5a a4 3e 8f c3 ff 3e
       0.24998708 0.92267144 0.32100433 0.49953887
000070 3c a0 75 3f f2 ec 21 3f 78 96 37 3e f5 ed eb 3e
       0.95947623 0.63252175 0.17928493 0.46079984
000080 77 97 d0 3c 9c eb 9e 3e 94 c1 3c 3f 53 c3 9c 3e
       0.025462849 0.3103913 0.73732877 0.3061777
000090 f5 eb 78 3c 34 8c 92 3d 04 dd 00 3f e4 38 0e 3f
       0.015192975 0.07155648 0.50337243 0.5555556
0000a0 89 bf 7c 3f a6 14 f1 3b 48 17 85 3d 0d 1b 0f 3d
       0.9872976 0.007357198 0.06498581 0.034937907
0000b0 51 22 2a 3d 66 78 e9 3e e2 92 9e 3e fa 54 75 3e
       0.041536633 0.4559967 0.30971438 0.23958197
0000c0 57 e2 30 3f a0 18 2f 3f 41 ef 1c 3e 20 13 02 3f
       0.6909537 0.6839695 0.15325643 0.5081043
0000d0 3a f0 05 3d b6 12 0f 3f f3 97 0d 3e 34 be ce 3e
       0.0326998 0.55887926 0.13827495 0.40379488
0000e0 47 60 28 3f 2a 2e b1 3e 9e 7c df 3e 99 79 89 3f
       0.6577191 0.34605533 0.43649763 1.0740234
0000f0 38 c1 0d 3e 02 26 80 3e 29 33 8c 3e d5 67 d9 3e
       0.13843238 0.25028998 0.27382782 0.4246203

feature_extract.mlps.1.linears.0.weight f4 [64, 64]
000000 df 2f f1 3d 35 2f a7 3d 91 f7 d6 3d 6f 1a 03 3e
       0.11776709 0.08163301 0.10496438 0.12803052
000010 42 04 1a 3b d5 17 21 bd 49 a8 68 bd 70 6d 11 3c
       0.0023501073 -0.03932937 -0.056801114 0.00887619
000020 85 b0 2b 3d cc c6 ed bc f2 ac b3 3d cb 4a e6 bd
       0.04191639 -0.029025458 0.08773221 -0.112447344
000030 f7 97 c8 bd a4 f7 1c bd ea a7 07 bc 6a 5f e7 3b
       -0.0979461 -0.038322106 -0.00827978 0.007060935
000040 5f 62 0b bd 86 39 fa bc 1a 60 9e bd 12 42 0d 3d
       -0.03402936 -0.030545007 -0.07733174 0.034486838
000050 b6 8e 4f 3d a9 57 09 3d 14 e3 10 bd f6 b7 13 bd
       0.05067321 0.033530865 -0.03537281 -0.03606411
000060 36 a6 94 3d a0 01 b4 bc 5e d7 62 3c 52 40 e2 ba
       0.07258265 -0.021973431 0.013845293 -0.0017261601
000070 b1 0c 16 bd 28 58 08 3d cb dd f7 3d f7 8f 61 3d
       -0.036633197 0.033287197 0.121028505 0.055068936
000080 b2 19 83 bc ac 12 12 3d d4 36 8e bd 2d 22 be 3d
       -0.016003463 0.03566234 -0.069440514 0.09283862
000090 22 f8 c7 bc 8f 3d 98 3d 75 0e f7 bd 54 98 d7 3d
       -0.024410311 0.07433616 -0.12063304 0.10527101
0000a0 b2 e9 d3 3d 81 dc 8f 3d 25 12 b8 3d 10 bc 56 3d
       0.10347308 0.0702448 0.08987836 0.052425444
0000b0 49 a8 93 3d 13 e9 b4 3d f0 88 52 bd a8 c3 e8 bd
       0.07209832 0.08833518 -0.051400125 -0.113654435
0000c0 66 b9 9f 3d 26 13 ea bd b5 d4 ef 3c 9c 20 94 bd
       0.07799034 -0.114294335 0.029276231 -0.07232782
0000d0 f6 53 4f 3d 40 0d 9f bb ca 6f be 3d 03 e3 88 3d
       0.05061718 -0.0048538744 0.09298666 0.06683924
0000e0 60 54 2b 3c 3f d5 76 bd 16 fc 9b 3d bf 37 10 bd
       0.010457128 -0.06026196 0.07616441 -0.035209414
0000f0 bd 4a 88 3d 75 1d 8f 3d 48 d4 0c bd 24 de 45 3d
       0.0665488 0.0698804 -0.034382135 0.048307553
000100 c8 23 bc bc f4 ed ed bd 8c a4 ca bd c0 64 a3 3d
       -0.02296628 -0.116176516 -0.09894666 0.07978201
000110 94 ed 42 bd ba cd a9 3d 0a bc c9 bd 46 99 e2 3d
       -0.047589853 0.08291192 -0.09850319 0.11064391
000120 89 18 7e bd 7e d4 98 3d 76 d8 ed bd 31 fe a4 3d
       -0.062035117 0.07462405 -0.11613552 0.08056296
000130 e1 d0 09 3d 73 57 72 bd 60 d5 3e 3d 11 40 a7 bd
       0.033646468 -0.05916543 0.04659021 -0.081665166
000140 30 18 ab 3d 9e 76 fc ba 6e 05 f1 bc 15 93 37 3d
       0.08354223 -0.0019261425 -0.029421534 0.044818003
000150 23 08 6a bd 88 d4 75 3d 41 92 cb bc 5f 66 47 bd
       -0.057136666 0.06001714 -0.024850013 -0.048681613
000160 c7 ed d1 bd 80 47 ec 3d 25 8a 68 bd e8 18 95 3d
       -0.102504306 0.11537075 -0.05677237 0.07280141
000170 a2 88 d0 3a 26 c8 96 bd 3d 00 cd 3d e3 10 8f bd
       0.001590986 -0.07362394 0.10009811 -0.06985643
000180 80 19 11 bd 3b 36 9d 3c f0 e8 f3 bd e7 bc ba bc
       -0.03542471 0.019190898 -0.11909664 -0.022795154
000190 6d ec 5d bd a4 e8 95 bb 32 ba 08 bd d0 ae ea bd
       -0.05418055 -0.004574852 -0.033380695 -0.11459124
0001a0 59 fb 99 bd cb 8f 12 3c 47 e6 a2 bc 63 8a 36 bd
       -0.07518644 0.008945416 -0.019885195 -0.04456557
0001b0 c0 c9 35 bc 43 71 1d 3c 3d d7 8d bd 85 c6 84 bd
       -0.011095464 0.009609523 -0.06925819 -0.06483177
0001c0 71 ca b7 3d 92 fc 8e 3d 28 c4 b7 3d 9d 75 c4 3d
       0.089741595 0.06981768 0.08972961 0.095927455
0001d0 1a 4d 99 3d 2e 58 fd 3d 26 d4 85 bd 2b c7 3f 3d
       0.07485409 0.123703346 -0.06534605 0.0468208
0001e0 8f 0b 91 bd b6 e1 92 bd 8e cd db bd 04 1a d7 bd
       -0.07082283 -0.07171957 -0.10732566 -0.10503009
0001f0 7a bc 97 3d 9e 7e 22 3d 95 b4 00 3d cb 0a 89 bd
       0.07408996 0.039671533 0.031422216 -0.06691512
000200 bf d3 68 bd 7b 01 a4 3d 0f 26 86 bd 43 d2 a0 3d
       -0.05684256 0.08008095 -0.06550228 0.07852604
000210 d5 ea 8c bd f6 f3 db bd da cc f8 39 d7 e1 e0 3d
       -0.06880728 -0.10739891 0.00047454872 0.109805755
000220 b2 ae e0 3d 43 28 06 be bb 8a b6 3b 9a f4 00 be
       0.109708205 -0.13101296 0.005570737 -0.12593308
000230 77 90 c4 bd 4b 58 19 3d b3 38 c6 bb b1 6b f4 bc
       -0.09597867 0.03743772 -0.0060492395 -0.029836508
000240 8d 6b 8e bd 98 96 d1 bc 6d 50 67 3c 61 fd 1a bc
       -0.069541074 -0.025584504 0.014118296 -0.009459824
000250 68 c4 4c bd 3f 01 54 bd 3a e4 e3 3d a9 15 ae 3c
       -0.049991995 -0.051759 0.11127515 0.021250563
000260 d7 fc bc bc df 27 a8 bd 45 1f 3d bd 7f 39 89 bc
       -0.023069782 -0.0821073 -0.0461724 -0.01675105
000270 67 b3 e8 3d 56 eb b4 bd a5 ac 95 bd ca a6 93 bd
       0.11362343 -0.08833949 -0.0730832 -0.07209547
000280 21 6d e3 bc 51 ae 87 3d b7 f5 29 bd 9e 96 12 bd
       -0.027761998 0.06625045 -0.041494098 -0.03578817
000290 63 49 fd bd 3c 56 45 3d 7e 26 41 3c 7c a9 3e bd
       -0.12367513 0.048177943 0.011788962 -0.04654835
0002a0 f6 62 ff 3d fa 1a bd 3d 8f db f4 3a 3e 61 2a bd
       0.12470047 0.09233661 0.0018681156 -0.041596644
0002b0 85 57 9b 3b bf c6 53 ba 98 4a 45 bc 8c 45 ff 3d
       0.0047406578 -0.00080786267 -0.01204171 0.12464437
0002c0 7f be 8e 3d b6 2e 9b bd 99 13 9e bd a2 bb 4b 3d
       0.06969928 -0.07577269 -0.07718582 0.049739487
0002d0 4c 24 98 bb 4d 06 ad bc 86 e0 db bd 98 da 88 bd
       -0.004642999 -0.021121169 -0.10736184 -0.066823184
0002e0 ba 62 fe 3d 4d 2b ac 3d 67 49 15 bd 19 7a 17 bc
       0.12421174 0.084066965 -0.036446955 -0.009245419
0002f0 3f a4 62 3d aa 89 50 3c d4 b7 02 3d bf 84 b1 3d
       0.05533242 0.012728134 0.031913593 0.086678974
000300 5f d6 a4 3d f3 7d 62 bd e1 af cf 3d 16 e2 47 3d
       0.080487005 -0.055295896 0.10140968 0.048799597
000310 0a 50 71 bd b0 d3 14 bd 86 56 78 3d 92 5a 55 bd
       -0.05891422 -0.036334693 0.06062939 -0.052088328
000320 d6 39 98 bd 92 12 ab bd 17 11 ae 3d c1 a8 ac bd
       -0.07432906 -0.083531514 0.084993534 -0.08430625
000330 fb f5 04 be 0e 11 a4 3d ce 4a b4 bd 07 19 06 3e
       -0.12984459 0.080110654 -0.0880333 0.13095485
000340 ec ed 06 be 1c 4b c8 3c 8a 31 9c 3c 33 c2 10 3d
       -0.13176697 0.024449877 0.01906659 0.035341453
000350 93 91 3d 3d 66 cc 02 be 79 ff 20 3d 6e 06 de ba
       0.04628141 -0.12773284 0.039306138 -0.0016939172
000360 ad 96 7e bc 0e 3f c0 3d 97 cc bf bc e9 54 db bc
       -0.015538854 0.09387027 -0.023412986 -0.026773887
000370 25 15 ce bd fb e8 c9 bd c0 3c b7 bd 70 7a d7 3c
       -0.10062627 -0.098588906 -0.08947134 0.0263035
000380 4d ba b0 3c 41 29 be bc a0 d1 94 bd 8b 87 86 bb
       0.02157321 -0.02321303 -0.07266545 -0.0041055134
000390 20 3e 05 bd 8f 56 06 3d 14 b7 22 3d 92 8b 19 bd
       -0.03252995 0.032797392 0.03972538 -0.03748662
0003a0 70 d5 13 bd 97 b5 93 bd f6 01 dd 3d b7 e5 65 3d
       -0.03609222 -0.0721237 0.1079139 0.056127276
0003b0 09 46 de bd 65 c2 39 3d c1 e0 79 3d e8 5c 67 3d
       -0.10853202 0.045351405 0.061005358 0.056485087
0003c0 f0 c6 ef bc 48 ef c0 bd 14 1c 0e 3d ea 7e bf bc
       -0.029269665 -0.09420639 0.034694746 -0.023375947
0003d0 86 a8 0f bd 06 dc 10 bd b2 9c ad bd 1c 58 09 3d
       -0.035072826 -0.03536608 -0.08477153 0.033531293
0003e0 7e bc 9c 3d ac f9 aa 3b 7a 5d c1 3d 41 d8 81 bd
       0.076531395 0.0052177515 0.09441657 -0.06340075
0003f0 36 93 94 bd 18 da f4 bd 68 3a ce bd 6a b3 ca bd
       -0.07254641 -0.119556606 -0.10069734 -0.09897502

feature_extract.mlps.1.linears.0.bias f4 [64]
000000 57 77 93 bd b0 b1 41 3d a3 de 46 bc 24 9b fe 3c
       -0.07200497 0.047288597 -0.012138042 0.031079836
000010 bd d1 51 bd 8c 78 97 bd b1 cc 41 bd f0 8a c6 3d
       -0.051225413 -0.07396039 -0.04731435 0.09694469
000020 1f e3 b7 3d 5c f4 cc 3c c3 47 43 3c 96 97 7b bc
       0.08978867 0.025018863 0.011918965 -0.015355965
000030 b3 8f be 3d f7 65 41 bd 05 5d 35 3d a2 3a 15 bd
       0.09304752 -0.047216382 0.044278163 -0.03643287
000040 ea 5c f3 3d 66 fd 1d 3c 70 55 ca 3d 88 31 ed 3d
       0.11882956 0.009642934 0.09879577 0.11581713
000050 49 28 70 bd fb 2e bf bd 2a 01 95 ba 03 f2 d2 3c
       -0.05863217 -0.09335133 -0.0011368145 0.025750166
000060 10 7c f9 3d 06 4f de 3d 0b e8 9d bd bd dc 9d 3d
       0.12181866 0.10854916 -0.07710274 0.07708118
000070 ee 97 ac 3c 5b fa 8f bd c6 6a be bd a1 3d b5 3d
       0.02106854 -0.070301734 -0.09297709 0.088496454
000080 fb 38 a0 3d 1b 3a e4 bd 44 a6 9e bd 57 ea 82 3d
       0.07823368 -0.11143895 -0.077465564 0.06392353
000090 36 db 5e 3d 6b e6 44 3d bd 0d 5c bd 20 93 0c 3c
       0.054408275 0.048071306 -0.05372404 0.008579999
0000a0 d9 7f b5 3a 4c b3 91 3b f4 e3 16 3d f8 0f 1d bc
       0.0013847306 0.0044464227 0.036838487 -0.009586327
0000b0 d9 f9 9e 3d 10 51 fa bd fc b7 d1 3d ca 33 e2 3d
       0.077624984 -0.12222493 0.1024017 0.11045034
0000c0 39 09 8d 3c 00 7a 8e 3d b8 72 64 bd c3 e5 e0 3d
       0.017216312 0.069568634 -0.055773467 0.109813236
0000d0 0c 8c 2d 3c 9f 78 e6 bd 40 05 77 3d d8 3c d1 3d
       0.010592472 -0.112534754 0.06030774 0.10216683
0000e0 6b b4 21 3d e4 c9 82 3d 35 7d 9a bb 7e 64 5e 3d
       0.0394787 0.06386164 -0.004714633 0.054295056
0000f0 15 68 e5 3d da f3 ed bd ec 2e 9b bd ee 48 e5 bd
       0.11201493 -0.116187766 -0.07577309 -0.11195551

feature_extract.mlps.1.linears.1.weight f4 [64, 64]
000000 d5 7a 00 3c 0c 2b bd 3d 17 c0 64 3d 35 be c1 bb
       0.007841785 0.09236726 0.055847254 -0.005912567
000010 a4 a4 aa bd 35 2f 96 bd 5e 50 c1 3d 78 a5 ec 3d
       -0.08332184 -0.07333223 0.09439157 0.11554998
000020 4b f1 4b 3d b9 7a 53 bb ff 74 bb bd 67 81 a5 bd
       0.04979066 -0.0032269193 -0.091531746 -0.08081322
000030 11 ad 94 bd 02 f0 8f 3d 53 b4 60 bd 8c 85 8e 3d
       -0.07259572 0.070282 -0.05485947 0.06959066
000040 b7 bf 09 3e e3 53 9b 3d 5d 33 26 bc 1e 46 31 3c
       0.1345204 0.075843595 -0.010144082 0.01081994
000050 68 3f 04 3e 30 86 b9 bd 8b 73 42 3d ef 28 f9 3d
       0.12914813 -0.09058797 0.04747347 0.121660106
000060 fb e1 ca bc 4a 62 2d bd 76 57 e0 bd fb 9a 87 bd
       -0.024765959 -0.042330064 -0.10954182 -0.06621357
000070 a7 93 6a 3d f7 08 fe bc 1d f2 a1 3d 46 b5 23 bd
       0.05726972 -0.031010134 0.079075076 -0.039967798
000080 e5 80 b8 3d d3 f7 8d 3c dd c1 c6 bd 6c a7 93 bd
       0.0900896 0.017330086 -0.09704945 -0.072096676
000090 77 94 2b bd a5 9d bd 3d 27 d1 c8 bd 2e d7 21 3d
       -0.041889634 0.09258584 -0.09805518 0.039511852
0000a0 03 a9 99 bd 58 c2 21 3d 78 b1 43 3c 5a 4c a2 bd
       -0.075029396 0.03949198 0.011944167 -0.07924719
0000b0 02 2f de 3d ce 45 cd bd ba 7b f9 3d 62 d3 e1 3c
       0.1084881 -0.1002308 0.12181802 0.027566615
0000c0 69 ab e7 3c 3a 49 82 bd fa 0b 20 3b e7 13 b4 3d
       0.028279977 -0.06361623 0.00244212 0.087928586
0000d0 66 1a a6 3d d1 c1 05 3e a0 9c 6e b9 0b 4a aa 3b
       0.08110504 0.13062216 -0.00022755796 0.005196815
0000e0 83 89 6f bd 73 38 f0 bd 47 7c 1f 3d 52 92 dc bd
       -0.05848075 -0.11729517 0.03893688 -0.10770096
0000f0 d6 5d b8 3d 90 38 0b bd e0 f3 fe 3a 9c a2 88 3d
       0.09002273 -0.03398949 0.0019451343 0.0667164
000100 54 8d e4 3b 20 08 be 3d 83 fa c2 3d 3a 15 c0 bd
       0.0069748554 0.092788935 0.095204376 -0.09379049
000110 5b 08 ed bd b1 0c eb bd f3 3c f8 3d ab f4 cb 3d
       -0.11573859 -0.1147703 0.12121 0.09958776
000120 e8 0b c1 3b 70 1b 52 3d 62 98 11 3d 72 49 cd bd
       0.005891312 0.051295698 0.035545714 -0.10023774
000130 c1 09 3d 3d 6c 69 32 bd 38 f4 bc bd ef 08 c4 b7
       0.04615188 -0.04355757 -0.092262685 -2.336918e-05
000140 21 6f b5 3d e8 24 dd bd 59 39 ce 3c ee 93 81 bd
       0.08859087 -0.10798055 0.02517383 -0.063270435
000150 e9 40 45 bd 3f 92 e0 bc eb ec 92 3d c0 13 fb bd
       -0.048157606 -0.027413486 0.07174095 -0.122596264
000160 6d 8d 39 bd af 55 92 3d 60 4f 4f 3d 91 84 b7 3c
       -0.04530089 0.07145249 0.050612807 0.02240208
000170 dc 1b bb 3d 5a 6c 38 bd 2d c1 ce 3c 87 f1 10 bd
       0.09136173 -0.045025207 0.025238598 -0.03538659
000180 15 85 a8 bc 05 65 6e 3b 53 7c 5a 3c 6a e5 ea bd
       -0.020571271 0.003637613 0.013335305 -0.114695385
000190 23 c1 8d 3d 9a 5d 5c 3d dd ba 4d 3d 81 90 66 3d
       0.069216035 0.053800203 0.050227035 0.056290153
0001a0 dc d8 8b bc 45 ff 59 3c 23 98 6d bd 40 99 7b 3d
       -0.01707118 0.01330549 -0.058006417 0.061425447
0001b0 10 d1 5a bd 15 6b ef 3d ca 28 b5 bd 7c b9 07 3e
       -0.053422034 0.11690346 -0.088456705 0.1325435
0001c0 e5 d3 de 3d b0 7e cc bc 54 58 50 3d 00 bf 8f 3d
       0.108802594 -0.024962753 0.050865486 0.07018852
0001d0 f5 1d 03 be 31 c9 bd 3d 16 0f 44 3d d2 59 b8 bd
       -0.12804396 0.0926689 0.04786595 -0.09001507
0001e0 d1 40 f7 bc 8c 96 db bd 25 7f 53 bd cf 27 be bd
       -0.030182274 -0.10722074 -0.051634926 -0.09284937
0001f0 64 49 a6 bd 0e b3 89 bd 9e b7 c8 bc b1 2c ce bc
       -0.08119467 -0.06723605 -0.024501618 -0.025167795
000200 f2 e4 f2 bc 0d d7 77 3d ba 7e b3 3d c1 e2 10 bd
       -0.029650185 0.060507823 0.087644055 -0.0353725
000210 8b 92 de bd 3b 7f ee 3d a3 c7 d7 3d 4a f4 e9 bc
       -0.108677946 0.11645361 0.105361246 -0.028558869
000220 6e 16 28 3c a7 8f 7a 3d 78 91 9d 3c e5 86 81 3d
       0.010259254 0.061172154 0.019234404 0.06324557
000230 b2 98 99 3d 25 d2 01 3d 40 6c 71 bc d5 2e bf bd
       0.074998274 0.03169455 -0.0147352815 -0.093351044
000240 9b 1a 3c 3d 70 cd c3 bc de 09 55 bd 60 9a 97 3d
       0.04592381 -0.023901671 -0.052011363 0.074024916
000250 a4 ce eb bd 1d 7c 8a 3d fe 8e 03 bd 97 dd cb 3d
       -0.11514023 0.06761954 -0.03211879 0.09954374
000260 c2 13 5d bd 83 59 e9 3d d1 e1 8c bc 5f 10 db bd
       -0.05397392 0.11394026 -0.017197521 -0.10696482
000270 5f bb 40 3c 71 ca 18 bc 30 a9 9f 3c de a0 1f 3d
       0.011763423 -0.00932561 0.019489855 0.038971774
000280 b4 95 61 3b 9d fb ff bd c3 24 9f bd a8 96 73 bd
       0.0034421505 -0.12499163 -0.077706836 -0.05946985
000290 cd 24 5a bd c2 1f 93 bd 6f cf 8d bd 5c cc 9d 3d
       -0.053257752 -0.07183792 -0.069243304 0.07704994
0002a0 43 30 f2 3c 18 ed 0d 3b 3b 05 1c be 6c 58 e7 3d
       0.029564029 0.0021656211 -0.1523637 0.11296162
0002b0 d5 6c 21 3d e6 df ff bd 0f a0 c8 3d f5 fd bd 3d
       0.03941043 -0.12493877 0.09796154 0.09276954
0002c0 a0 4c 9c 3d ee cd dd 3b 70 0c c4 bd e8 84 0d bc
       0.076318026 0.0067689335 -0.09572685 -0.008637644
0002d0 b4 f5 d6 bd 15 af e3 3d b0 39 9c 3d 10 15 e5 3c
       -0.10496083 0.111173786 0.076281905 0.027964145
0002e0 de ec f3 3c e6 54 23 bd 4e 7c 40 bd 2b 1f a9 3d
       0.029776033 -0.039875887 -0.046993546 0.08257898
0002f0 e8 fb ad 3d c0 a4 31 3d 4c 40 11 bd b2 46 96 3b
       0.08495313 0.04337001 -0.03546171 0.0045860643
000300 36 a2 ce bb 3e c5 5f bc 83 2a 6c bc ba b6 da 3c
       -0.006305958 -0.013657866 -0.014414432 0.026698459
000310 28 a5 bc 3c aa 82 ec 3d ab 60 c6 bd 90 b3 46 bd
       0.023027971 0.1154836 -0.09686407 -0.048511088
000320 8f 96 06 3d 0e 42 d6 3d a7 65 e8 3d cb 79 96 3d
       0.032858428 0.10461818 0.11347514 0.07347449
000330 22 96 9d bb 72 7c 8d 3d 2c 8f b2 bd 4c ea 5d 3c
       -0.004809157 0.06908502 -0.08718714 0.01354463
000340 48 a8 35 bd 12 c5 92 3d 64 66 80 bd f0 cd fd 3d
       -0.04434994 0.071664944 -0.062695295 0.12392795
000350 52 54 89 3c 13 44 ee bd 52 5e ae 3d 68 b3 86 3a
       0.01676384 -0.11634078 0.08514084 0.0010276856
000360 e3 a7 0a be 0e 43 ed 3d 6a 2f 8f bd e2 15 99 bc
       -0.13540606 0.11585055 -0.069914654 -0.018687192
000370 bd 00 01 3e 37 ae 1d bd 1f e1 ca bd 9f 8c 00 3e
       0.12597938 -0.038496222 -0.0990622 0.12553643
000380 e0 45 be bd bd 55 ed 3d ff cf db 3d 0e 88 a9 3d
       -0.09290671 0.11588619 0.107330315 0.082779035
000390 03 c7 96 3d 9f f4 63 3c 01 02 05 be e6 38 c9 bd
       0.07362177 0.013913303 -0.12989046 -0.09825306
0003a0 24 d6 b8 3d 07 e8 dd 3d 59 60 8f 3d d2 9c cc bd
       0.09025219 0.10835271 0.07000799 -0.099908486
0003b0 1b a8 8e 3d f8 a1 a7 bb 51 48 42 bc 6e 8b dd bd
       0.06965657 -0.0051157437 -0.011858062 -0.1081761
0003c0 0d 93 a8 bd a6 57 e7 bd e7 7f f1 3c 4a 5f 05 3e
       -0.08231173 -0.112960145 0.029479934 0.13024631
0003d0 6e 43 85 bd c9 55 35 bd c6 f7 b8 bd 68 62 e4 bd
       -0.06507002 -0.044271264 -0.09031634 -0.11151582
0003e0 e4 36 d0 3d 0b bd 86 3d 2d ae 04 bc d6 df 20 3d
       0.101667196 0.06579026 -0.008098167 0.039275967
0003f0 cf 84 a8 3d 89 a2 db bc ae bf ad bd cb bb c7 3c
       0.08228456 -0.026810901 -0.084838256 0.024381539

feature_extract.mlps.1.linears.1.bias f4 [64]
000000 ee fb 9a 3d 14 10 06 bd 32 da be bd 35 9b 29 3d
       0.07567583 -0.032730177 -0.09318961 0.041407783
000010 b4 18 c7 3c e6 8c 16 3d 9d 28 ab bc d2 cf 82 bd
       0.024303772 0.036755465 -0.02089339 -0.06387295
000020 c8 6c 05 3d e8 9e 9d 3d 4f 4e fd 3d b6 3e b9 bd
       0.032574445 0.076963246 0.12368452 -0.09045164
000030 b5 2d 01 bd 3e 74 c3 3d 26 ef a4 bd 39 b2 d6 3d
       -0.03153773 0.09543656 -0.080534264 0.10483212
000040 fc 22 0f 3d c6 2e 97 3d ba 9b 25 bd df af cf 3d
       0.034945473 0.07381968 -0.040431716 0.101409666
000050 7f 83 f7 bd 5e ce a9 3d 02 c4 0f 3c 60 13 18 3d
       -0.12085628 0.082913145 0.008774759 0.037127852
000060 60 fe 88 3d ab eb f9 bd ba 9f 1d 3b 02 23 a0 3a
       0.06689143 -0.12203153 0.0024051503 0.0012217464
000070 b8 47 19 3d a1 33 97 bc 5a 30 9d 3c 94 4e b0 bb
       0.037421912 -0.018457236 0.019188095 -0.005380461
000080 cc 75 e6 bd d3 d5 88 bd 4a 98 ad 3d e6 e9 c8 bd
       -0.11252937 -0.06681409 0.084763125 -0.098102376
000090 09 18 2c bd 5e b4 c4 bd 0c ca 47 bb a2 e8 51 3d
       -0.04201511 -0.09604715 -0.003048542 0.051247247
0000a0 47 46 75 bc ce 60 84 3d d7 79 b3 bd 2a 46 ac bd
       -0.014970369 0.064637765 -0.087634735 -0.0841182
0000b0 42 84 d5 bd ed 2c 55 3d 1b 25 9e 3c a9 a6 a2 bd
       -0.10425617 0.052044798 0.019304803 -0.07941944
0000c0 e9 fb ee bd 8c 3c 1d bd 5e b9 67 bb 3c fe af 3d
       -0.11669142 -0.03838782 -0.003535829 0.08593413
0000d0 37 94 a1 bd 6e ec a5 3d 8a 65 49 3d 55 9b db bd
       -0.07889598 0.08101736 0.0491691 -0.107229866
0000e0 80 f2 49 3d 08 a4 a0 3d 2e d4 96 bd 97 1e ba 3d
       0.04930353 0.078437865 -0.07364689 0.09087866
0000f0 e8 e3 eb 3d a6 60 bf bd 65 38 b8 3d e4 fb 9e 3d
       0.11518079 -0.09344606 0.089951314 0.07762888

feature_extract.mlps.1.batch_norms.0.weight f4 [64]
000000 96 53 7f 3f 30 9f 80 3f 78 43 7e 3f ca 24 7d 3f
       0.99736917 1.004858 0.993217 0.9888426
000010 04 5c 80 3f 7d d9 80 3f bf b8 81 3f dd 70 7f 3f
       1.0028081 1.0066372 1.0134505 0.9978159
000020 e4 c5 80 3f 3c d4 80 3f b9 c2 7f 3f e8 e6 81 3f
       1.0060391 1.0064769 0.999065 1.0148592
000030 1a 21 7d 3f cc 63 7f 3f 4a 3d 7c 3f da 0e 7c 3f
       0.98878634 0.9976165 0.9853102 0.9846016
000040 7b d3 82 3f b3 93 7a 3f 37 89 80 3f 87 f3 80 3f
       1.0220789 0.9788162 1.0041875 1.0074319
000050 6e 49 82 3f 60 86 7d 3f 2f 13 7d 3f d8 12 81 3f
       1.0178659 0.99033165 0.98857397 1.0083876
000060 fb 5c 80 3f 3b 22 7f 3f 87 f8 81 3f 74 e8 82 3f
       1.0028375 0.99661607 1.015397 1.0227189
000070 67 9d 80 3f 29 7e 81 3f 34 0e 81 3f c0 6b 80 3f
       1.0048035 1.0116626 1.008246 1.0032883
000080 f1 d9 80 3f 3c 52 7e 3f 72 65 80 3f 22 8d 80 3f
       1.006651 0.9934423 1.0030959 1.004307
000090 29 6d 7d 3f c3 b2 7e 3f 56 40 80 3f e1 d8 7c 3f
       0.9899469 0.9949152 1.0019634 0.9876843
0000a0 20 7c 80 3f 3c ee 7c 3f 72 f7 7d 3f a8 c7 7c 3f
       1.003788 0.98801017 0.99205697 0.9874215
0000b0 bc 1a 7f 3f 49 b5 82 3f af 5d 81 3f 05 2a 7e 3f
       0.9965017 1.0211574 1.0106715 0.99282867
0000c0 93 02 80 3f af a7 7a 3f 53 79 81 3f db c1 81 3f
       1.0000786 0.97912115 1.011515 1.0137285
0000d0 65 48 81 3f 28 1d 81 3f cc d1 7b 3f 6d d2 7d 3f
       1.0100218 1.0087023 0.98367 0.9914921
0000e0 c1 15 7a 3f 64 2d 7e 3f 87 05 7f 3f 87 66 80 3f
       0.97689444 0.9928801 0.9961781 1.0031289
0000f0 b7 8b 7c 3f 2c 89 7e 3f a6 d4 7e 3f f2 ec 80 3f
       0.9865069 0.9942806 0.99543226 1.007231

feature_extract.mlps.1.batch_norms.0.bias f4 [64]
000000 61 0e 3c bc e9 53 17 3b d1 4a 18 3c 17 c2 3b bc
       -0.011478038 0.0023090786 0.009295181 -0.011459849
000010 c1 51 85 3b 21 d7 27 3c 71 58 d0 bb 17 ab 2c bc
       0.0040685837 0.010244162 -0.0063581993 -0.010538838
000020 a7 b5 ba 3c 98 8a 02 3c 4f cf 47 ba e5 52 98 3c
       0.022791697 0.007967614 -0.0007622139 0.018594215
000030 96 36 a1 bb 3c b4 13 bc c2 2f f2 bb 2b 62 59 bb
       -0.004919837 -0.009015139 -0.007390947 -0.0033170085
000040 3f 54 ad bb bd 1a 7a bc 1d 94 c6 b9 c3 f1 48 3c
       -0.005289584 -0.015265164 -0.00037875856 0.012264672
000050 f9 8f 8c 3c 9d 4d 19 bc b3 49 e6 bb 60 25 43 3c
       0.017158495 -0.009356883 -0.0070278286 0.011910766
000060 7e 64 54 3c 75 71 9f bc 28 5f 16 3c f5 ad a0 3b
       0.012963412 -0.01946328 0.00917796 0.00490355
000070 ec 75 e3 3b 9e 87 93 3c a8 44 43 3c bf 95 71 3c
       0.0069415476 0.018009003 0.011918224 0.014745175
000080 6f 2d 78 3b 92 2a e5 bb 7a 0e 2d 3c 82 61 ca 3a
       0.0037868877 -0.0069936 0.0105625335 0.0015440437
000090 18 62 d5 bb b6 b2 80 3a b2 57 cc bb c8 5c 0c bc
       -0.006511938 0.0009818885 -0.00623604 -0.008567043
0000a0 17 83 16 3c 4b e7 a6 bb 9a 1f 1e bb 90 e8 92 bb
       0.009186528 -0.0050934902 -0.0024127723 -0.00448329
0000b0 db 64 c6 bb 41 5e a6 3c 1d 23 ce 3c 8d da 76 3c
       -0.0060545034 0.020308616 0.025163228 0.015066755
0000c0 13 74 38 3c 93 58 25 bc 40 9f 79 3c cb 8b 23 3c
       0.011258143 -0.0100919185 0.015235722 0.00998206
0000d0 37 a4 f9 3b 7a 9e c3 3c 7c 39 4f bb 34 50 66 bb
       0.007618453 0.023879278 -0.0031619957 -0.003514302
0000e0 6e 9f 0f bc 09 c3 de bb 5b 3b 37 bc 18 53 34 bc
       -0.008766038 -0.0067981523 -0.011183585 -0.011006139
0000f0 89 39 27 bc c5 68 e2 ba 3a ed b3 3b d1 96 99 3c
       -0.010206589 -0.0017273655 0.005490926 0.018748673

feature_extract.mlps.1.batch_norms.0.running_mean f4 [64]
000000 33 33 90 3f b5 31 2e bf fb 18 95 be dc bd 69 bf
       1.1265625 -0.68044597 -0.2912062 -0.9130533
000010 d5 a3 eb be 8a 48 17 be 22 44 05 bf 88 a8 d4 bd
       -0.4602343 -0.14773765 -0.5205709 -0.10383707
000020 12 ce 86 3f 11 5e 1f bf 5a 82 20 bf 82 24 34 bf
       1.0531638 -0.6225291 -0.626989 -0.70368207
000030 b5 3b 15 3e aa 9a b0 3e 64 52 17 3f 3c 18 7d 3f
       0.14573558 0.34493 0.59110093 0.98865104
000040 6c dc 91 3f ff 6e 5f bf 63 9a 62 3f b7 c4 b0 be
       1.1395392 -0.8727874 0.88516825 -0.34525082
000050 1d 00 89 3c c4 79 ba be a9 6f 2b bf ae 4f ab bf
       0.016723687 -0.36421025 -0.66967255 -1.3383691
000060 01 89 ab be a5 05 e8 be cc 4a 05 bf da 99 0b 3f
       -0.33502963 -0.45316806 -0.52067256 0.54531634
000070 8d 83 4f bf 59 d6 b6 be a9 dc b8 be 04 72 fc be
       -0.81060106 -0.3571041 -0.3610585 -0.49305737
000080 85 a1 8a bf a0 38 45 bf 3f 92 c1 be e8 3b ad 3e
       -1.0830542 -0.7703953 -0.3780689 0.33834767
000090 ad 08 fd bc d8 0d 7e bf a3 55 6a 3f df 55 1a bf
       -0.030887926 -0.99239874 0.9153692 -0.6028728
0000a0 f5 a5 68 3e 18 ff 87 3f b1 98 94 be 56 22 33 3c
       0.22719558 1.0624723 -0.29022744 0.010933479
0000b0 fa 2e 34 bf 9a 29 0d bf 80 b9 45 bf 16 81 be be
       -0.7038418 -0.55141604 -0.77236176 -0.3720786
0000c0 38 95 02 bd 92 92 09 3f ef 52 67 bf 86 aa fa 3c
       -0.031880587 0.53739274 -0.9036092 0.03059889
0000d0 86 54 2a 3f e8 97 dd be 81 d0 4f bc fa e8 bd 3e
       0.6653522 -0.43279958 -0.012683989 0.3709181
0000e0 b6 09 17 3f ed 72 d2 3d bc 4a 7a 3f da 0b bb bf
       0.5899919 0.102758266 0.97770286 -1.4612992
0000f0 c0 d7 10 3f a7 91 0c be 1a d8 b0 3e 00 76 67 bd
       0.5657921 -0.13727437 0.34539872 -0.056509018

feature_extract.mlps.1.batch_norms.0.running_var f4 [64]
000000 42 0b 8d 3e 8c 30 55 3f 12 5c ac 3f 0a 0e 8b 3e
       0.27547652 0.832772 1.3465598 0.27159148
000010 c4 a5 49 3f 36 e1 5a 3e 00 04 29 3f 4a ad 99 3e
       0.78768563 0.21374974 0.6602173 0.30015022
000020 d9 57 f4 3e a2 6f 46 3f b0 f1 05 3f e8 34 c6 3e
       0.47723272 0.7751409 0.5232191 0.3871224
000030 dc f3 ca 3e 50 0c 2a 3f 03 bc 88 3e 3d 7e 03 3f
       0.39639175 0.6642504 0.26705942 0.513645
000040 7e c2 4a 3e 0f 97 00 3f f4 cf 97 3f 7c 6d 68 3e
       0.19800755 0.502305 1.1860337 0.22698015
000050 57 59 9f 3f db fc 0f 3f 15 49 51 3f 37 f0 8d 3f
       1.2449139 0.562452 0.8175214 1.1088933
000060 88 a5 8c 3f a1 ed 9f 3f 9b c6 67 3f 00 5f 49 3e
       1.0988016 1.2494394 0.9053742 0.19665146
000070 ef d5 49 3f 3f 4f 94 3f 6c f9 8d 3e 41 10 91 3e
       0.7884206 1.1586684 0.27729356 0.28332713
000080 53 25 de 3e dc 26 50 3f 01 b1 3a 3f 03 5d 05 3f
       0.4338785 0.81309295 0.72926337 0.5209505
000090 e8 63 03 3f c3 7b 10 3f 8f 68 13 3f ec a1 37 3f
       0.5132432 0.56438845 0.5758142 0.7173145
0000a0 33 99 f1 3e 16 22 5b 3f 3a 37 1d 3f 5c 78 6a 3e
       0.47187194 0.85598886 0.61412394 0.22897476
0000b0 8d 15 cb 3e 32 b7 78 3f 87 6a a2 3e 71 b4 d3 3e
       0.3966488 0.97154534 0.317219 0.41348603
0000c0 d0 26 db 3f 10 9a 0f 3f 10 3e 67 3f c5 14 0f 3e
       1.712122 0.56094456 0.90329075 0.13972767
0000d0 a6 b8 41 3e 7f c9 c6 3e f7 b2 be 3e 0f ca a2 3d
       0.18918094 0.38825604 0.37245914 0.07948696
0000e0 8a f9 a9 3f 1b cb 8a 3e fb 52 28 3f b7 11 14 3f
       1.3279278 0.27108082 0.6575162 0.5783953
0000f0 26 02 87 3f 66 ee 47 3f ee af 82 3f d6 3a 86 3f
       1.0547531 0.7809814 1.020994 1.0486705

feature_extract.batch_norms.0.weight f4 [64]
000000 36 0d 81 3f 67 ae 80 3f 5f bf 80 3f fa 84 7d 3f
       1.0082157 1.0053223 1.0058402 0.9903103
000010 8c 9e 80 3f f3 f4 7e 3f bc 3f 80 3f 50 44 7f 3f
       1.0048385 0.9959251 1.001945 0.9971361
000020 10 88 7a 3f 9b c8 7e 3f ff 9b 7e 3f d8 1d 7f 3f
       0.97863865 0.9952485 0.9945678 0.9965491
000030 40 43 81 3f 3a 87 7c 3f 44 62 80 3f 47 3b 82 3f
       1.0098648 0.9864384 1.0029988 1.017434
000040 0d 1d 7e 3f 65 9f 7f 3f 0d 54 80 3f 98 96 80 3f
       0.9926308 0.9985259 1.002565 1.0045958
000050 61 7c 80 3f 4e 65 81 3f cf d7 7f 3f ae dc 80 3f
       1.0037957 1.0109041 0.9993867 1.0067346
000060 03 f6 7d 3f 08 39 7b 3f 40 70 81 3f c8 d9 7e 3f
       0.9920351 0.981339 1.0112381 0.9955106
000070 89 69 80 3f 9e 80 7f 3f 39 b0 7d 3f 4f 03 7f 3f
       1.0032207 0.9980563 0.9909702 0.99614424
000080 e7 d8 81 3f 17 da 80 3f 5c 2f 80 3f 91 35 80 3f
       1.0144318 1.0066556 1.0014453 1.0016347
000090 05 2a 7e 3f b4 a3 80 3f 00 c8 7d 3f 08 2a 7f 3f
       0.99282867 1.0049958 0.991333 0.9967351
0000a0 2c 17 82 3f c1 84 7d 3f 6e 04 80 3f c3 21 80 3f
       1.0163321 0.9903069 1.0001352 1.0010303
0000b0 8e 91 7e 3f f0 3e 80 3f 05 77 7d 3f 82 4d 80 3f
       0.9944085 1.0019207 0.99009734 1.0023654
0000c0 cf 8c 81 3f 76 99 7d 3f 89 d1 80 3f fe fc 7f 3f
       1.0121096 0.9906229 1.0063945 0.9999541
0000d0 09 6d 7e 3f d6 d7 81 3f a4 b8 80 3f d0 7c 7e 3f
       0.99385124 1.0143993 1.0056348 0.994092
0000e0 f5 88 7b 3f 21 b8 80 3f 55 8e 80 3f cb 4a 80 3f
       0.98255855 1.0056192 1.0043436 1.0022825
0000f0 a9 88 81 3f aa 36 7e 3f b2 91 7e 3f 93 9e 80 3f
       1.011983 0.9930216 0.99441063 1.0048393

feature_extract.batch_norms.0.bias f4 [64]
000000 7d 32 51 3c 62 89 e4 3b ba 57 16 3c 54 c1 4c bc
       0.012768385 0.006974385 0.009176189 -0.012497265
000010 65 63 3c 3b 03 82 78 bb 86 c4 19 3c 7f f1 03 bb
       0.0028745767 -0.003791929 0.009385234 -0.0020132957
000020 4e 28 8b bc 98 29 8b bb bd bc d8 3b 4c 35 f3 ba
       -0.016986992 -0.0042469017 0.006614296 -0.0018555312
000030 e8 04 c0 3b 8d c7 fe ba 86 55 c4 3b 76 69 ac 3c
       0.00585996 -0.0019438133 0.0059916405 0.021046381
000040 0c 9e ea bb c4 0f c1 ba 24 4a ea 3b f8 8c e0 ba
       -0.007159954 -0.001472943 0.0071499515 -0.0017131856
000050 af 4c de 3b d6 d7 8f 3b b5 c1 3b 3b 2d e1 04 3c
       0.0067840437 0.0043897433 0.0028649394 0.008110327
000060 a9 7b 08 bc 36 b8 be bc 9a 4f 33 3c d1 2c 93 bb
       -0.008330264 -0.023281198 0.010944271 -0.0044914265
000070 35 db 07 3c 90 72 07 3b 7f a9 82 ba 34 69 44 bb
       0.008292009 0.002066765 -0.0009968727 -0.0029969933
000080 1d cf 01 3c c1 b3 4f 3c 2f 42 b0 bb 3c 62 37 b8
       0.007922915 0.012677134 -0.0053789834 -4.3722088e-05
000090 db 19 6d 3c 7c f4 a0 3b 20 60 2e bc b8 cc aa ba
       0.014471496 0.0049119573 -0.010643035 -0.0013030982
0000a0 06 a5 c9 3b 94 b8 05 ba 25 4d a0 b9 39 9a ae bb
       0.0061537055 -0.00051010516 -0.00030575055 -0.0053284434
0000b0 ea 5a 28 ba 8d 54 9f bb a8 7f 0c bc a0 68 e0 3b
       -0.00064222387 -0.004862374 -0.0085753575 0.00684841
0000c0 67 5f 5e 3c db 3f ef bb cd db a5 3b fa 47 2c bc
       0.01357255 -0.0073013133 0.0050616027 -0.010515207
0000d0 bd e1 93 bb e5 d0 28 3c b4 2d 9d 3b 74 2e f6 bb
       -0.004512994 0.010303711 0.004796708 -0.007512862
0000e0 d0 e0 71 bc 4d d6 9f 3b 8e cd ec 3b 36 01 29 3b
       -0.014763072 0.0048778416 0.0072266525 0.0025788075
0000f0 2b 00 0a 3c 70 ff 1b bc 6e 52 17 3b 83 82 0e 3c
       0.008422892 -0.00952135 0.0023089903 0.008698109
