SavedNetwork/30_15_1_199.pth (torch_old, 86544 bytes, 30 tensors)

feature_extract.mlps.0.linears.0.weight f4 [64, 2]
-0.30207103 0.41856158 0.49728492 -0.24029075 0.07581893 -0.421406 -0.5260307 0.35699895
0.5236355 -0.0034023453 -0.6997834 -0.19348273 -0.42496327 -0.19010483 -0.18596846 -0.6042045
-0.38192442 0.2884061 -0.36267662 -0.32706702 -0.3928172 0.5572757 -0.2987828 -0.23041771
-0.13807072 0.6664047 -0.41532084 0.24564238 0.614018 0.14109273 0.698273 -0.35088485
0.5390193 -0.620965 0.38940364 -0.5247919 -0.55186284 0.13002989 -0.0005946186 0.22976546
0.015378068 0.013854528 -0.34710306 0.22413693 -0.21366796 0.14315474 0.01544633 -0.04773406
-0.32441315 0.49445173 -0.6272666 -0.021883491 0.382123 -0.17712733 0.47967133 -0.47985378
-0.5932452 -0.34020424 -0.52349025 -0.018843256 -0.28249684 0.22782864 0.43300104 0.12890068
-0.022576993 -0.26229262 -0.3625156 0.5524108 0.5210188 0.3489071 -0.3356912 -0.24367039
0.07341405 0.055824406 -0.033160426 -0.44350734 -0.47645348 0.36394173 0.41188824 0.55184996
0.6719201 -0.15168262 -0.057658166 0.028952984 0.15758164 0.12893614 0.035510328 -0.32902223
-0.009735376 0.38185018 0.33085173 0.631944 0.316817 -0.6759343 0.30245528 -0.5434637
0.55895615 -0.55012804 -0.5483304 0.17030463 0.13864288 0.5068511 -0.4613009 0.55283844
0.112634644 -0.13144733 -0.49227685 0.3505 0.10000784 0.5502756 -0.41623685 0.5921907
-0.46939656 -0.42137668 0.40153307 -0.08273725 -0.43617356 -0.045758657 0.6924252 -0.03094715
0.24876566 -0.15962876 0.15541697 0.6954765 0.3476671 -0.48730403 -0.42328346 -0.100850604
00000000: 0ea9 9abe b44d d63e 219c fe3e c70e 76be
00000010: f546 9b3d 87c2 d7be f3a9 06bf 91c8 b63e
00000020: fa0c 063f e2f9 5ebb 0125 33bf 5620 46be
00000030: c994 d9be d7aa 42be 846e 3ebe 25ad 1abf
00000040: 998b c3be f7a9 933e c0b0 b9be 5475 a7be
00000050: 561f c9be 9fa9 0e3f 0ffa 98be 9ff2 6bbe
00000060: 6962 0dbe 8099 2a3f efa4 d4be ad89 7b3e
00000070: 4930 1d3f 9d7a 103e 05c2 323f 2ea7 b3be
00000080: 2bfd 093f 90f7 1ebf ea5f c73e c358 06bf
00000090: e246 0dbf 8e26 053e 2ee0 1bba a347 6b3e
000000a0: 4bf4 7b3c 1afe 623c 7eb7 b1be 2784 653e
000000b0: c6cb 5abe 2897 123e 9b12 7d3c ca84 43bd
000000c0: 7b19 a6be c728 fd3e 8b94 20bf 0245 b3bc
000000d0: a0a5 c33e de60 35be 7b97 f53e 65af f5be
000000e0: ebde 17bf 402f aebe 7503 06bf 2c5d 9abc
000000f0: 6da3 90be e94b 693e 50b2 dd3e 8afe 033e
00000100: 63f3 b8bc 384b 86be a59b b9be cb6a 0d3f
00000110: 7d61 053f f4a3 b23e b8df abbe bb84 79be
00000120: 1b5a 963d 22a8 643d 3ad3 07bd 6513 e3be
00000130: b6f1 f3be 9256 ba3e 04e3 d23e 0a46 0d3f
00000140: f502 2c3f b052 1bbe f82a 6cbd cf2e ed3c
00000150: 155d 213e d607 043e 4773 113d 9a75 a8be
00000160: 2081 1fbc de81 c33e 6665 a93e 15c7 213f
00000170: d635 a23e 080a 2dbf 6bdb 9a3e 7020 0bbf
00000180: c017 0f3f 31d5 0cbf 625f 0cbf 5664 2e3e
00000190: 66f8 0d3e fec0 013f a22f ecbe d286 0d3f
000001a0: feac e63d 219a 06be b60b fcbe bc74 b33e
000001b0: e9d0 cc3d ddde 0c3f ff1c d5be cf99 173f
000001c0: bf54 f0be afbe d7be be95 cd3e 2672 a9bd
000001d0: 2452 dfbe 6e6d 3bbd c742 313f e184 fdbc
000001e0: 6dbc 7e3e b975 23be a025 1f3e bf0a 323f
000001f0: 6c01 b23e ea7f f9be 9cb8 d8be c38a cebd

feature_extract.mlps.0.linears.0.bias f4 [64]
0.3221771 -0.38953692 -0.045928285 0.34700346 -0.34905717 -0.38928235 0.009781958 -0.58141667
0.2930385 -0.1972662 0.5610032 0.05271293 0.33944836 -0.12251967 -0.25186267 -0.30503806
0.34343696 0.640731 0.25656983 -0.16604494 0.36917505 -0.53431326 -0.60659283 -0.23116796
0.31367058 -0.073613316 -0.48853007 -0.5848917 0.35150698 -0.3652657 -0.28796393 0.6325971
0.102329664 -0.41375718 0.060035255 0.38838494 -0.33152768 -0.4392755 -0.6614749 -0.6011439
-0.5274877 0.36678305 0.060050238 0.21614836 0.3978841 0.634921 -0.18856604 0.63236976
0.11261309 0.56814927 -0.6600656 -0.30971184 -0.26626453 0.51560795 0.4153262 -0.69482094
-0.4007822 -0.54947937 -0.6956384 -0.6574519 0.338257 0.24815507 -0.056332026 -0.029493457
00000000: 66f4 a43e 6271 c7be 4c1f 3cbd 70aa b13e
00000010: 9fb7 b2be 0450 c7be 8144 203c b9d7 14bf
00000020: 2409 963e 2700 4abe e89d 0f3f 83e9 573d
00000030: 2dcc ad3e 98eb fabd 25f4 80be f32d 9cbe
00000040: f8d6 af3e f206 243f 1f5d 833e af07 2abe
00000050: 8304 bd3e c1c8 08bf ab49 1bbf 4bb7 6cbe
00000060: 6e99 a03e 94c2 96bd 9d20 fabe 76bb 15bf
00000070: b9f8 b33e 1b04 bbbe 0270 93be e2f1 213f
00000080: 3792 d13d fbd7 d3be 87e7 753d 64da c63e
00000090: ffbd a9be b8e8 e0be 6b56 29bf 91e4 19bf
000000a0: 6f09 07bf fdca bb3e 3df7 753d ff55 5d3e
000000b0: 77b7 cb3e 2f8a 223f 7517 41be fce2 213f
000000c0: b1a1 e63d 3b72 113f 0ffa 28bf 8d92 9ebe
000000d0: d353 88be e2fe 033f a3a5 d43e c9df 31bf
000000e0: 5333 cdbe aeaa 0cbf 5c15 32bf c54e 28bf
000000f0: 0630 ad3e 5d1c 7e3e 69bc 66bd 439c f1bc

feature_extract.mlps.0.linears.1.weight f4 [64, 64]
-0.07900141 0.06971143 -0.12530549 -0.100971274 -0.09770747 -0.06034189 -0.10323642 0.07647887
-0.12895453 0.007028304 0.0145351 -0.00404676 0.034102887 0.11046718 0.070857905 0.0351225
-0.048960626 -0.012746779 0.11244913 0.031191913 -0.03025839 -0.021312702 -0.11658275 -0.10246518
0.060971014 0.011143686 0.096718565 0.07890106 -0.023235042 0.101970926 0.029520815 0.09641366
0.07914955 0.10206568 -0.07770399 -0.02230439 0.0702563 -0.11114652 0.016388372 -0.10460737
-0.052925635 -0.057165734 -0.05822796 0.021274328 0.08327944 -0.10572519 0.08240375 -0.045964807
-0.011439149 -0.025791219 -0.028659144 -0.016255228 -0.034898054 -0.090953104 -0.0006506996 0.04295605
0.018351095 0.07155103 -0.040236123 0.01593642 0.08500518 0.113743536 -0.118505575 0.0892373
0.088185415 -0.08541142 -0.045041375 0.0440623 0.07585065 -0.12662031 -0.00053598493 -0.011656586
-0.011031325 0.092160515 0.002897983 -0.06306484 0.08965831 -0.036387067 0.08319004 0.10384737
0.038423058 -0.083862804 -0.05944767 -0.09848227 -0.069745705 -0.12119562 0.0003746537 -0.05130591
0.10509081 0.02041114 -0.055888318 -0.13113987 0.05077991 -0.11651662 -0.049437303 0.046197366
0.05487726 -0.04032733 0.08002192 -0.07247121 -0.07815708 0.07666663 0.002854958 0.04518702
0.013903496 0.035371017 -0.0779047 0.03505828 -0.019018669 -0.08764769 0.11503741 0.07091574
-0.007897544 0.11490841 -0.11975246 0.08140844 -0.011904272 -0.0832827 0.12401472 0.107223056
-0.06081406 -0.06423115 -0.055763394 -0.044027183 0.030447021 0.04867774 0.017399851 -0.12950268
-0.07785616 -0.04382693 -0.011817652 -0.011142888 -0.0018162439 -0.020974508 -0.09223059 0.042124525
-0.09947107 -0.09654615 0.01153492 0.11652488 -0.049062576 -0.10716357 -0.0032027839 0.049159985
0.038976617 -0.00014156081 -0.07900313 0.004482822 0.0070012514 -0.112193264 0.044243537 0.033412695
0.046387117 0.084522456 -0.056538116 0.056436263 0.094914906 -0.12200164 -0.10615214 0.0099226
-0.04777946 0.07439944 0.12231751 -0.011964594 0.010310088 -0.07908049 0.11294137 -0.032590974
-0.08164282 -0.12361347 -0.077569775 -0.009740346 -0.06298799 -0.003399113 0.008736954 -0.0015008418
0.008333216 -0.016048538 0.06271386 -0.11460905 -0.082964905 -0.018991726 -0.06849798 0.08542309
0.08282511 0.02773954 -0.043659948 -0.0076961173 0.09504287 0.0076394323 0.10119614 0.10342554
0.0174414 0.10224284 -0.009768405 -0.015184503 -0.0035744552 -0.10536566 0.10453219 0.12719026
-0.01813507 -0.082975276 -0.04159143 -0.0036244679 -0.11175651 0.052110124 -0.07489641 0.07991953
0.032452118 0.092913315 0.06561057 0.09305539 0.10457597 0.073225476 -0.075054064 -0.071165144
0.045368407 0.1090332 -0.0651684 -0.07161591 -0.118961394 0.029882738 -0.08196006 -0.06218456
0.042017546 -0.07280122 0.089155406 -0.010257748 0.022452522 0.043102 0.0090400735 0.06720399
-0.10396013 0.082821116 0.047731597 0.01175823 0.059377868 0.090645954 -0.05447091 0.12331375
-0.013966814 -0.10626903 0.048917443 -0.07652601 0.017677978 -0.08872939 0.012716741 0.0127443755
-0.1111901 -0.04637629 -0.048796125 -0.09023223 0.041046787 -0.052977238 0.01749793 0.06684662
00000000: 7ecb a1bd dec4 8e3d 1550 00be 07ca cebd
00000010: db1a c8bd 0f29 77bd 9e6d d3bd f4a0 9c3d
00000020: a80c 04be b04d e63b a124 6e3c af9a 84bb
00000030: 78af 0b3d 9e3c e23d f31d 913d 9cdc 0f3d
00000040: f08a 48bd ded7 50bc bb4b e63d 2f86 ff3c
00000050: 71e0 f7bc fa97 aebc f0c2 eebd 44d9 d1bd
00000060: bebc 793d 0294 363c 6214 c63d e196 a13d
00000070: 6a57 bebc 22d6 d03d a3d5 f13c 8674 c53d
00000080: 2919 a23d d007 d13d 4523 9fbd b2b7 b6bc
00000090: 89e2 8f3d c9a0 e3bd e840 863c 643c d6bd
000000a0: 8dc8 58bd 9e26 6abd 7180 6ebd 8047 ae3c
000000b0: 698e aa3d 7386 d8bd 4cc3 a83d 9845 3cbd
000000c0: 456b 3bbc 1b48 d3bc 95c6 eabc af29 85bc
000000d0: 43f1 0ebd 9f45 babd b693 2aba aff2 2f3d
000000e0: 0955 963c 5989 923d a2ce 24bd 188d 823c
000000f0: 3217 ae3d 5ff2 e83d 0db3 f2bd 0cc2 b63d
00000100: 8e9a b43d 2fec aebd 4e7d 38bd ac7a 343d
00000110: 9657 9b3d c1a8 01be 5781 0cba 44fb 3ebc
00000120: bbbc 34bc a7be bc3d 16ec 3d3b 2428 81bd
00000130: c79e b73d 9b0a 15bd 8a5f aa3d eead d43d
00000140: 7f61 1d3d 43c0 abbd 667f 73bd 13b1 c9bd
00000150: d6d6 8ebd 6935 f8bd 2b6d c439 2526 52bd
00000160: da39 d73d 4335 a73c 26eb 64bd 8849 06be
00000170: 98fe 4f3d 44a0 eebd c57e 4abd 7339 3d3d
00000180: fac6 603d 452e 25bd 88e2 a33d c96b 94bd
00000190: d210 a0bd 6503 9d3d 3f1a 3b3b 0616 393d
000001a0: 7dcb 633c 33e1 103d 808c 9fbd 4599 0f3d
000001b0: 0acd 9bbc a280 b3bd bc98 eb3d 463c 913d
000001c0: b364 01bc 1a55 eb3d c740 f5bd 78b9 a63d
000001d0: 230a 43bc 1f90 aabd 6efb fd3d c397 db3d
000001e0: 2a18 79bd 9f8b 83bd 2868 64bd d955 34bd
000001f0: 086c f93c 4f62 473d 228a 8e3c 5a9c 04be
00000200: 0d73 9fbd de83 33bd d39e 41bc a990 36bc
00000210: 080f eeba bbd2 abbc 64e3 bcbd c48a 2c3d
00000220: 7db7 cbbd fdb9 c5bd f6fc 3c3c 99a4 ee3d
00000230: d7f5 48bd 9378 dbbd cce5 51bb fb5b 493d
00000240: f2a5 1f3d f16f 14b9 65cc a1bd a3e4 923b
00000250: c16a e53b 95c5 e5bd b638 353d c0db 083d
00000260: 6b00 3e3d 1c1a ad3d 8394 67bd b629 673d
00000270: bf62 c23d ffdb f9bd 4b66 d9bd 6792 223c
00000280: 65b4 43bd bc5e 983d 9a81 fa3d 2507 44bc
00000290: a5eb 283c f4f4 a1bd ce4d e73d 1d7e 05bd
000002a0: 5a34 a7bd 0f29 fdbd e7dc 9ebd f995 1fbc
000002b0: d9ff 80bd a7c3 5ebb 7125 0f3c e5b7 c4ba
000002c0: 0b88 083c 3978 83bc 2070 803d 26b8 eabd
000002d0: 81e9 a9bd 8994 9bbc ab48 8cbd 4df2 ae3d
000002e0: 36a0 a93d 083e e33c c6d4 32bd b62f fcbb
000002f0: d6a5 c23d 3454 fa3b ec3f cf3d c5d0 d33d
00000300: 44e1 8e3c b264 d13d a90b 20bc 6cc8 78bc
00000310: 6841 6abb f3c9 d7bd f914 d63d 2a3e 023e
00000320: 0090 94bc f1ee a9bd c65b 2abd 7b88 6dbb
00000330: 99e0 e4bd 6d71 553d 4a63 99bd daac a33d
00000340: 83ec 043d 5649 be3d d65e 863d d393 be3d
00000350: ed2b d63d 3df7 953d f2b5 99bd 08bf 91bd
00000360: 39d4 393d cc4c df3d 0377 85bd 5dab 92bd
00000370: 08a2 f3bd a5cc f43c adda a7bd 3db5 7ebd
00000380: 971a 2c3d ce18 95bd 1c97 b63d 1d10 28bc
00000390: 5aee b73c b98b 303d d11c 143c 3fa2 893d
000003a0: 0ce9 d4bd 1e9e a93d 3582 433d 97a5 403c
000003b0: 3536 733d 96a4 b93d e41c 5fbd eb8b fc3d
000003c0: 10d5 64bc 94a3 d9bd a85d 483d abb9 9cbd
000003d0: 68d1 903c c1b7 b5bd e159 503c c9cd 503c
000003e0: a3b7 e3bd 11f5 3dbd 72de 47bd adcb b8bd
000003f0: ad20 283d a9fe 58bd d257 8f3c e1e6 883d

feature_extract.mlps.0.linears.1.bias f4 [64]
0.038900703 0.054559585 0.011300959 0.104291245 -0.09095675 0.029810285 0.028145386 0.021317173
0.08079097 0.10419528 0.08924441 -0.014836492 0.107296474 0.050929755 0.04285555 0.0044042342
-0.06367444 0.07192407 0.032715455 0.028203892 -0.03681859 0.10985153 0.0901609 0.11546769
-0.027778497 0.046321277 -0.047073778 0.09363753 0.10690235 0.03441098 0.10674884 -0.09227512
0.03063128 0.066594146 -0.086427845 -0.0035047182 0.065514915 -0.0376927 -0.088235416 0.06962769
-0.0928252 -0.008806312 0.1149226 -0.033373885 -0.009343079 0.027457481 -0.1075845 -0.10778586
-0.043870483 0.027577262 0.12098176 0.03778446 -0.1263454 0.08623688 -0.05145232 0.014601993
0.08537798 0.06940619 0.055893574 0.029406514 -0.09998101 -0.02906134 0.10656267 -0.122976005
00000000: 5856 1f3d df79 5f3d a827 393c a696 d53d
00000010: 8847 babd b334 f43c 2791 e63c 5aa1 ae3c
00000020: bc75 a53d 5664 d53d c6c5 b63d c214 73bc
00000030: 41be db3d b89b 503d 4d89 2f3d 6551 903b
00000040: bf67 82bd ed4c 933d a400 063d d90b e73c
00000050: 17cf 16bd d7f9 e03d 47a6 b83d 537a ec3d
00000060: bb8f e3bc 61bb 3d3d 6fd0 40bd 09c5 bf3d
00000070: 9fef da3d 87f2 0c3d 239f da3d bdfa bcbd
00000080: 73ee fa3c 8362 883d 1501 b1bd 6aaf 65bb
00000090: af2c 863d a963 1abd c5b4 b4bd f698 8e3d
000000a0: 231b bebd 5a48 10bc 8a5c eb3d 0eb3 08bd
000000b0: b713 19bc 83ee e03c 4355 dcbd d5be dcbd
000000c0: 89b1 33bd b6e9 e13c 49c5 f73d e1c3 1a3d
000000d0: b060 01be f69c b03d abbf 52bd 333d 6f3c
000000e0: a6da ae3d d524 8e3d a9f0 643d eee5 f03c
000000f0: d8c2 ccbd 0c12 eebc 873d da3d d8da fbbd

feature_extract.mlps.0.batch_norms.0.weight f4 [64]
0.989575 1.0005422 1.0101998 1.0002275 0.99262744 1.0069145 1.0112725 1.0089442
1.0087945 0.99515915 1.0034392 1.0033212 0.9941014 1.0007749 1.0030917 0.99995613
0.99875814 0.9947012 0.99645525 1.0027679 1.0052755 0.99549514 0.99890745 0.99775255
0.996661 0.9951878 1.0024 1.0069538 1.0043705 1.0006236 1.0010505 1.001594
1.0105696 0.9943801 1.0002764 0.9938698 0.99254036 1.0011864 0.9976384 0.9859445
0.9950428 1.0040818 0.99972975 0.99959356 0.9984282 0.9993499 1.002367 1.0004629
1.0004325 0.9909374 1.0011775 1.005504 0.99985343 1.0048128 0.9934726 0.99420846
1.0086509 1.0027046 0.9975733 0.99665636 0.9976761 1.0041775 0.9969912 0.9991018
00000000: ca54 7d3f c411 803f 3a4e 813f 7407 803f
00000010: d51c 7e3f 93e2 803f 6171 813f 1525 813f
00000020: 2e20 813f c0c2 7e3f b270 803f d46c 803f
00000030: 6e7d 7e3f 6419 803f 4f65 803f 20fd 7f3f
00000040: 9dae 7f3f bda4 7e3f b117 7f3f b35a 803f
00000050: deac 803f c5d8 7e3f 66b8 7f3f b66c 7f3f
00000060: 2d25 7f3f a1c4 7e3f a54e 803f dde3 803f
00000070: 368f 803f 6f14 803f 6c22 803f 3b34 803f
00000080: 585a 813f b28f 7e3f 0f09 803f 406e 7e3f
00000090: 2017 7e3f e026 803f 3b65 7f3f dc66 7c3f
000000a0: 20bb 7e3f c185 803f 4aee 7f3f 5de5 7f3f
000000b0: fe98 7f3f 65d5 7f3f 904d 803f 2b0f 803f
000000c0: 2c0e 803f 13ae 7d3f 9626 803f 5bb4 803f
000000d0: 65f6 7f3f b59d 803f 3854 7e3f 7284 7e3f
000000e0: 791b 813f a058 803f f760 7f3f df24 7f3f
000000f0: b367 7f3f e388 803f d13a 7f3f 23c5 7f3f

feature_extract.mlps.0.batch_norms.0.bias f4 [64]
-0.004280906 0.0022966794 0.0053590913 0.0042405133 0.004349276 0.010121685 0.014243313 0.006970329
0.004429872 -0.003253952 0.014750228 -0.003776477 -0.000966097 0.0058549913 -0.004984748 0.0051633734
0.008213103 0.009827602 -0.0014772906 -0.0046324614 -0.005203303 0.0029082084 -0.0051619606 0.0057539027
0.012115513 -0.0077703437 -0.0001206765 0.0063750832 0.006152001 0.0058489204 -0.0017501056 -0.0052627516
0.018711643 -0.0119899 0.0141395945 0.004795757 0.0038289183 0.013014426 0.009418655 -0.025639609
-0.003079621 0.003909693 -0.0032970854 -0.0005810006 0.002185015 -0.004761808 0.012554307 0.002017341
0.0009294947 -0.017249554 0.004545252 -0.010228974 -0.0038120246 0.008088103 -0.003426758 -0.010602763
0.002571217 0.0043909317 0.0028060458 -0.0070259827 -0.00355578 0.0038948234 0.0031559025 -0.0056360597
00000000: d846 8cbb e383 163b 519b af3b 01f4 8a3b
00000010: 5f84 8e3b 6dd5 253c c95c 693c 5c67 e43b
00000020: 7628 913b 4140 55bb f1aa 713c c57e 77bb
00000030: ac41 7dba 3adb bf3b 1957 a3bb 8431 a93b
00000040: 4090 063c f303 213c a6a1 c1ba e7cb 97bb
00000050: 7880 aabb a497 3e3b aa25 a9bb 3c8b bc3b
00000060: 2580 463c 5e9e febb b413 fdb8 13e6 d03b
00000070: ba96 c93b 4da8 bf3b cd63 e5ba 2973 acbb
00000080: 2949 993c 4971 44bc c2a9 673c ba25 9d3b
00000090: 97ee 7a3b 763a 553c b450 1a3c 280a d2bc
000000a0: 77d3 49bb e21c 803b ea13 58bb 4a4e 18ba
000000b0: 7832 0f3b f108 9cbb 94b0 4d3c 5e35 043b
000000c0: 55a9 733a f04e 8dbc 56f0 943b 6d97 27bc
000000d0: 29d3 79bb f683 043c 7693 60bb 36b7 2dbc
000000e0: dd81 283b cee1 8f3b a3e5 373b 373a e6bb
000000f0: 1708 69bb 4b40 7f3b 42d3 4e3b b2ae b8bb

feature_extract.mlps.0.batch_norms.0.running_mean f4 [64]
-0.1355392 1.643162 -0.8327742 -1.5101188 2.5028806 -4.7650666 -2.8544989 -3.3199692
-0.97207177 -3.1115544 0.0027605868 -2.2369084 1.484445 -1.6920345 3.5058846 2.5108058
1.5191225 1.2729115 -2.3886845 0.48563772 0.4927068 -1.7923216 -1.3662211 -0.2828176
-0.04982383 -3.5639653 1.0948585 0.66869 -3.8602738 -3.2798188 -1.182381 3.3663454
-0.7687012 -0.82027024 3.9019098 -2.1407142 0.22879969 -1.8846853 -2.2278714 3.2228138
2.7121527 0.13421334 1.2887496 -0.5276473 1.4331207 4.244323 -0.38388908 0.73616016
1.5991701 -1.943001 1.5423573 -1.2548617 -0.02540539 -1.1755774 2.530389 -1.2815281
-4.1671124 1.4090369 -3.2097337 3.0383964 1.2427341 3.0799122 0.45461807 -2.6301816
00000000: caca 0abe 2253 d23f b130 55bf 934b c1bf
00000010: 322f 2040 6d7b 98c0 1cb0 36c0 607a 54c0
00000020: b2d9 78bf b523 47c0 f6ea 343b 8229 0fc0
00000030: 4b02 be3f 9694 d8bf 6a60 6040 0bb1 2040
00000040: 9b72 c23f c4ee a23f 35e0 18c0 82a5 f83e
00000050: 1144 fc3e cb6a e5bf 55e0 aebf 78cd 90be
00000060: 1314 4cbd 0218 64c0 5324 8c3f 452f 2b3f
00000070: ba0e 77c0 8de8 51c0 4358 97bf 3472 5740
00000080: 9ac9 44bf 3bfd 51bf e4b8 7940 7601 09c0
00000090: 774a 6a3e 5e3d f1bf 7295 0ec0 9542 4e40
000000a0: e993 2d40 396f 093e bff5 a43f e513 07bf
000000b0: 8070 b73f 7ed1 8740 1c8d c4be fe74 3c3f
000000c0: 9bb1 cc3f 42b4 f8bf f76b c53f 4f9f a0bf
000000d0: f71e d0bc 5279 96bf e5f1 2140 1d09 a4bf
000000e0: fc58 85c0 525b b43f 476c 4dc0 1675 4240
000000f0: e911 9f3f 481d 4540 b3c3 e83e e554 28c0

feature_extract.mlps.0.batch_norms.0.running_var f4 [64]
0.9499372 2.6308227 0.08661225 2.9197965 2.9986384 5.4703364 2.0467527 0.5618344
1.5350392 1.5577095 1.6064137 1.0431211 0.25872633 1.8263385 4.1958942 5.182565
3.02962 1.5787287 3.2824125 0.014136567 0.0028003384 1.2728819 0.4818916 0.0026670916
1.0960655 4.315431 1.5548538 2.4053469 4.0344934 3.0058768 0.83845675 2.0980468
0.028608711 1.368649 3.1404219 1.3108263 0.06290901 0.07619877 2.3882563 2.1102493
4.868751 0.03533645 0.29154217 0.034150433 0.037544098 1.4634992 1.0593956 0.95618135
3.2673397 3.226795 0.33274296 2.217742 0.13226397 2.5540273 0.23271348 1.8036782
2.608193 1.7407329 2.0971768 5.2297816 0.65391344 0.47647586 1.2583475 1.9953386
00000000: 162f 733f 665f 2840 c361 b13d f2dd 3a40
00000010: b1e9 3f40 ff0c af40 fffd 0240 61d4 0f3f
00000020: 2a7c c43f 0663 c73f f79e cd3f fe84 853f
00000030: c777 843e 76c5 e93f c444 8640 93d7 a540
00000040: 4be5 4140 c813 ca3f 0c13 5240 0f9d 673c
00000050: e285 373b cbed a23f 7fba f63e 5fca 2e3b
00000060: e04b 8c3f 0318 8a40 7305 c73f 34f1 1940
00000070: 921a 8140 4960 4040 1aa5 563f 6646 0640
00000080: d15c ea3c e42f af3f acfc 4840 28c9 a73f
00000090: 70d6 803d 1a0e 9c3d 31d9 1840 530e 0740
000000a0: cfcc 9b40 f4bc 103d 0445 953e 53e1 0b3d
000000b0: d7c7 193d f153 bb3f 469a 873f 4dc8 743f
000000c0: 181c 5140 cf83 4e40 495d aa3e 7cef 0d40
000000d0: 3570 073e 2f75 2340 714c 6e3e edde e63f
000000e0: a2ec 2640 56d0 de3f 2538 0640 5f5a a740
000000f0: df66 273f a5f4 f33e 8811 a13f 4167 ff3f

feature_extract.mlps.1.linears.0.weight f4 [64, 64]
0.12526101 0.081934676 0.094715305 0.1255875 0.003890656 -0.05639744 -0.06820503 0.013023627
0.048179034 -0.028584942 0.07401522 -0.11031573 -0.10708087 -0.04869029 -0.021780947 0.0032798431
-0.041322406 -0.036174953 -0.06497184 0.02628776 0.045623433 0.027514754 -0.035334013 -0.03762781
0.0852203 -0.020490607 0.024959235 -0.00616131 -0.04691606 0.01416695 0.110918574 0.058358487
-0.026957255 0.0426065 -0.07080739 0.091995016 -0.060148805 0.054085642 -0.114636905 0.11828645
0.09788706 0.07158907 0.065762 0.035510123 0.07889437 0.07999918 -0.051825926 -0.1333167
0.06755748 -0.12047318 0.03601685 -0.064420626 0.045501813 -0.02309567 0.08362072 0.060815535
0.017540859 -0.06858437 0.07060844 -0.04715704 0.04906752 0.077907115 -0.030490164 0.053091068
-0.025422724 -0.10011541 -0.102229215 0.07348644 -0.035774104 0.109897576 -0.09602981 0.10501458
-0.05680724 0.08149962 -0.1330589 0.101494834 0.034362763 -0.07310407 0.06396444 -0.08244346
0.068457685 -0.02601893 -0.024297867 0.04945616 -0.054308113 0.053842776 -0.035971187 -0.06063204
-0.11396947 0.105755806 -0.03600737 0.0912828 0.023288244 -0.06988607 0.09499061 -0.070785694
-0.014708604 0.03305992 -0.11048891 -0.015588451 -0.044118233 -0.009133932 -0.04463139 -0.118375234
-0.06415745 0.011496035 -0.02558973 -0.046199255 0.005806864 0.0023272883 -0.05938788 -0.05157692
0.092088826 0.05484542 0.093815394 0.09660571 0.08873953 0.12529668 -0.077803016 0.035548568
-0.049954187 -0.0865816 -0.100583315 -0.09748692 0.049243025 0.046387173 0.041217502 -0.060846854
-0.062114313 0.0915523 -0.06837254 0.069000326 -0.0625131 -0.10081004 -0.011151809 0.10964037
0.11031229 -0.12112452 0.0038244764 -0.12465319 -0.097072884 0.026875598 -0.008007638 -0.022532798
-0.06476944 -0.0281314 0.016065668 -0.013310975 -0.04955216 -0.047286734 0.11283301 0.021974856
-0.025362834 -0.08280154 -0.047055054 -0.022132998 0.115282185 -0.09209133 -0.0813031 -0.07130701
-0.022021485 0.06956243 -0.039237168 -0.034541193 -0.112688564 0.046826776 0.013158878 -0.047614988
0.11951349 0.095077336 0.006067138 -0.040163297 -0.0031476915 0.002316792 -0.01910932 0.12850067
0.0694354 -0.07614983 -0.07608799 0.04595129 -0.008732109 -0.021252979 -0.09857739 -0.064972885
0.12832102 0.07443864 -0.033600464 -0.011643011 0.05549312 0.011766635 0.032906838 0.089422315
0.07365791 -0.056848586 0.09647743 0.05260557 -0.057725903 -0.020402892 0.046313003 -0.049854316
-0.07631268 -0.0730715 0.08342891 -0.075126626 -0.11771865 0.08190362 -0.091482274 0.11516732
-0.113594025 0.018310092 0.015095779 0.029267063 0.053665776 -0.11284641 0.047773328 -0.008082464
-0.027264927 0.10608519 -0.034711562 -0.03251332 -0.0937621 -0.11984271 -0.09642535 0.021637937
0.038872387 -0.02366472 -0.060373344 -0.0028295005 -0.03722123 0.033487305 0.04472384 -0.04642646
-0.03332292 -0.1069919 0.12802967 0.056229364 -0.11949985 0.063239254 0.06028782 0.07002826
-0.019774355 -0.09093641 0.023529064 -0.03919799 -0.02919679 -0.048542917 -0.068523236 0.046036586
0.07125619 0.005059974 0.110758856 -0.056144796 -0.08679931 -0.1280184 -0.1043705 -0.109217346
00000000: 6c44 003e 5ecd a73d 19fa c13d 029a 003e
00000010: 60fa 7e3b 0101 67bd 14af 8bbd 0d61 553c
00000020: 6157 453d f82a eabc 4b95 973d 37ed e1bd
00000030: 374d dbbd 786f 47bd f56d b2bc a3f2 563b
00000040: af41 29bd 302c 14bd f50f 85bd 6e59 d73c
00000050: a3df 3a3d 9f66 e13c 66ba 10bd 9e1f 1abd
00000060: fb87 ae3d ebdb a7bc 4f77 cc3c d0e4 c9bb
00000070: 0e2b 40bd 7f1c 683c 4729 e33d 4f09 6f3d
00000080: 76d5 dcbc 2784 2e3d 7703 91bd e267 bc3d
00000090: 985e 76bd e888 5d3d c1c6 eabd 2b40 f23d
000000a0: 0379 c83d 4a9d 923d 3aae 863d 1073 113d
000000b0: 5f93 a13d 9cd6 a33d 6c47 54bd 2c84 08be
000000c0: 935b 8a3d a5ba f6bd 6886 133d f6ee 83bd
000000d0: 1c60 3a3d 2133 bdbc 5741 ab3d b619 793d
000000e0: d9b1 8f3c f675 8cbd 289b 903d be27 41bd
000000f0: 06fb 483d c48d 9f3d 82c6 f9bc 0576 593d
00000100: 5143 d0bc 4f09 cdbd 8d5d d1bd 0f80 963d
00000110: de87 12bd fb11 e13d 47ab c4bd e211 d73d
00000120: b5ae 68bd 46e9 a63d 9840 08be 86dc cf3d
00000130: f8bf 0c3d 96b7 95bd caff 823d 1ed8 a8bd
00000140: 8b33 8c3d a725 d5bc 520c c7bc 8b92 4a3d
00000150: 2f72 5ebd 3e8a 5c3d 8656 13bd 4d59 78bd
00000160: d368 e9bd 8096 d83d 777c 13bd 7af2 ba3d
00000170: fdc6 be3c 6e20 8fbd 708a c23d 17f8 90bd
00000180: 5bfc 70bc d769 073d 0248 e2bd b466 7fbc
00000190: 52b5 34bd 7da6 15bc 68cf 36bd b76e f2bd
000001a0: fb64 83bd de59 3c3c 8ea1 d1bc 6e3b 3dbd
000001b0: 8147 be3b 6b85 183b b540 73bd 5242 53bd
000001c0: 1199 bc3d 97a5 603d 4922 c03d 37d9 c53d
000001d0: 12bd b53d c64d 003e 3057 9fbd 609b 113d
000001e0: c39c 4cbd b251 b1bd a0fe cdbd 39a7 c7bd
000001f0: 0eb3 493d 7a00 3e3d afd3 283d 8d3a 79bd
00000200: 946b 7ebd c67f bb3d e706 8cbd 0b50 8d3d
00000210: de06 80bd 7f75 cebd 14b6 36bc 218b e03d
00000220: 69eb e13d 2210 f8bd 11a4 7a3b 2c4a ffbd
00000230: 26ce c6bd 372a dc3c 7832 03bc b496 b8bc
00000240: d7a5 84bd d273 e6bc 269c 833c 4716 5abc
00000250: 35f7 4abd bcaf 41bd fe14 e73d 9d04 b43c
00000260: b8c5 cfbc db93 a9bd cdbc 40bd 4350 b5bc
00000270: 1119 ec3d 619a bcbd 3d82 a6bd 6909 92bd
00000280: 6766 b4bc bf76 8e3d 27b7 20bd 117b 0dbd
00000290: 43c9 e6bd 6fcd 3f3d 5698 573c ef07 43bd
000002a0: 7dc3 f43d e8b7 c23d d8ce c63b 4582 24bd
000002b0: 8049 4ebb 52d5 173b 268b 9cbc ae95 033e
000002c0: 2634 8e3d 71f4 9bbd 05d4 9bbd 6b37 3c3d
000002d0: 1f11 0fbc ba1a aebc f1e2 c9bd 8110 85bd
000002e0: 9666 033e 4973 983d a4a0 09bd 54c2 3ebc
000002f0: c14c 633d d8c8 403c 52c9 063d 0c23 b73d
00000300: f5d9 963d 10da 68bd f595 c53d f078 573d
00000310: ff71 6cbd f723 a7bc b4b2 3d3d 0a34 4cbd
00000320: d349 9cbd 83a6 95bd c7dc aa3d fddb 99bd
00000330: 7a16 f1bd 16bd a73d 0f5b bbbd d8dc eb3d
00000340: fca3 e8bd 0cff 953c 4954 773c 7bc1 ef3c
00000350: a5d0 5b3d 051c e7bd f7ad 433d 506c 04bc
00000360: b25a dfbc 3143 d93d b62d 0ebd b02c 05bd
00000370: 5806 c0bd 1870 f5bd a77a c5bd 0b42 b13c
00000380: a738 1f3d 84dc c1bc 0a4a 77bd 246f 39bb
00000390: 4a75 18bd fc29 093d 5830 373d ac29 3ebd
000003a0: 9d7d 08bd 921e dbbd 361a 033e c350 663d
000003b0: 56bc f4bd 9583 813d 5cf0 763d fa6a 8f3d
000003c0: d4fd a1bc de3c babd 06c0 c03c 128e 20bd
000003d0: 1b2e efbc f0d4 46bd e955 8cbd dc90 3c3d
000003e0: c4ee 913d 23ce a53b 8ad5 e23d 16f8 65bd
000003f0: d6c3 b1bd 4117 03be 33c0 d5bd 58ad dfbd

feature_extract.mlps.1.linears.0.bias f4 [64]
-0.07121381 0.044733174 -0.012285048 0.033152122 -0.05049455 -0.07369998 -0.046019714 0.09980242
0.087694414 0.024511484 0.012578458 -0.018324023 0.09091457 -0.0476914 0.041607335 -0.0384119
0.1191019 0.012541941 0.09582487 0.113631725 -0.059618037 -0.09058268 0.00040274538 0.027907692
0.11979064 0.10510867 -0.08537132 0.07987746 0.02017287 -0.07270017 -0.08802858 0.08728549
0.07843375 -0.109312564 -0.07579167 0.06165384 0.056844916 0.050122034 -0.056044362 0.0075372737
0.0031295172 -0.001081909 0.03513717 -0.008131054 0.07589131 -0.12204911 0.09720903 0.108731836
0.0151204225 0.068640046 -0.056881104 0.11117717 0.012964986 -0.11302858 0.058380593 0.09588162
0.03592416 0.06242568 -0.007435267 0.05019079 0.103938036 -0.11713822 -0.07357324 -0.1125388
00000000: 8cd8 91bd 223a 373d 3a47 49bc 85ca 073d
00000010: 60d3 4ebd 04f0 96bd 2b7f 3cbd 3665 cc3d
00000020: 2199 b33d 4fcc c83c e015 4e3c 431c 96bc
00000030: 6b31 ba3d 0f58 43bd 746c 2a3d cc55 1dbd
00000040: b2eb f33d b77c 4d3c d43f c43d c0b7 e83d
00000050: 0b32 74bd 6a83 b9bd 9227 d339 ac9e e43c
00000060: cc54 f53d 3743 d73d 29d7 aebd cb96 a33d
00000070: 9341 a53c d4e3 94bd 5448 b4bd bcc2 b23d
00000080: e0a1 a03d 44df dfbd aa38 9bbd bd88 7c3d
00000090: 37d6 683d c34c 4d3d c68e 65bd 3cfb f63b
000000a0: 9618 4d3b d8ce 8dba feeb 0f3d 1d38 05bc
000000b0: e76c 9b3d e2f4 f9bd 8715 c73d ccae de3d
000000c0: a6bb 773c 2793 8c3d 29fc 68bd dbb0 e33d
000000d0: 186b 543c 877b e7bd 7d20 6f3d 955d c43d
000000e0: 3625 133d 12b2 7f3d 8aa3 f3bb dc94 4d3d
000000f0: 77dd d43d 2ae6 efbd 91ad 96bd be7a e6bd

feature_extract.mlps.1.linears.1.weight f4 [64, 64]
-0.022640869 0.08190867 0.082351 -0.004401146 -0.06579739 -0.072029896 0.10905965 0.11541397
0.05787248 -0.0047740745 -0.10903348 -0.07430287 -0.09220076 0.07872829 -0.036659446 0.10222621
0.14323324 0.09560224 -0.002092422 0.014316461 0.12987538 -0.09037943 0.038246114 0.12061548
-0.02789378 -0.04377538 -0.11979596 -0.05477302 0.061065104 -0.029261822 0.054289278 -0.02002434
0.08965242 0.018636642 -0.10255037 -0.06636308 -0.04532247 0.084026136 -0.09720329 0.03817177
-0.07652788 0.06372836 -0.016279452 -0.03529097 0.0993405 -0.09097885 0.11397064 0.04005434
0.033197388 -0.06412275 0.00042567865 0.084764175 0.08276977 0.1308187 0.00095433224 0.007845289
-0.0066496907 -0.109168485 0.064152986 -0.09030795 0.07128503 -0.019341713 -0.004119197 0.06329926
-0.0015118998 0.080164544 0.086130634 -0.08312499 -0.1120549 -0.11648643 0.12223213 0.11109856
0.0050715823 0.043857355 0.0469833 -0.10198365 0.030029075 -0.04874436 -0.100814775 0.002590212
0.08515097 -0.10645885 0.018668458 -0.10386899 -0.046462193 -0.009072892 0.10854876 -0.105547406
-0.06023836 0.060729522 0.042175263 0.009137327 0.097133905 -0.049563635 0.033117957 -0.05658459
-0.016737798 -0.0034442006 0.029387083 -0.105325155 0.06288685 0.05622021 0.049145635 0.046271894
-0.032504734 0.013082791 -0.05856849 0.07616093 -0.02997497 0.10939795 -0.048558053 0.12548648
0.120444894 -0.05121572 0.06803656 0.081267014 -0.11524074 0.0806503 0.06004914 -0.09202956
-0.044777013 -0.113326825 -0.05053439 -0.09266734 -0.081718594 -0.07305437 -0.029776331 -0.027666662
-0.00097349443 0.08214322 0.069252335 -0.0451978 -0.09672092 0.11716178 0.09739571 -0.028447703
0.012359316 0.0704628 0.043310735 0.042928915 0.09566741 0.0140340505 -0.029446803 -0.11528612
0.044402584 -0.052557755 -0.07557069 0.068511695 -0.13069372 0.082518645 0.026084358 0.104876325
-0.03938234 0.10367329 0.0043819365 -0.09348448 0.0015293385 -0.016643954 0.046333157 0.010342803
0.002025109 -0.1272934 -0.09956793 -0.07053469 -0.05359221 -0.042056445 -0.050958775 0.07724663
0.040335417 -0.009598928 -0.14840476 0.11273095 0.062699206 -0.123336434 0.092094235 0.07867536
0.09039742 0.006021138 -0.105021626 -0.012281425 -0.09992701 0.09768152 0.057240646 0.037665628
0.0057358914 -0.048996743 -0.05865974 0.054347035 0.10974267 0.021892862 -0.011827147 0.0045819907
-0.0024513782 -0.015333751 0.0013697338 0.022375982 0.018519793 0.12291972 -0.0920559 -0.039145477
0.032491565 0.097470134 0.11187895 0.080949575 0.0049864957 0.095038116 -0.08616075 0.033687964
-0.03978435 0.06259341 -0.05731095 0.12741438 0.016179115 -0.11125687 0.071400665 -0.002150062
-0.13325018 0.111129306 -0.08325821 -0.015728727 0.13146545 -0.02534964 -0.10625706 0.13713339
-0.09036265 0.117029324 0.0849517 0.09580806 0.097983815 0.0055788155 -0.11901458 -0.07836691
0.07884147 0.10682464 0.061111562 -0.11681633 0.063947715 -0.010529974 -0.0052159103 -0.116063274
-0.1016076 -0.1069286 0.029498836 0.1316205 -0.059660915 -0.04558287 -0.08194558 -0.09853569
0.10807839 0.07407408 -0.0065906644 0.042303924 0.06776552 -0.022514874 -0.092334434 0.016931815
00000000: 5879 b9bc bcbf a73d a4a7 a83d 7d37 90bb
00000010: c8c0 86bd 6984 93bd aa5a df3d 295e ec3d
00000020: b20b 6d3d d76f 9cbb f24c dfbd 1a2c 98bd
00000030: c1d3 bcbd 4c3c a13d 3728 16bd fa5b d13d
00000040: bcab 123e 1bcb c33d 0421 09bb 978f 6a3c
00000050: 0dfe 043e da18 b9bd f5a7 1c3d 4005 f73d
00000060: 7f81 e4bc d04d 33bd 9657 f5bd ad59 60bd
00000070: 671f 7a3d 7db6 efbc 6f5e 5e3d 160a a4bc
00000080: b09b b73d dfab 983c ee05 d2bd 5ee9 87bd
00000090: 0ea4 39bd e515 ac3d 8512 c7bd 005a 1c3d
000000a0: a6ba 9cbd 0484 823d 7c5c 85bc 448d 10bd
000000b0: 0873 cb3d 1f53 babd 7069 e93d 0510 243d
000000c0: fcf9 073d ca52 83bd 9f2d df39 d798 ad3d
000000d0: 3283 a93d 56f5 053e 272c 7a3a 8789 003c
000000e0: a6e5 d9bb ba93 dfbd a462 833d 60f3 b8bd
000000f0: e3fd 913d 8372 9ebc 54fa 86bb 0ba3 813d
00000100: f02a c6ba 4f2d a43d 4265 b03d 6f3d aabd
00000110: 0a7d e5bd 7090 eebd d754 fa3d a487 e33d
00000120: 842f a63b c5a3 333d 9071 403d cedc d0bd
00000130: 89ff f53c 2ba8 47bd fa77 cebd 8cc0 293b
00000140: a263 ae3d 1907 dabd 98ee 983c 44b9 d4bd
00000150: 244f 3ebd 78a6 14bc d04e de3d 3d29 d8bd
00000160: 80bc 76bd 85bf 783d f8bf 2c3d bab4 153c
00000170: 24ee c63d 3d03 4bbd b2a6 073d 3ec5 67bd
00000180: b51d 89bc 19b8 61bb 2ebd f03c b7b4 d7bd
00000190: d2ca 803d 2a47 663d ef4c 493d 9987 3d3d
000001a0: af23 05bd 3459 563c 83e5 6fbd 43fa 9b3d
000001b0: 118e f5bc 080c e03d cfe4 46bd 877f 003e
000001c0: d0ab f63d 93c7 51bd c156 8b3d 526f a63d
000001d0: 5603 ecbd fc2b a53d 16f6 753d fe79 bcbd
000001e0: 1a68 37bd e517 e8bd 26fd 4ebd 60c8 bdbd
000001f0: 145c a7bd 889d 95bd 7eed f3bc 32a5 e2bc
00000200: 1b32 7fba b43a a83d 2bd4 8d3d 5421 39bd
00000210: 9e15 c6bd 84f2 ef3d 6777 c73d 280b e9bc
00000220: bb7e 4a3c cd4e 903d 9966 313d 3bd6 2f3d
00000230: 46ed c33d 13ef 653c 6c3a f1bc 211b ecbd
00000240: 7cdf 353d cd46 57bd cec4 9abd dc4f 8c3d
00000250: 93d4 05be 89ff a83d ddae d53c 66c9 d63d
00000260: 604f 21bd a952 d43d 5996 8f3b cb74 bfbd
00000270: 1674 c83a e758 88bc d6c7 3d3d dc74 293c
00000280: b1b7 043b 3359 02be 45ea cbbd 7e74 90bd
00000290: 8183 5bbd 6143 2cbd 26ba 50bd 7b33 9e3d
000002a0: c036 253d d244 1dbc 6bf7 17be 7cdf e63d
000002b0: 7168 803d d097 fcbd e79b bc3d 8c20 a13d
000002c0: 4822 b93d f74c c53b 9415 d7bd 0838 49bc
000002d0: 88a6 ccbd 400d c83d 2b75 6a3d 4647 1a3d
000002e0: 25f4 bb3b cfb0 48bd 3245 70bd ff9a 5e3d
000002f0: c4c0 e03d a958 b33c a6c6 41bc 8624 963b
00000300: 4da7 20bb 6a3a 7bbc a488 b33a d64d b73c
00000310: d2b6 973c 56bd fb3d ce87 bcbd 0257 20bd
00000320: e015 053d 6c9e c73d ca20 e53d e4c8 a53d
00000330: c265 a33b 58a3 c23d 0c75 b0bd 64fc 093d
00000340: eaf4 22bd f930 803d e3be 6abd ea78 023e
00000350: 108a 843c a4da e3bd 833a 923d 0ee8 0cbb
00000360: bc72 08be c397 e33d 4883 aabd 88d9 80bc
00000370: e19e 063e 0caa cfbc 4d9d d9bd b26c 0c3e
00000380: 0e10 b9bd 12ad ef3d 28fb ad3d 0437 c43d
00000390: bdab c83d 7fce b63b ebbd f3bd d57e a0bd
000003a0: a377 a13d e0c6 da3d 1e50 7a3d 663d efbd
000003b0: 05f7 823d e985 2cbc 3aea aabb 95b2 edbd
000003c0: a517 d0bd 62fd dabd 8ba7 f13c 86c7 063e
000003d0: 015f 74bd 1ab5 3abd 16d3 a7bd 14cd c9bd
000003e0: 3458 dd3d 27b4 973d 80f6 d7bb e146 2d3d
000003f0: a6c8 8a3d 1d71 b8bc d619 bdbd 97b4 8a3c

feature_extract.mlps.1.linears.1.bias f4 [64]
0.07726779 -0.034252185 -0.09377321 0.04417333 0.029503087 0.038201492 -0.021313652 -0.07568609
0.025470821 0.079992 0.12555498 -0.08988255 -0.03358374 0.09558098 -0.08257537 0.102640375
0.034760818 0.07416418 -0.043517902 0.10501271 -0.120559186 0.087107 0.011536367 0.036456276
0.0665013 -0.12225177 0.004044693 0.00032099863 0.0382115 -0.018038914 0.01985096 -0.0065250797
-0.1119924 -0.062142365 0.087449625 -0.10002512 -0.046042155 -0.09756599 -0.0050240015 0.05348821
-0.013397367 0.061762773 -0.08396348 -0.08294217 -0.11202289 0.05727369 0.022253016 -0.08417322
-0.116837054 -0.039103597 -0.0019682504 0.08420456 -0.08406233 0.08298318 0.048729632 -0.10971587
0.048461594 0.08310839 -0.06995067 0.08635109 0.11530547 -0.096083805 0.090887494 0.07917665
00000000: 933e 9e3d 054c 0cbd 2b0c c0bd 18ef 343d
00000010: 75b0 f13c 2b79 1c3d f899 aebc 4f01 9bbd
00000020: 2fa8 d03c d8d2 a33d 7c91 003e 5814 b8bd
00000030: 1b8f 09bd f6bf c33d 471d a9bd 1e35 d23d
00000040: 5c61 0e3d 64e3 973d d43f 32bd e710 d73d
00000050: bce7 f6bd 2865 b23d 0803 3d3c 2d53 153d
00000060: d531 883d 235f fabd 5889 843b b54b a839
00000070: a983 1c3d 58c6 93bc 7b9e a23c 56d0 d5bb
00000080: 455c e5bd fe88 7ebd ca18 b33d f8d9 ccbd
00000090: b396 3cbd aed0 c7bd 61a0 a4bb 7416 5b3d
000000a0: a180 5bbc f6fa 7c3d 0cf5 abbd 96dd a9bd
000000b0: 426c e5bd d197 6a3d f54b b63c 0263 acbd
000000c0: 4448 efbd 182b 20bd c3fd 00bb 7173 ac3d
000000d0: df28 acbd 16f3 a93d b998 473d b7b2 e0bd
000000e0: aa7f 463d bb34 aa3d 4c42 8fbd d7d8 b03d
000000f0: 4625 ec3d 96c7 c4bd 3923 ba3d 5e27 a23d

feature_extract.mlps.1.batch_norms.0.weight f4 [64]
0.99829555 1.0057343 1.0015087 1.0019106 0.9877963 1.0025398 0.9995678 1.0085925
0.9947879 1.0100116 0.99778193 1.0152932 0.99898267 0.995857 0.99652946 0.99061954
1.0067195 0.9849248 0.9883033 1.0082633 1.008799 0.99072456 0.9975619 1.0049196
1.0077896 0.9930298 1.0132979 1.0072062 1.0063516 0.9992722 0.9982138 1.0078114
1.0017625 0.99420756 0.99933386 0.99767077 0.9872417 0.9918829 0.98905003 0.9839923
1.0011421 0.99529713 0.99367934 0.9987579 0.99460614 1.0056809 1.0025907 1.0025344
0.9954824 0.98268074 1.0076283 1.0109519 1.01187 1.0041829 0.98700833 0.99521357
0.98543096 0.9974066 0.99487257 1.006282 0.9785337 0.9930987 1.0012383 1.0071262
00000000: 4c90 7f3f e7bb 803f 7031 803f 9b3e 803f
00000010: 38e0 7c3f 3953 803f ade3 7f3f 8f19 813f
00000020: 6baa 7e3f 0f48 813f a36e 7f3f 21f5 813f
00000030: 54bd 7f3f 7cf0 7e3f 8e1c 7f3f 3e99 7d3f
00000040: 2fdc 803f 0824 7c3f 7201 7d3f c60e 813f
00000050: 5320 813f 20a0 7d3f 3760 7f3f 35a1 803f
00000060: 40ff 803f 3337 7e3f bfb3 813f 22ec 803f
00000070: 21d0 803f 4ed0 7f3f f18a 7f3f f7ff 803f
00000080: c139 803f 6384 7e3f 58d4 7f3f 5a67 7f3f
00000090: dfbb 7c3f 0aec 7d3f 6232 7d3f ebe6 7b3f
000000a0: 6d25 803f cbcb 7e3f c561 7e3f 99ae 7f3f
000000b0: 829e 7e3f 27ba 803f e454 803f 0c53 803f
000000c0: efd7 7e3f f790 7b3f f7f9 803f df66 813f
000000d0: f584 813f 1189 803f 94ac 7c3f 51c6 7e3f
000000e0: 3445 7c3f 0a56 7f3f f8af 7e3f d9cd 803f
000000f0: 2f81 7a3f b73b 7e3f 9428 803f 83e9 803f

feature_extract.mlps.1.batch_norms.0.bias f4 [64]
-0.005670679 0.00606118 0.010974973 0.007773943 -0.005870929 0.00017832979 0.0064581754 0.004612597
0.00518773 0.009788848 -0.0108213015 0.022049678 -0.004646375 -1.544216e-05 0.0042590275 0.0043508606
-0.002200795 -0.008714394 -0.0047573433 0.0011337725 0.002827607 0.0038474367 -0.0035484906 0.006416149
0.0014475572 -0.009522976 0.007257185 0.00856824 0.00053312216 0.0075216894 0.0031642918 0.01604239
0.0060121147 -0.0064338287 0.004187332 -0.0025488269 0.0037435791 -0.005843506 0.003885526 -0.010719008
0.0018481984 -0.010958887 0.003257448 -0.00036913028 -0.0018417106 0.017810801 0.004662992 0.01258353
0.005483148 -0.0064542107 0.0057265228 0.019950982 0.0012318937 0.0048974664 -0.0052258107 -0.0007774349
0.0009717976 0.0034630056 -0.012162444 -0.003394594 0.003076919 0.0039323135 0.0061779497 0.015139725
00000000: 1ad1 b9bb dd9c c63b 60d0 333c 8fbc fe3b
00000010: ec60 c0bb 0afe 3a39 1a9f d33b 4525 973b
00000020: d5fd a93b 6861 203c d44b 31bc 87a1 b43c
00000030: 9e40 98bb c989 81b7 508f 8b3b aa91 8e3b
00000040: 373b 10bb d1c6 0ebc 7de3 9bbb 189b 943a
00000050: 604f 393b 4725 7c3b cb8d 68bb 8f3e d23b
00000060: f6bb bd3a 4206 1cbc aecd ed3b ce61 0c3c
00000070: 39c1 0b3a 8178 f63b 0260 4f3b 556b 833c
00000080: 4601 c53b ded2 d2bb e335 893b 380a 27bb
00000090: d656 753b e27a bfbb 4fa4 7e3b c79e 2fbc
000000a0: 3f3f f23a e78c 33bc e97a 553b d487 c1b9
000000b0: 8e65 f1ba f5e7 913c 03cc 983b 262b 4e3c
000000c0: fbab b33b d87d d3bb 8ea5 bb3b 3e70 a33c
000000d0: 7e77 a13a ed7a a03b 473d abbb c6cc 4bba
000000e0: 3cc0 7e3a 98f3 623b fd44 47bc d677 5ebb
000000f0: 22a6 493b a3da 803b 6670 ca3b 9c0c 783c

feature_extract.mlps.1.batch_norms.0.running_mean f4 [64]
0.9159073 -0.62544364 -0.26222 -0.90974826 -0.46737704 -0.10711806 -0.3987775 -0.064596206
1.1761439 -0.5672158 -0.53925884 -0.7019652 0.5619252 -0.4273016 0.59065217 0.7287838
0.92370135 -0.9087719 0.8938468 -0.2552838 0.25596568 -0.407847 -0.40223077 -1.178952
0.067627765 -0.5451944 -0.6425639 0.48804533 -0.5393228 -0.117056765 -0.5583611 -0.2923968
-1.1603645 -0.6833118 -0.49101093 0.2713973 -0.13140719 -0.8689339 0.5638012 -0.62079084
0.72633755 1.0939823 -0.053920195 0.32738402 -0.6316146 0.0705027 -0.6313087 -0.14073315
0.10706829 0.5312623 -0.886236 0.008753786 0.76101905 -0.4236498 0.069403425 0.124571
0.71210283 -0.5552649 0.97878706 -1.4313638 0.57091296 -0.011799514 0.12930757 -0.043424938
00000000: e778 6a3f 131d 20bf b341 86be 43e5 68bf
00000010: 0b4c efbe b760 dbbd 912c ccbe 044b 84bd
00000020: e28b 963f 0e35 11bf de0c 0abf feb3 33bf
00000030: 54da 0f3f 46c7 dabe fb34 173f 9391 3a3f
00000040: b177 6c3f 46a5 68bf 25d3 643f 8fb4 82be
00000050: ef0d 833e 52d1 d0be 31f1 cdbe e6e7 96bf
00000060: 6d80 8a3d dc91 0bbf 117f 24bf 14e1 f93e
00000070: 0f11 0abf 75bb efbd c1f0 0ebf 09b5 95be
00000080: d386 94bf 86ed 2ebf c965 fbbe 96f4 8a3e
00000090: 9b8f 06be 7472 5ebf 4755 103f 26ec 1ebf
000000a0: 42f1 393f 9d07 8c3f 6cdb 5cbd e19e a73e
000000b0: 7fb1 21bf b863 903d 729d 21bf 5a1c 10be
000000c0: 9f46 db3d ce00 083f 5de0 62bf 0a6c 0f3c
000000d0: 25d2 423f a0e8 d8be 6223 8e3d 151f ff3d
000000e0: 5f4c 363f d725 0ebf ca91 7a3f ee36 b7bf
000000f0: 5a27 123f c052 41bc 3469 043e 59de 31bd

feature_extract.mlps.1.batch_norms.0.running_var f4 [64]
0.15696737 0.43603498 0.80878556 0.20706241 1.7942009 0.03144554 0.28339234 0.32770294
0.51450384 0.56250715 0.4160346 0.40192133 0.41531622 2.7643862 0.52243584 0.63559735
0.2975858 0.3209881 0.8096361 0.2068368 0.44486514 0.058085587 0.097705744 1.3204212
0.66686696 1.5547217 0.36547858 0.22564235 1.4696964 1.7839608 0.4188688 0.23895206
0.3075356 0.3515852 0.1703752 0.7790634 0.84283507 0.46877933 0.30008236 0.90964234
0.39668337 0.75882125 0.2105083 0.42206952 1.1606524 1.5662851 0.11656619 0.33957222
2.2681117 0.73994696 0.5177482 0.26976624 0.15236208 1.2204453 0.54455066 0.15631662
0.6012888 0.39820445 1.0269847 0.43919075 0.97644734 0.2149225 1.2902557 1.3215874
00000000: 0ebc 203e fa3f df3e 920c 4f3f 2b08 543e
00000010: 60a8 e53f 0acd 003d cd18 913e aec8 a73e
00000020: 86b6 033f 7800 103f 7d02 d53e a2c8 cd3e
00000030: 54a4 d43e b4eb 3040 5bbe 053f 82b6 223f
00000040: 2a5d 983e 8d58 a43e 5044 4f3f 07cd 533e
00000050: 5dc5 e33e 27eb 6d3d f319 c83d 9003 a93f
00000060: cbb7 2a3f 1f01 c73f 0220 bb3e ca0e 673e
00000070: 031f bc3f d458 e43f f975 d63e d9af 743e
00000080: 4e75 9d3e fa02 b43e d676 2e3e b370 473f
00000090: 0ac4 573f d803 f03e 65a4 993e 52de 683f
000000a0: 151a cb3e 1c42 423f 7d8f 573e 7f19 d83e
000000b0: 4290 943f 087c c83f 41ba ee3d 69dc ad3e
000000c0: be28 1140 2a6d 3d3f 258b 043f cd1e 8a3e
000000d0: ce04 1c3e 8d37 9c3f ac67 0b3f 7711 203e
000000e0: 10ee 193f 74e1 cb3e 3c74 833f 9cdd e03e
000000f0: 74f8 793f a514 5c3e 1927 a53f c729 a93f

feature_extract.batch_norms.0.weight f4 [64]
1.0136632 0.9968574 1.001057 0.9999058 1.0036207 1.0012825 1.0009829 0.9984195
0.98437715 0.9870445 1.00584 0.996805 1.0109087 0.99317795 1.0107684 1.0102911
0.9975995 0.9935285 0.99671715 1.0011433 1.0004271 0.99505454 0.9973035 1.0056301
0.99564064 0.99026316 1.0012012 0.99626774 0.99959224 0.9998645 0.99783 0.9992743
1.0009935 1.0031009 0.99517024 0.99856955 0.9997986 1.0040976 0.99045175 0.9998985
1.0096169 0.9898529 1.0019001 1.000248 0.9953342 1.003945 0.99640757 1.0056727
1.0108565 1.0031747 0.9994718 1.0084039 1.0032772 1.0059458 0.997215 1.0023923
1.001552 1.0062081 1.0075276 1.0090444 1.0010436 1.0013095 0.99428517 0.9947588
00000000: b7bf 813f 0c32 7f3f a322 803f d4f9 7f3f
00000010: a576 803f 062a 803f 3520 803f 6c98 7f3f
00000020: 2400 7c3f f3ae 7c3f 5dbf 803f 9d2e 7f3f
00000030: 7565 813f e940 7e3f dc60 813f 3851 813f
00000040: ae62 7f3f e257 7e3f db28 7f3f 7725 803f
00000050: ff0d 803f e5bb 7e3f 484f 7f3f 7db8 803f
00000060: 4ee2 7e3f e381 7d3f 5c27 803f 670b 7f3f
00000070: 47e5 7f3f 1ff7 7f3f c971 7f3f 71d0 7f3f
00000080: 8e20 803f 9c65 803f 7ac3 7e3f 41a2 7f3f
00000090: cdf2 7f3f 4586 803f 3f8e 7d3f 59f9 7f3f
000000a0: 203b 813f 0067 7d3f 433e 803f 2008 803f
000000b0: 39ce 7e3f 4581 803f 9114 7f3f e2b9 803f
000000c0: bf63 813f 0768 803f 62dd 7f3f 6113 813f
000000d0: 636b 803f d5c2 803f 7b49 7f3f 644e 803f
000000e0: db32 803f 6dcb 803f aaf6 803f 5e28 813f
000000f0: 3222 803f e92a 803f 7989 7e3f 83a8 7e3f

feature_extract.batch_norms.0.bias f4 [64]
0.00975211 0.00014370024 0.0026982592 -0.0005570554 0.0012049004 -0.004145028 0.0030800593 0.001215207
-0.006905672 -0.007887175 0.008162142 -0.0020796966 0.006615794 -0.0015288799 0.0021531677 0.00934563
-0.014032917 -0.0075335633 7.304536e-05 -0.0014027895 0.006623443 -0.0024609047 -0.00031404925 0.006079006
-0.0043812264 -0.0076152454 5.7050787e-05 0.003323564 -0.003389346 -0.0013494168 -0.0024826662 -0.0051268484
0.00762379 0.005403639 -0.003049863 -0.0051060086 0.011388192 0.010123533 -0.0054004868 0.0040649315
0.0017410837 -0.0013969438 0.00096426025 -0.0055616256 -0.0070866547 0.004527678 0.0027956674 0.0026162937
0.019176925 0.009731082 0.00034245683 0.005495154 0.0045125964 -0.00023043601 -0.0056010373 0.013894554
-0.0029637641 0.007561909 0.0076242024 0.010179724 0.0026592563 -0.0026636817 -0.00825006 -0.021534575
00000000: 50c7 1f3c 3dae 1639 47d5 303b 5b07 12ba
00000010: c0ed 9d3a 04d3 87bb d2da 493b 9547 9f3a
00000020: fa48 e2bb 3639 01bc 81ba 053c 854b 08bb
00000030: 4dc9 d83b b264 c8ba 291c 0d3b 6a1e 193c
00000040: 52ea 65bc 1cdc f6bb ee2f 9938 cedd b7ba
00000050: 7809 d93b 2147 21bb faa6 a4b9 6632 c73b
00000060: 6490 8fbb 4f89 f9bb d149 6f38 27d0 593b
00000070: ca1f 5ebb eade b0ba 3ab4 22bb 1fff a7bb
00000080: fcd0 f93b 0211 b13b 36e0 47bb 4e50 a7bb
00000090: 8a95 3a3c 2ddd 253c 91f6 b0bb 1e33 853b
000000a0: 1335 e43a a819 b7ba 69c6 7c3a 4c3e b6bb
000000b0: 2b37 e8bb ea5c 943b 8437 373b 2076 2b3b
000000c0: ed18 9d3c 1e6f 1f3c c78b b339 b110 b43b
000000d0: 67de 933b 32a1 71b9 e888 b7bb fca5 633c
000000e0: b63b 42bb e4c9 f73b 72d4 f93b dbc8 263c
000000f0: eb46 2e3b 2a91 2ebb 422b 07bc 4769 b0bc

feature_extract.batch_norms.0.running_mean f4 [64]
-0.029428048 -0.06934148 -0.15046047 0.13242199 -0.021719852 -0.0015226803 0.044636305 -0.12725936
-0.23643896 0.11605495 -0.07181534 -0.05951279 0.084294535 0.1290168 0.1616624 -0.0116885
0.07245748 0.05276878 -0.15333176 0.4302076 -0.096118204 0.47999248 0.343122 0.353556
0.07132543 0.728782 -0.21731934 0.044999156 0.06426207 -0.37042388 0.2245946 0.101538286
-0.17900808 -0.2815072 0.06743828 0.09893925 -0.06838267 -0.3604612 0.3834178 0.10712881
0.08392832 -0.25465766 -0.036158893 -0.17235765 0.12950313 0.24348098 0.13608862 -0.26226163
-0.01634429 0.18167892 0.27396435 -0.06099897 -0.051578593 0.15533136 0.18433262 0.1295571
0.08842074 -0.06883189 0.4236665 0.2231878 -0.46165755 -0.003003047 -0.29024234 0.20113671
00000000: 1713 f1bc e802 8ebd 4f12 1abe a199 073e
00000010: d5ed b1bc ac94 c7ba 8fd4 363d 4750 02be
00000020: 0e1d 72be 38ae ed3d ec13 93bd afc3 73bd
00000030: 9da2 ac3d fb1c 043e d48a 253e 1f81 3fbc
00000040: 9664 943d 1424 583d 0003 1dbe 2c44 dc3e
00000050: 9fd9 c4bd 93c1 f53e b0ad af3e 4b05 b53e
00000060: 1113 923d 7591 3a3f f688 5ebe 0951 383d
00000070: d59b 833d 33a8 bdbe 20fc 653e 4ef3 cf3d
00000080: e54d 37be b621 90be 151d 8a3d a9a0 ca3d
00000090: 370c 8cbd 5f8e b8be 564f c43e 5966 db3d
000000a0: 9ce2 ab3d 7d62 82be 591b 14bd 867e 30be
000000b0: 789c 043e 1453 793e d15a 0b3e 2847 86be
000000c0: 76e4 85bc 0a0a 3a3e 0e45 8c3e 0eda 79bd
000000d0: 1344 53bd 2f0f 1f3e b1c1 3c3e 9eaa 043e
000000e0: ef15 b53d bcf7 8cbd d1ea d83e 588b 643e
000000f0: 615e ecbe c5ce 44bb a59a 94be c8f6 4d3e

feature_extract.batch_norms.0.running_var f4 [64]
0.011239232 0.011432742 0.11954273 0.087536655 0.032026567 0.051010624 0.05370803 0.34421876
0.21221088 0.03480545 0.25843027 0.017249204 0.32702586 0.06405206 0.017589621 0.019908138
0.026089596 0.12332346 0.14382625 0.20564476 0.019346816 0.2296993 0.027588645 0.026305862
0.009313237 0.17892942 0.077733435 0.05349634 0.06634624 0.096714005 0.057705835 0.11810173
0.04471795 0.2731383 0.04618045 0.12591106 0.007785195 0.047965426 0.1631435 0.11677203
0.07880013 0.097394235 0.042365525 0.041873485 0.014100596 0.061460916 0.11181612 0.04500363
0.44852522 0.11477448 0.21710742 0.03806281 0.08157124 0.038858104 0.04968908 0.22501035
0.022403507 0.20228317 0.10251825 0.11245284 0.034241732 0.10130644 0.47004494 0.09779214
00000000: c124 383c 6550 3b3c d2d2 f43d 6b46 b33d
00000010: 4a2e 033d 84f0 503d f4fc 5b3d 713d b03e
00000020: cf4d 593e 2990 0e3d f950 843e 344e 8d3c
00000030: ef6f a73e ba2d 833d 1c18 903c 6416 a33c
00000040: d9b9 d53c 0391 fc3d 3047 133e 8a94 523e
00000050: 377d 9e3c 4b36 6b3e 9501 e23c 647f d73c
00000060: 8c96 183c 4639 373e b532 9f3d fa1e 5b3d
00000070: 8ae0 873d fe11 c63d f45c 6c3d 52df f13d
00000080: 2b2a 373d c9d8 8b3e b627 3d3d d4ee 003e
00000090: f31a ff3b 6577 443d 170f 273e 2d26 ef3d
000000a0: f661 a13d a176 c73d 7987 2d3d 8883 2b3d
000000b0: 3006 673c 71be 7b3d daff e43d ba55 383d
000000c0: 19a5 e53e e20e eb3d 6851 5e3e c0e7 1b3d
000000d0: d30e a73d ad29 1f3d c786 4b3d 1d69 663e
000000e0: 8f87 b73c 5223 4f3e 17f5 d13d ad4d e63d
000000f0: 0f41 0c3d c079 cf3d bba9 f03e 3f47 c83d

feature_extract.batch_norms.1.weight f4 [64]
1.0577625 1.0476145 1.0676212 1.0350043 1.0611156 1.0485919 1.0414606 1.0638098
1.0543561 1.0361457 1.0270362 1.0326325 1.0553583 1.0510148 1.0486823 1.0320429
1.042801 1.048627 1.0549816 1.0444859 1.0363547 1.0431055 1.0383612 1.0535564
1.0302731 1.0510346 1.0415071 1.0527121 1.0308211 1.0404884 1.0470537 1.0520959
1.0388317 1.027944 1.0527025 1.0342373 1.0302701 1.0367672 1.0659171 1.0557575
1.043876 1.0521269 1.020509 1.0426342 1.0639116 1.0370249 1.0576589 1.0302217
1.0117409 1.0376265 1.0621194 1.0458628 1.0490372 1.0331122 1.0286067 1.022567
1.058002 1.059087 1.0351111 1.0527326 1.0613841 1.0717729 1.0493261 1.0519994
00000000: c364 873f 3b18 863f d0a7 883f 057b 843f
00000010: a3d2 873f 4238 863f 954e 853f eb2a 883f
00000020: 24f5 863f 6ca0 843f ec75 833f 4d2d 843f
00000030: fb15 873f a787 863f 393b 863f fb19 843f
00000040: 817a 853f 6939 863f a309 873f b7b1 853f
00000050: 45a7 843f 7b84 853f 05e9 843f f0da 863f
00000060: fddf 833f 4d88 863f 1b50 853f 45bf 863f
00000070: f2f1 833f b92e 853f db05 863f 14ab 863f
00000080: 70f8 843f ab93 833f f5be 863f e361 843f
00000090: e4df 833f cab4 843f f96f 883f 1023 873f
000000a0: bb9d 853f 18ac 863f 0aa0 823f 0a75 853f
000000b0: 412e 883f 3bbd 843f 5e61 873f 4ede 833f
000000c0: ba80 813f f2d0 843f 87f3 873f d5de 853f
000000d0: da46 863f 053d 843f 62a9 833f 7ae3 823f
000000e0: 9c6c 873f 2a90 873f 857e 843f f1bf 863f
000000f0: 6fdb 873f db2f 893f 5150 863f eba7 863f

feature_extract.batch_norms.1.bias f4 [64]
0.05254281 0.0444198 0.05117991 0.042610824 0.045007847 0.04163367 0.039933693 0.044138376
0.045292426 0.040241178 0.021927478 0.03795451 0.056325637 0.045234576 0.03659706 0.0286327
0.025195258 0.048265137 0.05433522 0.0503338 0.03862355 0.03232268 0.034281082 0.046337858
0.01962536 0.03635495 0.05231107 0.045842066 0.028173327 0.04132952 0.043621227 0.053151626
0.053724237 0.021973103 0.040947594 0.026220806 0.028766299 0.036877908 0.05106735 0.04909179
0.033899188 0.048235018 0.01573454 0.035284214 0.04160163 0.023938747 0.04894562 0.02862815
0.011752338 0.03068224 0.04642198 0.044255745 0.040902935 0.03634325 0.03866813 0.018393455
0.037656546 0.051691413 0.020127762 0.045909233 0.052708276 0.045712575 0.021125782 0.046644296
00000000: 2137 573d 89f1 353d 06a2 513d b088 2e3d
00000010: 265a 383d 1188 2a3d 8391 233d 71ca 343d
00000020: 8d84 393d efd3 243d 41a1 b33c 3076 1b3d
00000030: b6b5 663d e447 393d cce6 153d 208f ea3c
00000040: 4966 ce3c aab1 453d 9c8e 5e3d d12a 4e3d
00000050: ba33 1e3d c964 043d 526a 0c3d c4cc 3d3d
00000060: 5dc5 a03c eee8 143d 2244 563d e4c4 3b3d
00000070: c0cb e63c 2549 293d 2cac 323d 85b5 593d
00000080: f20d 5c3d f000 b43c aab8 273d 04cd d63c
00000090: 4da7 eb3c 4a0d 173d ff2b 513d 7914 493d
000000a0: e0d9 0a3d 1592 453d b9e5 803c 2e86 103d
000000b0: 7966 2a3d 311b c43c 347b 483d 9585 ea3c
000000c0: e18c 403c 5259 fb3c f924 3e3d 8345 353d
000000d0: d689 273d a9dc 143d 7962 1e3d dfad 963c
000000e0: c03d 1a3d 60ba 533d fae2 a43c 520b 3c3d
000000f0: a2e4 573d 1c3d 3b3d fa0f ad3c 170e 3f3d
