SavedNetwork/30_15_1_99.pth (torch_old, 86544 bytes, 30 tensors)

feature_extract.mlps.0.linears.0.weight f4 [64, 2]
00000000: fa83 9cbe cc73 d43e 6dbc ff3e fed5 73be
00000010: 56bb 913d e942 dabe 09b6 08bf 63bb b23e
00000020: e024 043f eb1a 68bc 329e 32bf ac48 48be
00000030: e352 d7be eb2e 47be 3fe5 54be 8523 15bf
00000040: 89fc c5be b934 913e c60f b9be 5414 a8be
00000050: d5e1 cbbe 484a 0d3f 50f3 9fbe d75d 5ebe
00000060: b131 0cbe 2ef5 2a3f 441f d1be 7e49 813e
00000070: bfd0 1b3f 501d 163e 72b0 343f c1cd afbe
00000080: b0d9 083f 8c19 20bf d34b c93e ba62 05bf
00000090: 5cb5 0dbf 7169 033e c759 95bb 1b8c 683e
000000a0: 982a 7e3c 3569 643c 5447 b1be 7d61 663e
000000b0: 7b0c 60be b644 0d3e fc7a 923c e3ed 38bd
000000c0: 5a1d a3be 9317 003f 392e 22bf 40de 80bc
000000d0: ee5e c53e a8fd 31be 7b06 f53e d13f f6be
000000e0: 8928 1bbf 29a3 a7be f2b9 04bf 6d5a c7bc
000000f0: c889 94be 2c9b 613e e1f4 dc3e 4681 053e
00000100: e247 96bc 69d3 88be 98de b5be 1c48 0f3f
00000110: 7ce6 033f 0d9d b53e 084b a4be a780 84be
00000120: eb33 9e3d 7a68 553d 6858 44bd 25ef dbbe
00000130: d36b f4be 26df b93e a2db cc3e 734f 103f
00000140: e161 2a3f c403 22be 6e54 71bd c478 e13c
00000150: f7c2 173e 2bd9 0d3e 1bbf 043d a005 aabe
00000160: 6003 94bc f2c2 be3e be51 a53e 79d1 233f
00000170: 0fec a33e fa33 2cbf ea07 963e ce8b 0dbf
00000180: 0e30 0e3f e7bd 0dbf c126 0ebf 5b45 273e
00000190: c4a5 0e3e 8292 013f 49b8 f2be c54b 0a3f
000001a0: 2f80 fe3d 612c f6bd 93cd 00bf 94fe ad3e
000001b0: b86d c13d 494f 0e3f f4ed cebe d3b3 1a3f
000001c0: d4f9 f5be 841e d2be 1224 c93e 2e3d bcbd
000001d0: e7e7 dcbe f78d 4fbd 4872 313f aa50 f7bc
000001e0: d95e 7e3e 54cd 23be 68d8 273e f9e2 2f3f
000001f0: 4286 ae3e a4fa fcbe 3620 d7be 03f9 d4bd
-0.3056944 0.41494596 0.49948445 -0.238121 0.071158096 -0.42629173 -0.53402764 0.3490859
0.51618767 -0.014166574 -0.69772637 -0.19558972 -0.42055425 -0.19451492 -0.20790575 -0.58257324
-0.38669232 0.28360537 -0.36144847 -0.3282801 -0.39820734 0.5519147 -0.3124032 -0.21715485
-0.13690831 0.66780365 -0.40844166 0.25251383 0.60865396 0.1465962 0.70581734 -0.34336665
0.53457165 -0.6253898 0.39315662 -0.5210377 -0.5535486 0.12833191 -0.0045578214 0.22709696
0.015513085 0.013941099 -0.34624732 0.22498126 -0.21879761 0.13795742 0.01788091 -0.04514874
-0.3185833 0.5003597 -0.6335178 -0.015730977 0.38548988 -0.17381918 0.47856507 -0.48095563
-0.60608727 -0.3274167 -0.5184623 -0.02433511 -0.2901137 0.2203185 0.43155578 0.13037595
-0.018344823 -0.26723793 -0.35521388 0.55969405 0.51523566 0.35471383 -0.32088494 -0.25879404
0.07724746 0.05210159 -0.047935873 -0.4295589 -0.47738513 0.3630306 0.40011317 0.5637123
0.665556 -0.15821749 -0.05891841 0.027523406 0.14820467 0.13852374 0.032408815 -0.33207417
-0.018068016 0.37258106 0.32288927 0.63991505 0.32016036 -0.6726681 0.29302913 -0.5529145
0.55542076 -0.55367893 -0.55527884 0.16335051 0.13930422 0.5061418 -0.47406223 0.54021865
0.12426793 -0.12020183 -0.5031368 0.3398329 0.09444755 0.5558973 -0.4041592 0.6043064
-0.48042166 -0.41038907 0.39285332 -0.091913566 -0.43145677 -0.050672498 0.69315004 -0.03018983
0.24840869 -0.15996295 0.16391146 0.6870571 0.34086806 -0.49409974 -0.42016762 -0.10399058

feature_extract.mlps.0.linears.0.bias f4 [64]
00000000: a5a9 a33e 470a c8be 1a61 47bd 81d4 b13e
00000010: b78b b2be 22a0 c5be a50b 4e3c c8a8 14bf
00000020: a348 963e c0bc 48be 469a 103f 371c 5d3d
00000030: 5907 ad3e fce3 f8bd 933f 80be 7302 9cbe
00000040: 9800 b03e 8e6f 243f fc9b 823e d85a 27be
00000050: aa66 ba3e a5e8 08bf 1199 1bbf 6759 6cbe
00000060: 67c6 a03e 3512 97bd c3a5 f9be 2ec3 15bf
00000070: 0962 b43e dec1 bbbe 0ae2 92be 2b99 213f
00000080: ba39 d33d 5893 d3be 0a25 703d 928f c63e
00000090: a824 a8be 3668 e2be 9777 29bf c69d 19bf
000000a0: ecf4 06bf d015 bc3e adda 7f3d 907a 5d3e
000000b0: 1753 cd3e 2ff0 223f a50d 42be 87b7 213f
000000c0: e94c e53d f3d2 103f 95a3 28bf 38b8 9ebe
000000d0: 5466 88be 0b1a 043f 8ff8 d43e be7a 32bf
000000e0: 4472 ccbe f9ce 0cbf 20ee 31bf b317 28bf
000000f0: a488 ac3e 7998 7f3e 0768 60bd e658 f9bc
0.31965366 -0.3907034 -0.048676588 0.3473244 -0.3487222 -0.38598734 0.012576018 -0.5807004
0.29352292 -0.19603252 0.564854 0.053981986 0.33794668 -0.121528596 -0.25048503 -0.3047062
0.34375453 0.6423272 0.25509632 -0.16343248 0.3640645 -0.5347999 -0.60780436 -0.2308098
0.3140137 -0.073765196 -0.4875928 -0.58500946 0.35231045 -0.36671346 -0.2868808 0.6312434
0.10313745 -0.41323352 0.058629073 0.3878141 -0.32840466 -0.44220132 -0.66198105 -0.6000637
-0.5271747 0.36735392 0.062464405 0.21628785 0.40102455 0.6364774 -0.18950517 0.63170666
0.1119631 0.5657188 -0.65874606 -0.30999923 -0.2664057 0.5160224 0.41595885 -0.6971854
-0.39930928 -0.55003315 -0.69503975 -0.6566116 0.33698 0.24960507 -0.05478671 -0.030437898

feature_extract.mlps.0.linears.1.weight f4 [64, 64]
00000000: d101 85bd a9bb 7a3d 622a e0bd c676 bbbd
00000010: 3a09 dbbd c907 6fbd a45e cfbd 681b a13d
00000020: fb92 f2bd 6bfd 1c3c 55fd e93c e137 f1ba
00000030: db36 7c3d fea4 f43d b8f5 7d3d d439 db3c
00000040: 915c 52bd 9c91 6dbc d204 f03d 73dd 443d
00000050: 96ff 18bd 6e38 44bc 3b6c dbbd f360 cbbd
00000060: 5617 9b3d 00bd 673c e16f b43d 8fc3 9a3d
00000070: e63c adbc aed4 d63d d750 263d 6fb1 b33d
00000080: f576 a13d 86ca ee3d 4e61 adbd e771 a2bc
00000090: 454b 813d bde2 e2bd 060d de3c bcd8 dfbd
000000a0: 15cc 7ebd b15a 49bd b98e 83bd c38a 043d
000000b0: f2b4 cf3d be49 e1bd f9d9 ac3d a36d 3bbd
000000c0: 6b00 72bc 106d a5bc 3312 d8bc 60fd 2bbb
000000d0: c884 19bd 7a4b a6bd 477c 8d3b b265 6a3d
000000e0: 3423 ab3c 50f7 7e3d f8f9 19bd b1f2 d93b
000000f0: b50c a03d 120e ef3d 833a f6bd 8102 bb3d
00000100: 07b0 bd3d e456 a6bd 693c 3cbd 28e9 463d
00000110: f6e0 a03d 3f6a f6bd fc20 ae3b e0c8 32bc
00000120: 6f0b d2bb 39dc c63d 5a99 ee3b e9d8 6dbd
00000130: 2055 c03d 5b87 03bd 4cfc b13d 547a dd3d
00000140: dc7f 333d e6a5 a3bd 3fac 60bd 0891 bfbd
00000150: 3018 85bd 3c22 efbd 24cb 9b3b 0feb 4dbd
00000160: 9fc6 df3d a3a4 d53c e158 54bd 325c 00be
00000170: 99e0 663d 9dc3 e2bd a8d6 36bd 91f7 4c3d
00000180: 2e38 5a3d aa2b 13bd 08e5 ab3d d4e9 89bd
00000190: a6b3 97bd 4200 9a3d 6c26 f53b 8ef4 523d
000001a0: 0e0a 893c 45ad 223d b369 96bd 4b36 0b3d
000001b0: c736 65bc 1524 a4bd 87ef ed3d 9d47 943d
000001c0: 35b3 0bbb e22c f43d 00bd e8bd 283a b03d
000001d0: f391 c8bb df0d a1bd e274 043e bdd5 e43d
000001e0: 35a8 64bd 99a5 7bbd 44ca 4bbd cabb 29bd
000001f0: a8c3 0f3d 0a63 5e3d b9a4 a93c 1d91 fcbd
00000200: 60c3 9cbd 306c 26bd 08f9 7abc 6334 26bc
00000210: 87e0 d43a b3e8 9dbc 3a04 b9bd ac91 2b3d
00000220: e7ee cabd 327b c2bd 97f5 583c e328 f23d
00000230: 0ec1 44bd 9f43 d8bd 2872 ce39 7f7f 563d
00000240: a602 113d deb3 10bb aee6 9dbd 19ad f13b
00000250: 20d4 383c b962 e3bd 2ab3 393d fdfb f63c
00000260: c79b 4e3d fb2c b03d dcb8 59bd 27a0 533d
00000270: d10f c63d 2baf f6bd 07cb d9bd 1033 5e3c
00000280: 6f91 4bbd 5d2f 9f3d 2d44 013e 7ce3 28bc
00000290: 9d31 6a3c 3547 a6bd d0e4 e73d f0e3 e7bc
000002a0: 8c17 a0bd 9826 fabd cd88 96bd 4e11 55bc
000002b0: 0820 77bd 3a62 6d3a 545c a03b 09a9 94bb
000002c0: f866 673b 9f6d 69bc bade 883d 09de ebbd
000002d0: 12ee b3bd 6352 96bc 8e52 84bd 062e b43d
000002e0: a2fd ac3d d6c1 ff3c fd96 2cbd be18 8cbb
000002f0: 4673 c73d 5a63 3e3c 5bce cb3d 98f7 d63d
00000300: 13b1 af3c 797d c93d 2f19 553b 95e8 40bc
00000310: 45cd 3abc d0ff cfbd 4e13 e03d 06f2 053e
00000320: 7d3f 57bc 8562 a3bd 8858 1bbd b70b 80b7
00000330: 64c3 dabd 4491 603d 923b a8bd 1bca 9c3d
00000340: ab80 0b3d bd5e c13d f12b 823d efb9 bd3d
00000350: bb69 cd3d bc82 9c3d f140 92bd fc44 86bd
00000360: 3e45 433d b371 da3d 58ec 8dbd cdd0 8fbd
00000370: a0dc eabd 7d5b e03c 5d52 9cbd f42f 8dbd
00000380: 844d 313d c64f 90bd e6f8 b03d 4a54 e6bb
00000390: 3940 9f3c dd68 373d 4fcf 693c 4a6a 893d
000003a0: 2625 e4bd 1c14 ac3d 98dd 3c3d ad29 ae3c
000003b0: 9839 743d d15c b93d afc1 4dbd 29f4 003e
000003c0: 8ce8 4dbc f03d ddbd 70f0 423d c561 90bd
000003d0: 491f 9d3c 9dd0 adbd 6afe 2d3c 7c59 803c
000003e0: f7d2 dcbd d67a 5cbd 954c 51bd 3f48 c9bd
000003f0: 983b 293d db02 60bd e8fe 9a3c 78bb 8e3d
-0.06494487 0.061214123 -0.10945584 -0.091535136 -0.10695119 -0.058357034 -0.10125473 0.078665555
-0.118444405 0.009581904 0.028563181 -0.0018403494 0.06157575 0.11945532 0.062001914 0.026760973
-0.05135781 -0.014500048 0.117196694 0.048062753 -0.03735312 -0.0119763445 -0.10714003 -0.09930601
0.0757281 0.014144182 0.08810402 0.07556831 -0.021147203 0.10489784 0.04060444 0.08774077
0.078840174 0.11659722 -0.08465825 -0.019829703 0.06313185 -0.11078403 0.02710582 -0.10930011
-0.062206347 -0.049158756 -0.064237066 0.032358896 0.101419345 -0.11000393 0.084400125 -0.045758855
-0.014770607 -0.020193607 -0.026375866 -0.0026243553 -0.037480146 -0.08119865 0.0043177935 0.05722589
0.02089081 0.062247574 -0.037591904 0.0066512455 0.07814924 0.116726056 -0.12022879 0.09131337
0.0926209 -0.08122042 -0.04595605 0.0485622 0.07855408 -0.120319836 0.0053139906 -0.01091215
-0.0064100544 0.09709973 0.0072814645 -0.05806819 0.09391236 -0.032111507 0.086907 0.10814348
0.043823108 -0.07990627 -0.054851767 -0.093538344 -0.06498754 -0.116764516 0.004754441 -0.050272997
0.10926556 0.026079481 -0.051842574 -0.1253517 0.056366537 -0.110724665 -0.044638306 0.050040785
0.053276233 -0.035930313 0.083932936 -0.06734052 -0.07407312 0.075195804 0.007481387 0.051502757
0.016728427 0.039716024 -0.07344379 0.033987325 -0.013990111 -0.080146946 0.11617952 0.07240222
-0.0021316533 0.11922623 -0.11364174 0.086048424 -0.006120914 -0.07863974 0.12935212 0.1117358
-0.055824477 -0.061437223 -0.049753442 -0.041438855 0.0350987 0.05429367 0.020708429 -0.12332366
-0.07654452 -0.04063052 -0.015318163 -0.010144326 0.0016241231 -0.019275999 -0.09034009 0.04188697
-0.09908848 -0.09496154 0.013242147 0.11824205 -0.048035674 -0.10559773 0.00039376435 0.052367684
0.035402916 -0.0022079865 -0.07710014 0.007375371 0.011281043 -0.11102814 0.04533688 0.030149454
0.05044153 0.08602329 -0.05315481 0.051666405 0.096709855 -0.120451294 -0.106344275 0.013561979
-0.049699243 0.07772706 0.12623663 -0.010308143 0.014294055 -0.081190504 0.113229394 -0.028306931
-0.07816991 -0.122143924 -0.073503114 -0.013004614 -0.06033328 0.00090554694 0.004893819 -0.004536752
0.0035309177 -0.014247327 0.06683107 -0.11516959 -0.08785643 -0.018349832 -0.064610586 0.08797841
0.08446814 0.031220358 -0.04213618 -0.0042754104 0.097387835 0.011620367 0.099514686 0.104964435
0.02144674 0.09838385 0.0032516231 -0.011774202 -0.011401479 -0.10156214 0.10941182 0.13080606
-0.013137695 -0.079777755 -0.037926227 -1.5264244e-05 -0.10681799 0.054826036 -0.08214487 0.07655736
0.034058254 0.09441898 0.063560374 0.0926398 0.10029932 0.07642123 -0.07141293 -0.065561265
0.047673456 0.10666218 -0.069298446 -0.070222475 -0.11467862 0.027387375 -0.07632897 -0.06893912
0.043286815 -0.070464656 0.086412236 -0.007029091 0.019439803 0.04477774 0.014270618 0.06709726
-0.11139898 0.08402273 0.046109766 0.021260107 0.05962524 0.090509064 -0.05023354 0.1259314
-0.0125676505 -0.10802829 0.04759258 -0.07049898 0.019179957 -0.084870555 0.010619739 0.01566767
-0.10782426 -0.053828083 -0.051098425 -0.09828233 0.0413166 -0.054690223 0.018920377 0.069693506

feature_extract.mlps.0.linears.1.bias f4 [64]
00000000: dd76 273d b480 593d 4ec2 383c dfb6 cc3d
00000010: 91ff b2bd 4a19 f13c 51d1 e33c 29cd b63c
00000020: 12e8 a63d 08e6 d73d 6dd0 af3d 64b0 a0bc
00000030: c456 e03d bf31 483d e06e 253d 0254 3d3b
00000040: ebd3 88bd 87e4 943d bf14 083d c578 d43c
00000050: 65fd 1dbd 7347 e63d a2ec b03d 7981 ef3d
00000060: 28d4 edbc 498e 373d 5a0e 4dbd 7bbb be3d
00000070: dfb2 db3d 7034 0d3d e6e9 d63d 5843 bebd
00000080: 6d58 eb3c 1106 873d 15e3 aabd bd04 f4ba
00000090: 027b 833d a201 22bd 4e26 b5bd 5cfc 8c3d
000000a0: 6123 bebd 614f fcbb c1ed e93d e2e1 0abd
000000b0: b6e6 fbbb 5a7f e63c 979e e0bd d4d9 dfbd
000000c0: 1755 31bd 01dd cb3c 98af ff3d d0ee 213d
000000d0: 93a8 febd e6cd b73d 5eaa 51bd b57c 523c
000000e0: 3799 b03d 48ed 8d3d cdac 5c3d 2c0d ea3c
000000f0: f17a d2bd 257f e9bc 71e4 d93d cf7b f9bd
0.04088484 0.053101256 0.011276795 0.099958174 -0.08740152 0.029431004 0.02780977 0.022314625
0.08149733 0.10541922 0.08584676 -0.01961536 0.10954049 0.048875567 0.04038894 0.0028889184
-0.06681045 0.07270151 0.03322291 0.025936494 -0.038571734 0.112440966 0.08638884 0.11694617
-0.029031828 0.044813428 -0.050062515 0.09313103 0.10727476 0.034473836 0.10493831 -0.092901886
0.028728688 0.06592954 -0.08344094 -0.0018617135 0.06419946 -0.03955234 -0.08845197 0.06884071
-0.09284092 -0.0076998924 0.11422301 -0.033906825 -0.007687415 0.028136898 -0.109677486 -0.10930219
-0.04329404 0.024885656 0.12484664 0.03953439 -0.12434497 0.08974819 -0.051187865 0.012847115
0.086229734 0.069300234 0.053875733 0.028570734 -0.102773555 -0.02850301 0.10639275 -0.12181818

feature_extract.mlps.0.batch_norms.0.weight f4 [64]
00000000: 01b8 7f3f 2378 7f3f d5b4 803f 22fc 7e3f
00000010: 7c61 7d3f b49a 803f e328 803f 78ad 803f
00000020: 9149 7f3f bf65 803f 2193 803f cb20 7f3f
00000030: a722 7f3f 8272 803f 3811 813f 1528 803f
00000040: 050f 803f 6c09 7f3f c693 7f3f 3abf 7f3f
00000050: b3c6 7e3f 13de 7f3f 7955 7f3f 57a9 7f3f
00000060: 530a 803f 83d0 7e3f 9957 803f 794e 7f3f
00000070: e63e 803f e982 803f 6771 803f c808 803f
00000080: be1e 803f 14dd 7f3f 846c 803f ba6c 803f
00000090: 8b54 7e3f 4381 803f c50e 803f 7e2b 803f
000000a0: 89d0 7f3f a842 803f c3aa 7f3f ea5d 803f
000000b0: fc16 7f3f 8cd8 7e3f 4359 803f 9f53 803f
000000c0: 3915 7f3f e13f 7f3f b168 803f e7b2 7f3f
000000d0: 563c 803f 459e 803f 0087 7e3f 351d 7f3f
000000e0: 251c 803f 310c 803f f5cb 7f3f dba0 7f3f
000000f0: 1f35 7f3f f4c9 803f fca3 7f3f 0fba 7e3f
0.9989014 0.9979269 1.0055186 0.99603474 0.98976874 1.0047212 1.0012478 1.0052938
0.9972163 1.003105 1.00449 0.99659413 0.9966225 1.0034945 1.008338 1.0012232
1.0004584 0.9962375 0.9983486 0.99901164 0.9952194 0.99948233 0.99739796 0.9986777
1.0003151 0.99536914 1.0026733 0.99729115 1.0019195 1.0039951 1.0034608 1.000268
1.0009382 0.99946713 1.0033116 1.0033181 0.9934775 1.0039448 1.0004507 1.0013273
0.99927574 1.0020342 0.99869937 1.002866 0.99644446 0.99549174 1.002724 1.0025519
0.9964176 0.99706846 1.0031949 0.9988236 1.0018413 1.00483 0.99424744 0.9965394
1.0008589 1.000372 0.9992059 0.9985482 0.9969043 1.0061631 0.99859595 0.9950265

feature_extract.mlps.0.batch_norms.0.bias f4 [64]
00000000: cb03 1e3b dda3 8abb 1ec7 ac3b 6d71 7ebb
00000010: 7420 1ab9 7969 473b e7c3 9c3b 6c11 9f3b
00000020: 7e30 ab3b cca7 103b 4282 913b 6566 0fbb
00000030: 4ebb 0bbb ea77 d93b 1e15 773b 3509 f33a
00000040: 3f69 203b 8f34 efbb ace5 3e3b c78d 0fbc
00000050: 7291 91bb 817b 933a bbda b739 ca95 25ba
00000060: fcdc af3a 1ba2 64bb 0a55 943b b745 68bb
00000070: 0903 54ba 68e1 a33b decd f63a 9955 8a3b
00000080: 8faa 2f3b 8767 343b ffb6 7b3b 34dc d537
00000090: f07b acbb fdb7 923b cca2 643b 474c 6abb
000000a0: 2d73 f1ba 2179 0f3c de51 14bb 650e 243b
000000b0: 4517 82bb f792 81bb 7aec 833b 8f86 733b
000000c0: a834 46bb 1a35 4639 2891 343a cdd8 023b
000000d0: 5a03 05bb 14eb 873a 35cc 86bb d2dd 92bb
000000e0: 0c99 84ba ffa4 2b3b 40b4 4d3b 8440 14bb
000000f0: 8c3f f23a d1b3 d03b e1e0 683b 3b04 a5bb
0.0024111148 -0.00423096 0.00527276 -0.0038824931 -0.00014698674 0.0030427857 0.0047840956 0.004854372
0.0052242866 0.002207267 0.004440577 -0.00218811 -0.002132136 0.0066366093 0.0037701796 0.0018542173
0.0024476794 -0.0072999666 0.0029128594 -0.00876183 -0.0044423873 0.0011252017 0.00035067447 -0.0006316571
0.0013417299 -0.0034886661 0.004526739 -0.0035441944 -0.00080876105 0.0050012358 0.0018829664 0.00422163
0.0026804542 0.0027527527 0.0038408635 2.5494119e-05 -0.005263798 0.0044774995 0.0034887074 -0.0035751031
-0.0018421166 0.008756907 -0.0022631804 0.0025032994 -0.003970059 -0.003954287 0.004025993 0.003715906
-0.0030243788 0.00018902533 0.0006888085 0.001996565 -0.0020296187 0.0010369741 -0.004113699 -0.0044820094
-0.0010116412 0.0026190875 0.0031387955 -0.0022621462 0.0018482073 0.006369092 0.003553443 -0.0050359047

feature_extract.mlps.0.batch_norms.0.running_mean f4 [64]
00000000: 382a 293f 5154 a23e c2c6 89bf 80e2 0cbe
00000010: e25d 863f cd35 39c0 2717 dcbf 8e80 35c0
00000020: 9e8d fe3c e778 09c0 a060 853f 3487 b8bf
00000030: 5f40 f03f 1ab7 08bf 5620 ef3f d9f5 2c3f
00000040: 904b 113d 7ba7 753e c84e 6bbf 1d3e f43e
00000050: 9013 e53e 9c64 5abf 6930 52bf c122 9fbe
00000060: 8969 5d3f 3a53 f1bf 65bb b23d 6a4f 22bf
00000070: 85df 11c0 c4ed f0bf ce95 ecbe 0368 0d40
00000080: cd75 37bf 5a1e 533e 80fc 2040 7b27 a0bf
00000090: 7bd8 163d 60da e7bf 01e8 72bf 56c2 0840
000000a0: 1499 5f3f 3682 903e 42c5 5f3f bc01 26bf
000000b0: d50c b63f 1c25 5840 6da4 9dbf f0f9 10be
000000c0: 7666 8b3d 333d 03bf ddbb 973f 94b2 9fbd
000000d0: a903 88be 339c b93d 75cd 1140 2dfe afbd
000000e0: 7dd3 3ac0 2ed7 8f3e cccc 02c0 7836 983f
000000f0: 68ca 113f d8b1 2b40 e988 06bf 9821 c0bf
0.66080046 0.31704953 -1.0763781 -0.13758278 1.0497401 -2.8939087 -1.7194566 -2.8359714
0.031073388 -2.1480043 1.0420113 -1.4416261 1.8769644 -0.5340439 1.8681743 0.67562634
0.035472453 0.2398967 -0.91917086 0.4770364 0.44741488 -0.8530977 -0.8210512 -0.31081203
0.8648916 -1.8853524 0.08727149 -0.63402426 -2.2792675 -1.882256 -0.46208042 2.2094734
-0.71664125 0.20617047 2.5154114 -1.2512048 0.036827546 -1.8113518 -0.9488526 2.1368613
0.87342954 0.28224343 0.87410367 -0.64846396 1.4222666 3.377265 -1.2315804 -0.14157844
0.06806652 -0.5126526 1.1854206 -0.07797733 -0.26565292 0.09062996 2.278165 -0.08593402
-2.9191582 0.28093857 -2.0437498 1.1891623 0.5694947 2.6827297 -0.5255266 -1.5010252

feature_extract.mlps.0.batch_norms.0.running_var f4 [64]
00000000: b949 903e 45b0 313f 26a9 843d ff7f 4b3f
00000010: d447 433f 76b3 ba3f a195 0c3f 8950 8f3e
00000020: 901b d63e c3c0 e73e 6728 f63e d7b3 a33e
00000030: 794c 2f3e 49d9 ed3e a818 8d3f f963 b13f
00000040: 07cc 553f 9344 ed3e 4160 5c3f 70e4 8a3c
00000050: b9ff 593a 2b13 ab3e 928c 083e 62e3 ac3a
00000060: 53b4 a33e 8801 943f 32c0 d33e c7ad 273f
00000070: 017e 943f 8fd2 463f d65d 713e 0d6a 0f3f
00000080: cca8 d93c b2be cb3e 3346 5e3f 7ab5 b13e
00000090: bf54 9f3c b2a6 9a3d a565 233f e10c 253f
000000a0: 353a 9f3f 3e40 1e3c 5a00 9d3d 311f 143d
000000b0: d979 383d 412a 023f f6d3 bd3e a9bc 953e
000000c0: 79a7 613f 3be8 5c3f 2d01 2a3e 3c65 273f
000000d0: bd27 343d 0cc6 343f 9bd8 163e d798 013f
000000e0: 64b8 493f 7bf6 dd3e f30b 0b3f cebd af3f
000000f0: 7c13 303e 9c77 8c3e e9a3 b63e 9fa1 063f
0.28181246 0.6940959 0.06477575 0.7949218 0.76281476 1.4586017 0.54915816 0.2799113
0.41817904 0.45264253 0.480777 0.31973144 0.17119016 0.46454838 1.102315 1.3858634
0.83514446 0.4634138 0.8608437 0.01695463 0.0008315999 0.33413061 0.13334873 0.0013190324
0.31973514 1.1562967 0.4135757 0.6549954 1.1600953 0.77665037 0.23570952 0.56021196
0.026569746 0.39793926 0.86825866 0.34708768 0.01944959 0.07551326 0.6382697 0.64472777
1.2439638 0.009658871 0.07666083 0.03616256 0.045038078 0.50845724 0.37075776 0.292455
0.8814617 0.86291856 0.16602011 0.65388846 0.04398321 0.70614696 0.14731066 0.5062384
0.7879698 0.43352112 0.5431511 1.3729799 0.17194933 0.27435005 0.3567193 0.52590364

feature_extract.mlps.1.linears.0.weight f4 [64, 64]
00000000: c848 dd3d 83cc 8a3d cf11 c53d 7d96 f23d
00000010: 9046 3bbc 9bbe 55bd fd56 60bd 4601 3d3c
00000020: 877b 1f3d 4c55 16bd 3650 a53d 39e1 01be
00000030: b90e e2bd 928c 36bd 9232 bdbb 78b1 3bba
00000040: 3ede 15bd 9665 edbc 47fb a9bd 211a 113d
00000050: abf2 5b3d 9688 d93c 330e 0cbd cf90 10bd
00000060: fb2c 9a3d 48de 22bc 4519 813b 180e 6dba
00000070: b8b5 66bd 7392 153d ba0f fb3d 9b09 6b3d
00000080: 66d1 3bbd 3baa d93c ddcc 9ebd 369c c33d
00000090: 4f2f 21bd 490f a83d 25e5 e8bd c3b8 de3d
000000a0: fa53 d83d 2bb8 873d 2c8e bf3d 7fbc 663d
000000b0: d7e4 9e3d 40f4 9d3d 8423 54bd be3d ecbd
000000c0: fcaa 823d 57f4 f2bd 360a f43c d049 94bd
000000d0: d109 1e3d 8893 b9ba cf9e ad3d 104b 6c3d
000000e0: 1b6d 123b 2427 8dbd 1ae7 893d cfea fbbc
000000f0: d672 a13d 67e4 863d 7161 26bd 9d8d 3f3d
00000100: 7e54 2bbc c23a c8bd 6b7b c0bd 73a3 c53d
00000110: ef45 02bd 7e6d 063e 97ab c1bd 0784 f33d
00000120: 5c9a 22bd 3f99 923d ad93 fcbd 755d c03d
00000130: d1c2 343d 6dd6 8cbd f5d5 673d 58a4 88bd
00000140: c424 c43d 1635 b1bc 3d05 6bbc 0833 583d
00000150: 5f2f 1ebd 44d1 8c3d efa2 c7bc 327c 54bd
00000160: 6b66 d2bd 6d07 de3d d1c0 1ebd c8ae c73d
00000170: 0049 083d 15db 8fbd 7ac4 c73d 7a45 81bd
00000180: ec05 47bb ddda 343d 038d cfbd ee99 23bc
00000190: 6192 4bbd 9e8f 86bb eae4 2dbd 320e d8bd
000001a0: ffcb 80bd f127 273c 62c2 b9bc 1317 efbc
000001b0: c0fb ca3b f2e8 a03c 207a 7abd 7114 2dbd
000001c0: 3404 d93d bc61 843d 89fa d13d dee4 d03d
000001d0: 4a71 d93d 2f38 e73d 3585 60bd 961e 4f3d
000001e0: e1cc 54bd b992 a9bd e474 aabd 2aae d3bd
000001f0: 2807 593d 963d 583d b6a7 5d3d ba93 62bd
00000200: 98f1 77bd ddad b23d 8f69 88bd bb20 a93d
00000210: 7720 88bd 9bf4 c9bd 2e5b 40ba afc0 dd3d
00000220: 862c e43d 6337 01be e4f2 613c 340d 01be
00000230: 9488 afbd 2d57 103d 39a6 04bc f597 0ebd
00000240: 1d09 8dbd 69d8 c3bc 3a3c 813c 5d00 58bc
00000250: 260d 5dbd cad8 3cbd e881 e43d 35bf 9c3c
00000260: d103 e9bc 48e9 adbd 47c1 3fbd dd24 c1bc
00000270: e6be f03d d5a7 b8bd 7333 85bd 4d23 95bd
00000280: fbc8 85bc 0a60 8e3d 9dd4 30bd 6cdd 1abd
00000290: 70d6 f5bd de4d 333d 4498 073c a249 4fbd
000002a0: 9b13 fa3d 0c64 bd3d 17fb 8c3b 9747 30bd
000002b0: 02f0 94bb b6dc 0a3c c522 6dbc 3eb6 ff3d
000002c0: cc67 a53d af2b 87bd 3c3e a2bd 0797 443d
000002d0: b45e 14bb db71 afbc e774 c6bd 5ec6 6dbd
000002e0: 382f 013e 0333 b93d a177 11bd a81e 45bc
000002f0: 1e44 5b3d 7382 1f3c d5e6 093d 18f5 ab3d
00000300: f433 963d d0b6 76bd 2d6d c73d 950d 423d
00000310: 6edf 80bd 71fc c1bc ab68 393d f89e 5ebd
00000320: c24d aabd 7361 96bd b0f9 aa3d bc0c a4bd
00000330: ee33 f2bd 31e1 a93d 61d9 c3bd c091 dc3d
00000340: db51 01be 1459 783c 4ecf 293c 222d 8c3c
00000350: d4dd 233d fcd4 f0bd 912b 3d3d 667f 21bc
00000360: 6448 d5bc 4884 c73d 04a7 08bd 4566 1dbd
00000370: 1fdb c4bd a309 efbd 6f70 c8bd 4063 de3c
00000380: c755 303d 7e22 e5bc dd1f 96bd 63b3 deba
00000390: 6a07 06bd acee a23c b7d7 343d 52aa 39bd
000003a0: 3618 08bd b55a bfbd ef8c ee3d 9cba 3c3d
000003b0: e160 eabd 793c 733d 3c6f 7e3d 80bf 663d
000003c0: 749c b1bc 7ecd bebd 6b60 e53c 1f9b fbbc
000003d0: 0d3e 07bd e656 3bbd 4e13 95bd afcc 2c3d
000003e0: fc00 803d 3c4c e73b a612 d73d 2982 7cbd
000003f0: d819 cbbd c420 01be d365 debd 6d05 dcbd
0.108048975 0.06777289 0.09622537 0.118451096 -0.011430398 -0.05218373 -0.05477046 0.011535948
0.038936164 -0.03670244 0.0807194 -0.12683572 -0.110379644 -0.044567652 -0.0057738507 -0.0007159929
-0.0365889 -0.028979104 -0.082998805 0.03542531 0.053698223 0.026554387 -0.03419323 -0.03529435
0.075281106 -0.009940691 0.00393978 -0.00090429327 -0.056325644 0.036516618 0.12258859 0.057382207
-0.045853995 0.02657043 -0.07753918 0.09551279 -0.039351758 0.082060404 -0.11371831 0.10875084
0.10562892 0.06626924 0.09353289 0.056332108 0.077584915 0.077126026 -0.051791683 -0.11535214
0.06380269 -0.118630104 0.029790025 -0.07240641 0.03858358 -0.0014158348 0.08477556 0.057688773
0.0022342864 -0.06892231 0.06733532 -0.030751614 0.07883231 0.06586533 -0.04062027 0.046765912
-0.010457156 -0.09776832 -0.0939854 0.09650316 -0.031804975 0.13127705 -0.09456556 0.118904166
-0.03969799 0.071581356 -0.123328544 0.093928255 0.044131104 -0.06876836 0.05660053 -0.06671971
0.09577325 -0.021631759 -0.014344511 0.052783042 -0.038619395 0.06875852 -0.024369685 -0.051876254
-0.10273441 0.1084126 -0.038758103 0.09750134 0.033272743 -0.070242085 0.09754272 -0.0631208
-0.003036852 0.044154037 -0.10134318 -0.00998543 -0.049700145 -0.004106476 -0.042454638 -0.105495825
-0.06288909 0.010202394 -0.022675697 -0.029185807 0.0061945617 0.019642327 -0.061151624 -0.042255823
0.10596505 0.06463954 0.10252864 0.10199903 0.10617311 0.11290013 -0.054814536 0.05056628
-0.0519532 -0.08279938 -0.08323076 -0.103359535 0.05298534 0.052793108 0.05411502 -0.055316664
-0.060533136 0.08724568 -0.06660759 0.08258196 -0.06646817 -0.09861108 -0.00073378056 0.10827767
0.11141305 -0.12618785 0.01379082 -0.12602693 -0.08570972 0.035239387 -0.008096271 -0.034812886
-0.06886504 -0.023906903 0.015775789 -0.01318368 -0.053967617 -0.046105184 0.1115759 0.019134143
-0.028444203 -0.084917605 -0.046815183 -0.023577148 0.11755161 -0.090163864 -0.06503954 -0.07282124
-0.016331187 0.06951912 -0.043171514 -0.03780882 -0.12003791 0.04377543 0.008276049 -0.05060733
0.12210771 0.09247598 0.004302393 -0.043037023 -0.0045452127 0.008475473 -0.014473622 0.12485932
0.08076438 -0.06600129 -0.079220265 0.047995593 -0.0022639455 -0.021416595 -0.09690266 -0.058050506
0.12615669 0.09042933 -0.035514478 -0.012031235 0.05353176 0.009735691 0.033667404 0.08396357
0.07334128 -0.060232937 0.097376205 0.047376234 -0.06292616 -0.023679944 0.045265835 -0.054350823
-0.083156124 -0.07342806 0.08348405 -0.080102414 -0.11826311 0.08294905 -0.09562946 0.10769987
-0.12628882 0.015157957 0.010364367 0.017111365 0.040006474 -0.117593735 0.046184126 -0.009857034
-0.026035495 0.097420275 -0.033362404 -0.03842761 -0.096121065 -0.1167176 -0.0978707 0.027146935
0.043050554 -0.027970549 -0.07330296 -0.0016990717 -0.032721914 0.019889198 0.044151034 -0.045328446
-0.033226214 -0.09343473 0.11647975 0.046076402 -0.114442594 0.059383843 0.0621178 0.056334972
-0.021681048 -0.09316538 0.028000077 -0.030713616 -0.03301816 -0.04573717 -0.07279073 0.04218739
0.06250188 0.0070586484 0.10501604 -0.061647568 -0.09917039 -0.12610155 -0.10859265 -0.107432224

feature_extract.mlps.1.linears.0.bias f4 [64]
00000000: a607 96bd fd1c 433d df26 52bc 1ba2 093d
00000010: 9db8 51bd 86d2 96bd e345 40bd e561 cb3d
00000020: 1479 b43d 2b7d cc3c 2e0a 273c 5e38 97bc
00000030: 7a42 b93d de7b 41bd 9141 243d caf5 1cbd
00000040: 06a5 f23d deb3 2d3c 4304 c83d be6b e83d
00000050: e31d 75bd 52ef bcbd 4736 743a cd03 e03c
00000060: a364 f73d 0d44 da3d 52be a9bd c57e a43d
00000070: 3be0 a83c e638 91bd be35 b7bd e4df b03d
00000080: 9d07 a13d c8f4 dfbd 0dac 9abd 3226 843d
00000090: de44 5f3d cdb1 4b3d b537 66bd b44e f93b
000000a0: 4e10 f43a bb3f f1ba 4c00 0e3d 6f77 1fbc
000000b0: 04e8 9d3d 0ca8 fdbd 8d4a ca3d b990 e33d
000000c0: 5fd4 7a3c a601 903d af85 68bd 8a26 e13d
000000d0: 09ab 313c ae45 ebbd be32 753d 0385 c03d
000000e0: 7359 063d f7d2 7e3d 2a24 0ebc 658d 543d
000000f0: 4311 dc3d 583f efbd 0413 99bd 34a7 e8bd
-0.073256776 0.047635067 -0.01282665 0.03360186 -0.05120145 -0.07364373 -0.04694165 0.09930781
0.08812156 0.024962028 0.010195298 -0.018459495 0.090458825 -0.04723727 0.04010159 -0.03832034
0.11847882 0.010601966 0.09766438 0.11348675 -0.059842955 -0.09225334 0.0009315949 0.027345562
0.12079742 0.10657511 -0.08288254 0.08031992 0.020614734 -0.07090931 -0.089457974 0.08636454
0.0786278 -0.1093536 -0.07552347 0.06452598 0.054509036 0.04973011 -0.05620547 0.007608259
0.0018620582 -0.0018405834 0.034668252 -0.009733065 0.07710269 -0.12385568 0.09877501 0.11111588
0.015309422 0.070315644 -0.056768116 0.10993679 0.010844001 -0.114879 0.059862845 0.0940037
0.03280015 0.06221291 -0.008675614 0.051892657 0.1074548 -0.11682004 -0.0747433 -0.113600165

feature_extract.mlps.1.linears.1.weight f4 [64, 64]
00000000: f6b4 c3bc 231a ad3d 2256 8a3d e826 26bc
00000010: 7e9d d3bd ad28 a8bd 4dfc ca3d 8937 c63d
00000020: 43f4 293d 8257 13bc 28a5 d2bd c03f a9bd
00000030: d646 b7bd 40cd 9c3d 84bd 72bd 1e2b a53d
00000040: 3fd6 f03d d855 af3d 74c8 debc 7829 bf3b
00000050: 569a e73d c26d d3bd ea89 5f3d c467 df3d
00000060: 3324 aabc dde0 5ebd 4eeb e9bd 44e3 62bd
00000070: 3477 573d 1e58 34bd d038 883d ecf9 02bd
00000080: 42c8 a33d 4cf1 943c 82dd e3bd c752 a6bd
00000090: eb7f 8bbd 00c9 cf3d 0b79 d1bd 8d5c 533d
000000a0: 3400 c8bd 2a42 1b3d a479 bebc 517b 8bbd
000000b0: 0285 d03d d127 eebd 5c62 f83d 4c60 c73c
000000c0: f6a9 203c 423a 8ebd 4968 43bb 6390 a23d
000000d0: b8a2 913d 2a29 003e 8892 59bc ff32 bf3a
000000e0: 7e63 46bd 71a7 e0bd f93b 1c3d 769f c6bd
000000f0: 4e8b aa3d d009 93bc 3aec 85bc 114f 5f3d
00000100: d531 583c 1a9f a93d 2306 b33d b99e aabd
00000110: d9c3 e3bd 9c79 f0bd b67a f03d 359d f23d
00000120: 1132 8cbb f763 1b3d 8a4b 5d3d ea72 f9bd
00000130: 702b 393d 3c46 15bd 45bb c0bd 23a4 49ba
00000140: 641d 963d 8440 debd 90bf df3c c975 b2bd
00000150: 80a1 64bd e754 e6bc 6bf0 a33d e46a e5bd
00000160: 9732 24bd 795e 803d 9e91 d63c aa17 de3c
00000170: b049 c23d 02c2 14bd d9b9 423d f358 9abd
00000180: 98ee 68bc 0351 b53b ce91 57bc dc1b d8bd
00000190: f522 813d 09af 753d 3e07 4a3d 7c1c 613d
000001a0: 27fd 02bd 4f53 793c ddb4 62bd f50b 803d
000001b0: dfd4 e2bc 241f e03d ca92 a4bd e275 f73d
000001c0: c42d f93d 6f95 43bd 3a3d 7f3d d1f3 a13d
000001d0: 3297 fabd 97d2 b93d fb1b 4b3d 7325 dabd
000001e0: d26a 32bd d098 ddbd bd36 4cbd 5dff c0bd
000001f0: 0569 aabd 6631 75bd 2f0c 00bd 8efc 02bd
00000200: 7d89 30bc 6c80 953d 5962 943d 86d5 04bd
00000210: 5e26 a7bd 5d42 003e 2aa2 ea3d a842 abbc
00000220: 5e0f 803c 37d5 973d 6fdd 403d 7851 473d
00000230: 87ba d53d df9f bd3c 8bac efbc b9ee d4bd
00000240: fdea 943d 0782 25bd 4219 91bd 7a12 863d
00000250: 9f79 d0bd e2f6 b53d a5f0 83bb f455 013e
00000260: 3039 5dbd 6610 df3d 8ed1 0ebc 6157 f4bd
00000270: 1aa8 1f3c 6494 e5bb 6a7e 4a3d cce4 9d3c
00000280: eb5a 123c 1c41 f5bd f9d0 98bd e41c 8dbd
00000290: e437 40bd 21b5 65bd 0dd9 22bd 6446 653d
000002a0: c243 383d 4fdd 02bc e3ca 07be 5f8a e13d
000002b0: e143 893d ad76 f8bd 344c b83d 2aea c53d
000002c0: 69f0 c43d de1c 99ba 86d2 c7bd a381 11bc
000002d0: fe97 babd 042d d33d b406 b23d 1f12 853c
000002e0: a8a6 133c 90ae 53bd 8c5a 5ebd da69 823d
000002f0: 225b bd3d b972 f13c afa2 6fbc 0d59 8c3b
00000300: d57b b9bb 4288 34bc 96c3 57bc fcba bd3c
00000310: 26b9 b03c a8ae e23d 553c b1bd b5e2 49bd
00000320: 4956 003d 45ea e23d ab65 e63d 4a83 8b3d
00000330: d45b 15bb a03f 9e3d 4f16 aebd e674 a53c
00000340: 8e4a 2cbd 25a9 963d 4e44 7abd 73d8 f23d
00000350: bf04 843c 57bd f3bd 4542 c03d 6fe4 c7ba
00000360: 30b8 05be c6ff fb3d 8cd4 89bd b345 fbbb
00000370: c8ff f83d 86e6 2dbd 3ab4 cebd 58ec 013e
00000380: ccad c7bd 58b5 f63d f256 e33d f00c a43d
00000390: 18a9 9b3d d681 a93c 0e93 f3bd 58cd cabd
000003a0: 7f0c b13d 2286 e43d 5a44 903d 8702 d7bd
000003b0: d930 8f3d 3af6 61bb f910 88bc bc5c cebd
000003c0: 68c3 b5bd 4a5f f5bd ee38 c13c b8df fe3d
000003d0: d056 89bd 4bde 4abd 576f b7bd a92c e6bd
000003e0: 7b01 d33d 08e7 903d 568f 4fbb 35b7 073d
000003f0: bfa8 af3d 6c77 93bc 8726 acbd 4afd df3c
-0.02389 0.08452251 0.0675471 -0.010141112 -0.103327736 -0.08210883 0.09911404 0.09678561
0.04149271 -0.008993031 -0.10285407 -0.082641125 -0.08949058 0.07656336 -0.059262767 0.080648646
0.11759614 0.08561295 -0.027195193 0.005833801 0.11308734 -0.10323669 0.054574884 0.109084636
-0.020769214 -0.054413665 -0.11421834 -0.05539252 0.052603915 -0.044029348 0.06651461 -0.031976625
0.079971805 0.018181466 -0.11126234 -0.08121257 -0.06811508 0.101457596 -0.10228165 0.051601935
-0.09765664 0.037904896 -0.023251362 -0.0681063 0.10181619 -0.11628688 0.121281356 0.02433791
0.009806147 -0.069447055 -0.0029816797 0.07937696 0.07111114 0.12515703 -0.013279565 0.0014587342
-0.048434727 -0.10969437 0.038143132 -0.096983835 0.083273515 -0.017949015 -0.016347993 0.054518763
0.013195475 0.08282299 0.08741405 -0.08331055 -0.11121339 -0.11741945 0.11742155 0.11846391
-0.0042784293 0.03793713 0.054027118 -0.12180121 0.04520744 -0.036443934 -0.09410719 -0.0007692
0.073298246 -0.10852149 0.027313024 -0.08713872 -0.05581808 -0.028116656 0.080048405 -0.112020284
-0.04008731 0.06268019 0.026192483 0.027110893 0.09486711 -0.036317833 0.04754052 -0.07536497
-0.014217041 0.005533339 -0.013157321 -0.10552189 0.06305496 0.05998138 0.049323313 0.054958805
-0.031979706 0.015217616 -0.055348266 0.062522806 -0.027689395 0.109434396 -0.0803581 0.12083031
0.12166932 -0.047749933 0.06231425 0.079078324 -0.122358695 0.0907337 0.04958723 -0.10651674
-0.043558903 -0.10820162 -0.04985689 -0.09423707 -0.08320812 -0.059861563 -0.03126162 -0.031979136
-0.010774967 0.07299885 0.07245321 -0.032430194 -0.08161615 0.12525316 0.114567116 -0.020905808
0.015632328 0.074137144 0.047086176 0.04866168 0.10435968 0.023147522 -0.02925708 -0.10397095
0.07271383 -0.040407207 -0.07084896 0.06546493 -0.101794474 0.0888498 -0.00402649 0.12630445
-0.054009616 0.108918 -0.008716954 -0.11930729 0.009744668 -0.007006215 0.049436964 0.019274138
0.008932809 -0.11975309 -0.07461733 -0.06890276 -0.0469283 -0.05608094 -0.039757777 0.055975333
0.044986494 -0.007987334 -0.13260989 0.1101272 0.067024 -0.121320106 0.089989096 0.09663804
0.09616167 -0.0011681577 -0.09756951 -0.008881005 -0.091110215 0.103113204 0.08692685 0.016243992
0.009011902 -0.051680148 -0.05428557 0.06367846 0.09245898 0.02947365 -0.014626189 0.0042830766
-0.005660514 -0.0110188145 -0.01316919 0.02316045 0.02157266 0.11068469 -0.086540855 -0.04928847
0.031332288 0.110798396 0.112498604 0.06812151 -0.002279033 0.07726979 -0.08500349 0.020197343
-0.04206329 0.073564805 -0.061100297 0.11857691 0.016115544 -0.11901348 0.0938764 -0.0015250574
-0.13058543 0.12304644 -0.06729993 -0.007668221 0.121581614 -0.042456172 -0.10092969 0.12687814
-0.09749946 0.12046307 0.11100568 0.0801028 0.076006114 0.020691793 -0.11893283 -0.099024475
0.086449616 0.11158396 0.07044287 -0.10498529 0.06991739 -0.0034479038 -0.016609656 -0.100762814
-0.088751614 -0.119810656 0.023586717 0.12445015 -0.06706011 -0.0495284 -0.08956783 -0.11238987
0.10303017 0.07075316 -0.0031671128 0.033133704 0.08577108 -0.01800128 -0.08405786 0.027342457

feature_extract.mlps.1.linears.1.bias f4 [64]
00000000: b4f1 993d 6ed0 09bd 88ff bbbd 2925 303d
00000010: 89e9 df3c 1821 1d3d 3128 b3bc 75cc 8bbd
00000020: 674b e63c cf83 9f3d a5d4 ff3d cb38 b8bd
00000030: ef11 07bd f6e9 c43d d24b a5bd 2d46 d33d
00000040: c4d4 0b3d 29aa 923d 37b4 2bbd 4154 d43d
00000050: 9b63 f6bd 50a6 aa3d 0f9d 133c 6af5 123d
00000060: 8b14 873d d8cc f7bd 9259 4b3b cc95 2e3b
00000070: e060 143d 4f18 8dbc 2882 9b3c 2f00 bcbb
00000080: 14e4 e5bd 864f 76bd 24f9 b33d 7ac0 ccbd
00000090: 0ea0 36bd 837b c5bd 96b0 97bb 06e4 563d
000000a0: d1c6 59bc eb8b 833d 8e5a adbd 714e abbd
000000b0: fb1a dabd 71c5 673d b60d 9a3c 17b8 acbd
000000c0: 4f70 f0bd 4326 25bd e17f 6dbb aa2d ad3d
000000d0: 4439 a4bd ffd8 a73d 55f5 453d c978 e5bd
000000e0: 430f 433d e118 a43d a461 93bd 8c4b b53d
000000f0: 69ac e73d c098 bcbd db71 b83d a19a a03d
0.07516804 -0.03364604 -0.09179598 0.04300419 0.027333038 0.03836164 -0.02186975 -0.068261065
0.028112127 0.07788812 0.124917306 -0.089952074 -0.032976087 0.09614937 -0.08071102 0.10316119
0.034138456 0.07161362 -0.041919913 0.10367633 -0.12030717 0.08332503 0.009009614 0.035878576
0.06595715 -0.12099618 0.003102873 0.002663958 0.0362252 -0.017223505 0.018982962 -0.0057373266
-0.11225143 -0.060134433 0.08787754 -0.099976495 -0.044586234 -0.096426986 -0.004629205 0.052463554
-0.01329203 0.064231716 -0.084645376 -0.08364571 -0.10649677 0.05658478 0.018805366 -0.0843355
-0.11740171 -0.040319692 -0.0036239552 0.08455975 -0.08018735 0.081956856 0.04832967 -0.112046786
0.047621977 0.08012558 -0.07196358 0.088523 0.113121815 -0.09208822 0.09006091 0.07841993

feature_extract.mlps.1.batch_norms.0.weight f4 [64]
00000000: edaa 7d3f 0fb4 7f3f c070 803f e723 7f3f
00000010: 9aa2 7e3f 5576 803f cf18 813f dea5 7e3f
00000020: d8ae 7f3f 65a6 803f f26d 803f 1b0e 813f
00000030: 5f60 7e3f 09c6 7e3f 1c74 7e3f b223 7e3f
00000040: 425a 7f3f 6215 7e3f 7e8e 7f3f 9bc4 803f
00000050: 02af 803f 8caf 7f3f a433 7f3f b43d 803f
00000060: 5ba8 803f b21e 803f 41fb 803f c717 813f
00000070: aeda 803f a9a5 803f 9c82 7f3f e1f4 803f
00000080: 35a5 803f 34bb 7e3f ec8c 7f3f e2ba 803f
00000090: 62c7 7e3f 0c1f 803f b494 7d3f a71b 7e3f
000000a0: d2a8 7f3f 7777 7e3f 55e1 7e3f ffcd 7d3f
000000b0: ab90 803f 3107 813f 7e1d 813f 50dd 803f
000000c0: 2e27 7f3f dcc7 7e3f d615 813f cb80 803f
000000d0: b75a 803f 0737 813f a8bc 803f 2c60 7d3f
000000e0: d4c7 7d3f 19e1 7e3f d422 7e3f 2c17 803f
000000f0: 47a5 7e3f d076 7f3f 8ca0 803f d884 803f
0.9908894 0.9988412 1.0034409 0.9966416 0.9946686 1.0036112 1.0085696 0.99471843
0.99876165 1.005078 1.0033553 1.008243 0.993658 0.9952093 0.9939592 0.99273217
0.997471 0.9925138 0.998268 1.0059999 1.0053408 0.9987724 0.9968817 1.001883
1.0051378 1.0009367 1.0076677 1.0085381 1.0066736 1.0050555 0.9980867 1.0074731
1.0050417 0.995044 0.99824405 1.0057032 0.99522984 1.0009475 0.9905503 0.99260944
0.99866974 0.9940104 0.9956258 0.9914245 1.0044149 1.008032 1.0087125 1.0067539
0.9966916 0.9952371 1.0084789 1.0039304 1.0027684 1.0094918 1.0057573 0.9897487
0.9913304 0.9956222 0.99271894 1.0007071 0.99470943 0.9979067 1.0048995 1.0040541

feature_extract.mlps.1.batch_norms.0.bias f4 [64]
00000000: c1bd fbbb 1236 87ba 2d3a 863b 7fef 92bb
00000010: 700b fb39 ce76 6e3b 5a63 e43b 47b6 b3bb
00000020: 47be 813b 97cf a23b cf10 913b 9c9e df3b
00000030: c170 8abb ad27 91bb c277 9c3b d5b0 d2ba
00000040: 3c78 9bbb 9330 a0bb 73a1 c6bb 8c3e dc3b
00000050: ce61 483b 237d 84b9 2c91 b3ba c62d ff3a
00000060: bfd9 b13b e9d9 91bb 7763 c73b ead8 173c
00000070: c572 8b3b d330 973b 3ac5 ffba e160 f43b
00000080: 2859 b43b 7b70 9abb 2c79 7bba 2169 8a3b
00000090: fca7 36bb 4877 0b3b 3f2d dcbb 16cb d4bb
000000a0: 47de d73a 17cc a0bb 92ca 1dbb 463e 83bb
000000b0: 4dce ce3b 5a1a 183c a37e e03b d909 033c
000000c0: 7d22 003c c1d2 fbba 1021 053c f0fa 853b
000000d0: 2155 3a3b a186 1e3c 992b b93b 58a0 12bc
000000e0: ccab e7bb f5a9 8bbb bfd9 f1bb 12d5 6abb
000000f0: c30b 41bb bb2d 0aba 5fdb bf3b 1227 9d3b
-0.0076825325 -0.0010315797 0.0040962906 -0.0044841166 0.00047882972 0.003638673 0.0069698514 -0.0054843756
0.0039594504 0.0049685943 0.0044270526 0.0068243276 -0.004224867 -0.0044297785 0.0047750184 -0.0016074429
-0.0047445577 -0.004888603 -0.0060617267 0.0067213234 0.0030575874 -0.00025270236 -0.0013699881 0.0019468598
0.0054275687 -0.0044510257 0.006084855 0.009268025 0.004255625 0.0046139746 -0.0019513734 0.007457838
0.0055037923 -0.0047131157 -0.0009592946 0.004223958 -0.0027871123 0.0021280814 -0.006719261 -0.0064939363
0.0016469442 -0.004907142 -0.002407704 -0.0040052263 0.006311214 0.009283626 0.006851034 0.007997953
0.007820723 -0.001921259 0.0081255585 0.004088752 0.0028432088 0.009675653 0.005650949 -0.008949362
-0.0070700403 -0.004262204 -0.0073806937 -0.0035832566 -0.0029456473 -0.00052710966 0.0058550085 0.0047959173

feature_extract.mlps.1.batch_norms.0.running_mean f4 [64]
00000000: db68 623f 63f4 57bb f838 99be 1c35 88bf
00000010: 88dd a4be e663 f53c 9e7f b3bc e549 74be
00000020: cd7c 6d3f 029a 493c d7c7 1cbf 01b4 03bf
00000030: 1997 603e 643b 703c 8116 623f 95a3 873f
00000040: d804 d93e 83fb b2be 605d 423f 90d5 b9be
00000050: ace4 923e 13e0 34be abad 0ebf 4c70 90bf
00000060: ce98 77bd b058 f7be 60c0 f6be 1f85 293f
00000070: 0739 4ebf b740 25bc 1a6d 91be 3c80 84be
00000080: f365 7ebf 6319 aebe 697a a5be 749d cc3e
00000090: 7812 d1bd aeb7 29bf 729a 553f 8cc2 f8bd
000000a0: c60e 233f 447b 983f 5eef 6fbe e3ea ed3d
000000b0: 3907 25bf 1fe3 84be 1e77 1ebf 74ff d03e
000000c0: 286d 7b3e 479d 183f b3f4 5fbf 7d5a 72bc
000000d0: 0361 413f 2be2 42be 8965 033e 7870 d33e
000000e0: 559f 623f 2638 05bb 3509 543f f73e aebf
000000f0: 477e 113f 1572 6cbe 411e 003f a7ab 9a3e
0.88441247 -0.0032952062 -0.29926276 -1.0641208 -0.32200265 0.029954862 -0.021911439 -0.23856314
0.92768556 0.012304785 -0.6124243 -0.5144654 0.21932639 0.014662597 0.8831559 1.0596796
0.42386508 -0.34957513 0.7592373 -0.36295748 0.28690088 -0.17663603 -0.55733746 -1.128427
-0.06044846 -0.4830985 -0.48193645 0.6621875 -0.80555767 -0.01008623 -0.2840355 -0.25879085
-0.9937431 -0.34003744 -0.32319954 0.39963877 -0.10208601 -0.662959 0.8343879 -0.12146482
0.6369442 1.1912618 -0.23431155 0.11617067 -0.64464146 -0.2595453 -0.6190051 0.40819895
0.24553359 0.59614986 -0.87482756 -0.014792082 0.75538653 -0.19031589 0.12831701 0.41296744
0.8852437 -0.0020327657 0.8282655 -1.3612965 0.5683331 -0.23090394 0.50046164 0.30209085

feature_extract.mlps.1.batch_norms.0.running_var f4 [64]
00000000: 1f07 993e 909a 193f b86a 263f 28ad 953e
00000010: b3f5 a63f 607e bd3d 2af2 5c3e b0b4 d23e
00000020: e9af 103f 517c be3e 0079 8c3e e865 c03e
00000030: 77fd 893e f54c 7b3f 5aef 383f f7f4 223f
00000040: 9a0c 293f dbe5 ff3e b75d 393f 768f ac3e
00000050: 5bf0 6c3f d995 df3e b560 733f 932d f43f
00000060: 5619 0c3f bc6c 9b3f 39a6 873f 5036 3e3e
00000070: a6d5 263f 1b0f 913f 9582 8b3e 43e0 8b3e
00000080: 6245 353f 4f84 aa3e a373 963e 3b8a 693f
00000090: b7d9 843e 147b 563f 5706 4d3f 447c fd3e
000000a0: 1a74 d23e 7370 4a3f 3dd4 173f 5bcf c23d
000000b0: a1ab 2b3f 1bc9 3e3f ab0f 303e 818a 9b3e
000000c0: bc83 cc3f c185 2a3e e01f 883f 0dd0 a13e
000000d0: 9b05 0c3f f779 a63e 6180 423e 2bb2 1a3e
000000e0: f121 8f3f 40dd d73d cf8a 0f3f d4d1 243f
000000f0: dc00 333f 1abf 463f e320 613f 4a74 183f
0.29888245 0.6000147 0.6500659 0.2923367 1.3043731 0.0925262 0.21576753 0.4115348
0.5651842 0.3720422 0.27436066 0.37577748 0.2695119 0.981643 0.7224022 0.63655037
0.66034853 0.49980053 0.7240862 0.33703202 0.92554253 0.43669012 0.9506944 1.9076408
0.5472616 1.2142558 1.0597602 0.18575406 0.6516975 1.1332735 0.27248064 0.27319536
0.70808995 0.33304068 0.293851 0.9122655 0.25947353 0.8378155 0.800878 0.4950887
0.41104203 0.79077834 0.59308225 0.09512206 0.6705876 0.7452561 0.17193477 0.30379108
1.5977702 0.16652586 1.0634727 0.31604043 0.54696053 0.32514927 0.18994285 0.15107028
1.1182233 0.10540247 0.5607118 0.6438267 0.69923186 0.7763535 0.87940806 0.59552443

feature_extract.batch_norms.0.weight f4 [64]
00000000: 5902 803f 537b 7f3f 055f 7f3f 639a 7e3f
00000010: 8747 803f 4e52 7f3f 2941 7f3f 9326 7f3f
00000020: f6b0 7d3f 66c5 7e3f 8217 7f3f de9f 803f
00000030: a096 803f c629 803f f951 803f 9cbd 803f
00000040: 2211 803f 6df9 7e3f 331a 803f 2775 803f
00000050: b25a 803f fe85 803f 8048 7f3f a572 803f
00000060: 8625 803f 1bc5 7d3f 7fb9 803f 05fd 7e3f
00000070: 6b66 803f bd38 7e3f b783 7f3f e546 7f3f
00000080: 96a0 803f a846 803f f619 803f 3a49 7f3f
00000090: a877 7e3f eeeb 803f b652 7e3f f1f7 7f3f
000000a0: 9c9e 803f c300 7e3f d870 803f 9f6c 7e3f
000000b0: 0184 7f3f 133b 803f 78ba 7f3f 06b8 803f
000000c0: 1e9e 803f 2035 7f3f c8ad 803f a513 7f3f
000000d0: 5c24 803f 9feb 7e3f 5bac 7f3f 6b3d 7f3f
000000e0: 14bf 7e3f f8ad 803f 8501 813f 880e 803f
000000f0: 0d99 803f a59f 7f3f 318c 7e3f ac58 803f
1.0000716 0.9979755 0.99754363 0.99454325 1.0021828 0.9973496 0.997088 0.99668235
0.99098146 0.99519956 0.99645245 1.0048788 1.0045967 1.0012748 1.0025016 1.0057864
1.0005229 0.99599344 1.0007995 1.0035752 1.0027678 1.0040891 0.9972 1.0034987
1.0011451 0.99128884 1.0056609 0.9960483 1.0031255 0.99305326 0.99810356 0.9971755
1.0049007 1.0021563 1.0007923 0.9972111 0.9940133 1.0072 0.99344957 0.99987704
1.0048404 0.9921991 1.0034437 0.9938449 0.99810797 1.0018028 0.99893904 1.005616
1.0048254 0.9969044 1.0053034 0.9963935 1.0011096 0.9957828 0.9987237 0.9970309
0.9951031 1.0053091 1.0078589 1.0004435 1.0046707 0.99852973 0.99432665 1.002706

feature_extract.batch_norms.0.bias f4 [64]
00000000: e29c 703b c61f f138 aa81 363b 72d5 c7bb
00000010: 818a 4b3b 6aa7 52bb 8e6f 97bb b306 c53b
00000020: 76c2 1cbc 180d 94bb 8228 5c3b 6fbc 9a3b
00000030: e909 ef3b 50de 073b 289c 5d3b d295 fb3b
00000040: 6451 033a 04d2 01bc 8bdd 163c df2f 503b
00000050: 8a0e 3a3b 48dc 633b c006 01bb b7f0 8e3b
00000060: 95e2 b43b bb23 c2bb a8dd eb3b 7299 99bb
00000070: 69d3 623b b3af 05bc 54aa 2cbb 8c32 b73a
00000080: af0b b43b 7c16 d3ba ece7 fc3a 44fd 9bbb
00000090: 9046 f73a c162 e93b 4085 9dbb f1ea a9ba
000000a0: b8f1 433b 5215 27bb d4be 4f3b 1d5f aebb
000000b0: bef6 f237 2db9 86bb f05a 80bb 4b5b a53b
000000c0: 1328 d73b 2e7d 00bb 6f4d a83b 847d 3fbb
000000d0: e4ed ed3a 7d2b 9dbb dafa 44b9 5f74 f3ba
000000e0: e73c dfbb d9e9 c63b ed61 da3b 6347 563b
000000f0: 3cc7 8d3b d114 88bb 5b57 e5bb 0a2e 7a3b
0.0036714603 0.00011497694 0.0027848282 -0.0060984427 0.0031057897 -0.0032143244 -0.0046214527 0.0060127615
-0.0095678475 -0.0045181625 0.003359348 0.00472217 0.0072948826 0.0020731874 0.0033815 0.007677772
0.00050093816 -0.007923607 0.009208093 0.0031766815 0.0028390014 0.003476875 -0.0019687861 0.0043621915
0.0055201747 -0.0059246696 0.0071980543 -0.0046874816 0.0034610874 -0.008159566 -0.002634664 0.0013976856
0.005494557 -0.0016104723 0.0019295192 -0.004760416 0.0018865634 0.007122368 -0.0048071444 -0.0012963695
0.0029898714 -0.0025494886 0.0031699436 -0.005321397 2.8963546e-05 -0.00411143 -0.0039170906 0.0050462834
0.0065660565 -0.0019605863 0.005136184 -0.00292191 0.0018152562 -0.004796444 -0.00018785466 -0.001857411
-0.00681268 0.0060703573 0.0066645057 0.0032696358 0.004326729 -0.004152872 -0.006998939 0.0038174414

feature_extract.batch_norms.0.running_mean f4 [64]
00000000: 0dd3 193d 2fae e13c 8401 f1bd 11fd 0c3e
00000010: 30e0 3ebe a693 d13c 1c0d 26bd b522 f8bd
00000020: ad01 25be eb98 6a3e 111a 8ebc a0cc 04be
00000030: 483b 9f3d cfad 2dbd 8b86 f63d dc10 dfbd
00000040: 78d4 91bc 3e87 a9bd a1fa 56be a534 af3e
00000050: 780a 72bd f0ed c83e 9d11 c03e 0091 953e
00000060: d5b8 ac3d 2052 303f cd93 2cbe 14ae 033e
00000070: 60fa e33b 629f c5be b6cd b03e d01a 753c
00000080: dfd5 57be e71e 84be 6eaf c03c bcea 383c
00000090: e155 33bd 45ef afbe baa4 c33e ce5c 1a3e
000000a0: 7b91 e33b 6d6d 69be 9c95 a9bd 0786 a63c
000000b0: 0f7e 0c3e 9544 563e 1496 163e 900b 80be
000000c0: f2b8 303d 729a 6b3e 8d21 ca3e c2e2 83bc
000000d0: 01bc 55bd 641a 5c3e 0d75 6e3e 96dd 863e
000000e0: 278c 883c 0f79 14be 97ab d03e ca4c 903e
000000f0: 36de fbbe 257c dbbc 6769 47be d1e9 fe3d
0.03755479 0.027548878 -0.11767867 0.13768412 -0.18640208 0.0255831 -0.040539846 -0.12115995
-0.1611392 0.22909896 -0.017346414 -0.12968683 0.07774979 -0.042402085 0.12037381 -0.108918875
-0.017801508 -0.082777485 -0.20994045 0.34219852 -0.059092015 0.39244032 0.37513438 0.2921219
0.084336914 0.6887531 -0.16853257 0.12859374 0.0069573373 -0.38598162 0.34531945 0.014960006
-0.21077679 -0.25804827 0.023521151 0.011286434 -0.043783072 -0.34362236 0.38211614 0.15074465
0.006944833 -0.22795649 -0.08280489 0.020327581 0.13719963 0.209246 0.14705688 -0.2500882
0.043145128 0.23008135 0.39478722 -0.016099337 -0.052181248 0.21494442 0.23286839 0.26340932
0.016668392 -0.14499305 0.40755913 0.28183585 -0.4919297 -0.026792595 -0.19473802 0.12446941

feature_extract.batch_norms.0.running_var f4 [64]
00000000: a9b1 2b3d 07c2 7d3c 95d1 da3d 8f4d 683d
00000010: 5b6a 423d 8b97 953c ad3c c23c fe0a 743e
00000020: 4aa5 6a3e 2dcd b33c 0341 6f3e 3cc9 083d
00000030: c194 a53e 4115 d43d e973 c13c 8cfe d03c
00000040: de9d 803c 3238 1e3e 8159 223e d3f9 953e
00000050: a072 113c 862d 7d3e 8078 0d3d 2706 a93c
00000060: 889e dc3c ba9e 063e fdf3 a33d 6d54 6f3d
00000070: 3a06 d93c 1d67 6d3d 564b 9c3d cbbc 8d3d
00000080: da30 873d 68f7 833e 929f d93c 4dfb c53d
00000090: db4e b53c 7278 e63c f575 f83d 01d9 ed3d
000000a0: 4bea 633d 55af 1f3d 62cc cc3c b6ba dc3d
000000b0: 1488 683c 074f 0a3d 134d f33d 8c1f 0f3d
000000c0: 9759 b23e 0e4a 5f3d 5aa5 4f3e 4056 0b3d
000000d0: c9ac 893d 5a5b aa3d 7024 4e3d c2da 5b3e
000000e0: 3f3a 893c 75f5 403e 4749 b03d 3643 213e
000000f0: 570b 823d 8a9e 3f3e 5796 0f3f e7c9 883e
0.041917477 0.015488154 0.10684506 0.05671459 0.04746471 0.018260738 0.023710573 0.23832318
0.22914615 0.021948421 0.23364644 0.033395037 0.32340053 0.10355616 0.02361484 0.025512002
0.015700277 0.15451124 0.15854456 0.29292163 0.008877426 0.24724397 0.034538746 0.020632816
0.026931062 0.13146487 0.080055214 0.058430124 0.026492227 0.057959665 0.07631557 0.06920775
0.066011146 0.25774693 0.026565347 0.096670724 0.022132328 0.028133605 0.121318735 0.11613656
0.05564336 0.03898557 0.024999801 0.107778 0.0141926 0.033766773 0.11879935 0.034942195
0.34833977 0.054513983 0.2027792 0.0340178 0.06722409 0.08318205 0.05032772 0.21470168
0.016751407 0.18843634 0.086077265 0.15748295 0.06349819 0.18712822 0.56088775 0.2671654

feature_extract.batch_norms.1.weight f4 [64]
00000000: 2c57 813f 3a62 813f 9f9b 813f b6e2 803f
00000010: f09b 813f e622 7f3f 2336 813f e76e 813f
00000020: 3671 813f 0801 813f dc16 813f 0015 813f
00000030: 6274 813f ec9f 813f 9a2e 813f 111e 813f
00000040: 5060 813f 6e03 813f 0097 803f 2198 803f
00000050: 0e23 813f 40d8 7e3f e20e 7f3f af17 813f
00000060: 0e71 813f a5ee 813f c2e8 803f 3cbd 813f
00000070: f95f 7e3f 8be1 803f ab54 813f 1b31 813f
00000080: e43a 7f3f 42fc 803f 6e47 7e3f dd32 7e3f
00000090: 554a 803f 1039 813f f5d5 7f3f b579 813f
000000a0: c061 813f 4625 803f 2b25 813f d189 813f
000000b0: b58b 7e3f 2218 813f 1b56 813f bd03 813f
000000c0: 3df7 7f3f 6c1b 813f 0ff3 803f 1ef8 803f
000000d0: de5d 813f cab5 803f 234c 803f a72b 813f
000000e0: a79f 813f 929b 813f 699a 803f 2413 813f
000000f0: 914f 813f ad86 813f e158 803f edd0 7e3f
1.0104728 1.0108101 1.0125617 1.0069187 1.0125713 0.99662626 1.0094646 1.011197
1.0112674 1.007844 1.0085101 1.0084534 1.0113642 1.0126929 1.0092347 1.00873
1.0107517 1.0079172 1.0046082 1.0046426 1.0088823 0.9954872 0.99632084 1.0085353
1.0112627 1.0150954 1.0071032 1.0135875 0.9936519 1.006883 1.0103964 1.0093111
0.99699235 1.0076983 0.99327743 0.9929636 1.0022684 1.0095539 0.9993585 1.0115267
1.0107956 1.0011375 1.0089468 1.0120183 0.99431926 1.008549 1.0104402 1.0079266
0.9998663 1.0086493 1.0074176 1.0075719 1.0106771 1.0055478 1.0023235 1.0091447
1.0126847 1.0125601 1.0047122 1.0083966 1.0102407 1.0119225 1.0027124 0.99537545

feature_extract.batch_norms.1.bias f4 [64]
00000000: 6b5f 2d3c f1ee 0f3c c773 343c 1556 e93b
00000010: a6db b43b 804b 593b a794 0d3c 45cc 213c
00000020: a125 363c 7c4a 203c 5fe7 063c 4e1c 253c
00000030: c8ae 023c c194 013c 6929 113c e42e fe3b
00000040: 944f 14b9 8fa7 0f3c 5cf5 633b c743 c63a
00000050: 9443 093c a8f6 62bb 0bcf 80bb 2a9c 053c
00000060: e82d 223c 06ee 243c 2d42 1e3c 0b3e 4d3c
00000070: de13 b5bb 5359 da3b 6b16 1b3c d814 103c
00000080: 082d edba 091e 033c e301 cfbb c066 15bc
00000090: 44a4 2c3b 33ae 1a3c d315 c4bb 8b7e 3f3c
000000a0: e3c6 0c3c d73c 58b8 ec89 0f3c 7cb5 363c
000000b0: a3b6 f5ba 890f 093c 3269 253c 991d 0b3c
000000c0: 822c 29b9 d74a 073c afa8 983b 10cc ed3b
000000d0: 4fed 323c c1e0 c43b 3f9d 003c 7186 153c
000000e0: d5ea 3d3c dc44 2e3c 8167 b6b9 fe8a f03b
000000f0: 41ab 483c 359a 183c 377c 6cba 68b8 90bb
0.010581831 0.008784995 0.011013932 0.0071208575 0.005519348 0.0033156574 0.0086413985 0.009875362
0.01111737 0.009783383 0.008233874 0.010077549 0.007976241 0.007909001 0.008859971 0.0077570546
-0.00014144025 0.008767976 0.0034783697 0.00151264 0.008377928 -0.0034631882 -0.0039309314 0.008154908
0.00989864 0.010066515 0.009659332 0.012526999 -0.00552605 0.0066634803 0.009465794 0.008794032
-0.0018095085 0.008002766 -0.0063173636 -0.009118736 0.0026343027 0.009440946 -0.005984047 0.011687885
0.00859234 -5.1555075e-05 0.0087609105 0.011151668 -0.0018746447 0.00836552 0.010095881 0.008490943
-0.00016133676 0.008257589 0.0046587805 0.007256992 0.010920837 0.006008238 0.00784999 0.009126292
0.011591633 0.010636535 -0.00034790862 0.007340788 0.012247861 0.00931411 -0.0009021195 -0.004416514
