SavedNetwork/30_20_1_99.pth (torch_old, 86552 bytes, 30 tensors)

feature_extract.mlps.0.linears.0.weight f4 [64, 2]
-0.30073932 0.41987205 0.49928445 -0.23832218 0.07830117 -0.4189843 -0.5304083 0.35269147
0.5187116 -0.009424924 -0.7021807 -0.19108161 -0.4269236 -0.1881441 -0.2062431 -0.5842441
-0.37837514 0.29190812 -0.36786234 -0.32184014 -0.3920206 0.5580902 -0.29974976 -0.22960356
-0.14480233 0.65988547 -0.40608677 0.25483283 0.5985128 0.15637739 0.70492846 -0.34425274
0.5336747 -0.62630296 0.38833547 -0.5258487 -0.5487481 0.13311085 -0.0034927747 0.22843032
0.019496005 0.010620033 -0.34322044 0.22790365 -0.22018687 0.1364024 0.017395858 -0.046040777
-0.32317907 0.49572414 -0.6323919 -0.016826263 0.3792367 -0.18003765 0.47421998 -0.48532942
-0.6048646 -0.32861736 -0.5237651 -0.017947542 -0.27943805 0.2309771 0.43178672 0.13012132
-0.029704317 -0.25575426 -0.33860755 0.57614493 0.51459885 0.35531336 -0.32942015 -0.249996
0.07997701 0.049311128 -0.03981226 -0.43665487 -0.47543606 0.36489686 0.39383742 0.5699751
0.66506886 -0.15873511 -0.057371378 0.029259432 0.14200906 0.14459105 0.028332742 -0.33581138
-0.019964857 0.37063065 0.32590783 0.6368973 0.32567945 -0.6671354 0.30899632 -0.536871
0.554285 -0.5548213 -0.5520908 0.166495 0.14290915 0.5025314 -0.45949182 0.5547252
0.11844414 -0.12610787 -0.49525434 0.34757215 0.09629065 0.5539924 -0.40897033 0.5995057
-0.47579432 -0.4150316 0.40408507 -0.08041373 -0.42455068 -0.057477336 0.6939172 -0.029487675
0.25073564 -0.15762061 0.16227248 0.6887022 0.33580267 -0.49905074 -0.4168113 -0.10725951
00000000: 81fa 99be 78f9 d63e 36a2 ff3e bb0a 74be
00000010: 5d5c a03d 1c85 d6be d7c8 07bf fa93 b43e
00000020: 49ca 043f ff6a 1abc 1dc2 33bf e6aa 43be
00000030: bb95 dabe d9a8 40be 6431 53be 0591 15bf
00000040: 63ba c1be fb74 953e 7458 bcbe 3bc8 a4be
00000050: edb6 c8be 00df 0e3f cd78 99be 321d 6bbe
00000060: 1047 14be 41ee 283f 9bea cfbe 7379 823e
00000070: 2338 193f 6521 203e 3176 343f e541 b0be
00000080: e89e 083f 6455 20bf e8d3 c63e 059e 06bf
00000090: c17a 0cbf 364e 083e 09e7 64bb a3e9 693e
000000a0: 16b6 9f3c a6ff 2d3c 97ba afbe 935f 693e
000000b0: ab78 61be 12ad 0b3e c281 8e3c 4195 3cbd
000000c0: ba77 a5be 8ecf fd3e 70e4 21bf 3bd7 89bc
000000d0: 502b c23e ca5b 38be f6cc f23e 197d f8be
000000e0: 68d8 1abf 8940 a8be 7815 06bf b906 93bc
000000f0: 8112 8fbe 4385 6c3e 2613 dd3e 863e 053e
00000100: 7856 f3bc 39f2 82be f85d adbe 3c7e 133f
00000110: c0bc 033f a2eb b53e c2a9 a8be f4fe 7fbe
00000120: fdca a33d 77fa 493d 2e12 23bd 3a91 dfbe
00000130: 5b6c f3be c3d3 ba3e 0fa5 c93e e3e9 113f
00000140: f441 2a3f 758b 22be 40fe 6abd 7ab1 ef3c
00000150: d36a 113e ad0f 143e 111a e83c 78ef abbe
00000160: 578d a3bc 4dc3 bd3e 64dd a63e b40b 233f
00000170: 75bf a63e 63c9 2abf c434 9e3e 6170 09bf
00000180: 9fe5 0d3f c508 0ebf d355 0dbf aa7d 2a3e
00000190: c756 123e e6a5 003f 8342 ebbe 7902 0e3f
000001a0: d792 f23d 6c22 01be fa91 fdbe faf4 b13e
000001b0: 0834 c53d 72d2 0d3f 8f64 d1be 3579 193f
000001c0: 509b f3be 067f d4be 3de4 ce3e f4af a4bd
000001d0: b55e d9be 5b6d 6bbd 8fa4 313f 2390 f1bc
000001e0: 6c60 803e 4c67 21be c22a 263e ca4e 303f
000001f0: 54ee ab3e 9483 ffbe 4a68 d5be e0aa dbbd

feature_extract.mlps.0.linears.0.bias f4 [64]
0.31792605 -0.38944924 -0.04877587 0.34670016 -0.34970278 -0.3837556 0.010624894 -0.5822618
0.29164523 -0.19589403 0.5632216 0.055190556 0.33801436 -0.12258531 -0.2538227 -0.3054195
0.34492314 0.64337856 0.25703344 -0.16442986 0.3636114 -0.5371402 -0.6084592 -0.23082261
0.31378582 -0.07557347 -0.48784128 -0.585637 0.35253483 -0.36695597 -0.28467146 0.6309731
0.102130644 -0.41530275 0.0546835 0.38853708 -0.32908309 -0.43907663 -0.66365767 -0.5998617
-0.52835804 0.36561865 0.0657122 0.21935044 0.40319535 0.63706833 -0.18850464 0.6296181
0.109785765 0.5633089 -0.6577717 -0.30857405 -0.26432833 0.5159313 0.4197338 -0.69625294
-0.3968077 -0.5478345 -0.6968698 -0.6571878 0.33994654 0.24765012 -0.055734545 -0.03127331
00000000: 34c7 a23e e465 c7be 35c9 47bd af82 b13e
00000010: 3e0c b3be 9d7b c4be 0914 2e3c 1c0f 15bf
00000020: 8652 953e 7298 48be 4a2f 103f 7e0f 623d
00000030: 3810 ad3e 020e fbbd 0df5 81be f25f 9cbe
00000040: c499 b03e 75b4 243f e399 833e 4d60 28be
00000050: 462b ba3e 0582 09bf fbc3 1bbf c35c 6cbe
00000060: 89a8 a03e 43c6 9abd 55c6 f9be 4eec 15bf
00000070: 727f b43e a7e1 bbbe 75c0 91be 7487 213f
00000080: df29 d13d 90a2 d4be cefb 5f3d 55ee c63e
00000090: 947d a8be a7ce e0be 78e5 29bf 8990 19bf
000000a0: 7942 07bf 5e32 bb3e 1e94 863d 679d 603e
000000b0: 9f6f ce3e e916 233f 5c07 41be a72e 213f
000000c0: 5cd7 e03d 0335 103f ba63 28bf 6bfd 9dbe
000000d0: 0b56 87be 1314 043f 59e7 d63e a23d 32bf
000000e0: 612a cbbe e23e 0cbf 0f66 32bf 763d 28bf
000000f0: 790d ae3e fe97 7d3e e849 64bd 7118 00bd

feature_extract.mlps.0.linears.1.weight f4 [64, 64]
-0.06462535 0.06552252 -0.12843001 -0.09047108 -0.102936 -0.05836376 -0.10093196 0.07009637
-0.11747475 0.009679582 0.028988943 -0.0015852187 0.045484703 0.12053595 0.06492673 0.031074537
-0.047740456 -0.011730615 0.11923373 0.03523756 -0.034587894 -0.0109432405 -0.10594562 -0.1104053
0.07551537 0.01622634 0.09243714 0.079210095 -0.020300765 0.106891386 0.041455194 0.09047703
0.06676414 0.11555978 -0.08194116 -0.01994558 0.06588169 -0.1233746 0.028015291 -0.10885483
-0.057921663 -0.047931194 -0.061704427 0.015963053 0.0881565 -0.11073109 0.07442931 -0.050006427
-0.011183549 -0.018390806 -0.03059574 -0.0014797678 -0.033718593 -0.08018289 -0.0022563555 0.05714862
0.021421783 0.066548415 -0.036296107 0.010738196 0.082239866 0.11199546 -0.11804095 0.09156419
0.08644281 -0.08675802 -0.04173237 0.043576296 0.07514119 -0.127283 -0.005260381 0.00018176968
-0.012127051 0.09881313 0.0011698751 -0.06045634 0.088116124 -0.037034724 0.08103986 0.10261043
0.041601382 -0.08120583 -0.056513075 -0.099487394 -0.07062529 -0.12188377 8.625959e-05 -0.049413007
0.1032145 0.024672234 -0.05723913 -0.12838016 0.04600534 -0.11222662 -0.050653324 0.043697737
0.0612213 -0.041786473 0.07972578 -0.06987923 -0.078287244 0.0831219 0.0016220902 0.052598104
0.013283275 0.035589125 -0.07582547 0.039270874 -0.020077396 -0.07919784 0.11707901 0.07276913
-0.0052071176 0.11713481 -0.115854196 0.079722606 -0.0092573725 -0.08400288 0.12515175 0.105594344
-0.05572698 -0.06475705 -0.05286121 -0.044636104 0.029862043 0.051523756 0.01990758 -0.12953629
-0.08931889 -0.038266074 -0.012794669 -0.011705498 0.0007875914 -0.019051451 -0.090575 0.043768432
-0.10388447 -0.09417654 -0.00044003825 0.118462786 -0.055997476 -0.10616285 -0.0021769858 0.05484322
0.037034035 0.0002778441 -0.07539976 0.00029548112 0.006956832 -0.11279116 0.04510452 0.031592555
0.03553722 0.08727524 -0.05095008 0.054263007 0.09647971 -0.119317174 -0.11153777 0.010650538
-0.047785558 0.061962374 0.121704645 -0.0102515705 0.009820514 -0.07918443 0.10789056 -0.032673642
-0.077592544 -0.120615825 -0.077955596 -0.010757697 -0.06737208 -0.003996839 0.0062878155 -0.003065706
0.0061815907 -0.012500114 0.06086561 -0.12733985 -0.08537052 -0.021078715 -0.07101055 0.07388086
0.084980674 0.031711712 -0.041370735 -0.004913621 0.10109203 0.00556558 0.10148074 0.105325446
0.012727517 0.10019561 0.0028243684 -0.017667865 -0.008036263 -0.09342927 0.11350756 0.13413133
-0.02062057 -0.07879955 -0.04613058 0.0014858881 -0.11136516 0.049541097 -0.079876795 0.07826907
0.03574324 0.09579744 0.06670841 0.09140957 0.1007781 0.07075952 -0.07772536 -0.06715336
0.041161887 0.115306616 -0.067360915 -0.0686144 -0.112625234 0.03639589 -0.08453196 -0.06709989
0.046660673 -0.077579185 0.08618905 -0.0065807123 0.019290864 0.048060387 0.0063997405 0.06663262
-0.1080016 0.080885604 0.045557614 0.022255603 0.058065344 0.09030819 -0.051391426 0.12630798
-0.011049373 -0.10603328 0.048297286 -0.08006613 0.02088281 -0.09106929 0.011806407 0.008059566
-0.106873184 -0.05049921 -0.041446555 -0.094837636 0.042705312 -0.053819012 0.020577142 0.07709052
00000000: 4c5a 84bd ac30 863d 2883 03be e748 b9bd
00000010: 1cd0 d2bd d70e 6fbd 6ab5 cebd b08e 8f3d
00000020: 9a96 f0bd 1c97 1e3c 387a ed3c 1dc7 cfba
00000030: 2b4e 3a3d 8ddb f63d 4ef8 843d 0790 fe3c
00000040: 7f8b 43bd c431 40bc d030 f43d 4255 103d
00000050: 09ac 0dbd 474b 33bc 04fa d8bd 2d1c e2bd
00000060: cda7 9a3d 1aed 843c af4f bd3d e738 a23d
00000070: ca4d a6bc dfe9 da3d eccc 293d 054c b93d
00000080: a3bb 883d 9baa ec3d c4d0 a7bd ea64 a3bc
00000090: fbec 863d d3ab fcbd 5380 e53c 48ef debd
000000a0: 443f 6dbd 8053 44bd c8bd 7cbd f3c4 823c
000000b0: 658b b43d fbc6 e2bd 656e 983d 8ad3 4cbd
000000c0: 343b 37bc 51a8 96bc eba3 fabc c5f4 c1ba
000000d0: 821c 0abd ed36 a4bd 5ddf 13bb ac14 6a3d
000000e0: bc7c af3c 894a 883d 3aab 14bd 42ef 2f3c
000000f0: 606d a83d e05d e53d 74bf f1bd 0286 bb3d
00000100: ee08 b13d 30ae b1bd 90ef 2abd 0f7d 323d
00000110: a0e3 993d 7a56 02be 465f acbb 6d99 3e39
00000120: 8ab0 46bc 8a5e ca3d 7f56 993a 11a1 77bd
00000130: 3a76 b43d b9b1 17bd 3af8 a53d 6b25 d23d
00000140: 3666 2a3d 3e4f a6bd 417a 67bd 0cc0 cbbd
00000150: fea3 90bd 339e f9bd 44e6 b438 4b65 4abd
00000160: 2062 d33d 6d1d ca3c 9473 6abd 1776 03be
00000170: 1870 3c3d 12d7 e5bd dc79 4fbd 66fc 323d
00000180: 30c3 7a3d 4b28 2bbd 4547 a33d d71c 8fbd
00000190: 1055 a0bd d13b aa3d 519c d43a 1c71 573d
000001a0: 18a2 593c e7c5 113d 624a 9bbd 7fda 203d
000001b0: 5a79 a4bc 7a32 a2bd 1fc7 ef3d fb07 953d
000001c0: 78a0 aabb 60e4 ef3d f744 edbd 9b45 a33d
000001d0: 3cac 17bc b409 acbd c827 003e d941 d83d
000001e0: f941 64bd 589f 84bd ff84 58bd 59d4 36bd
000001f0: 3ea1 f43c 930a 533d 3915 a33c 29a5 04be
00000200: d2ec b6bd e3bc 1cbd bba0 51bc 6bc8 3fbc
00000210: 5d76 4e3a ca11 9cbc 637f b9bd 8746 333d
00000220: 62c1 d4bd a1df c0bd efb4 e6b9 9e9c f23d
00000230: 9c5d 65bd e96b d9bd c3ab 0ebb 49a3 603d
00000240: 00b1 173d 9bab 9139 306b 9abd ceea 9a39
00000250: 23f6 e33b 0dff e6bd 84bf 383d 3267 013d
00000260: 7a8f 113d 5cbd b23d 08b1 50bd e342 5e3d
00000270: 2797 c53d 905c f4bd ea6d e4bd 987f 2e3c
00000280: caba 43bd 42cc 7d3d 4940 f93d 34f6 27bc
00000290: 39e6 203c 722b a2bd baf5 dc3d ccd4 05bd
000002a0: d7e8 9ebd 6e05 f7bd 2fa7 9fbd 0d41 30bc
000002b0: 60fa 89bd eaf7 82bb 050a ce3b 03ea 48bb
000002c0: f18e ca3b 47cd 4cbc 384e 793d 6165 02be
000002d0: bdd6 aebd 45ad acbc fb6d 91bd d94e 973d
000002e0: 590a ae3d 24e4 013d 5c74 29bd 7102 a1bb
000002f0: 5709 cf3d 785f b63b 22d5 cf3d deb4 d73d
00000300: 1387 503c 5b33 cd3d 0a19 393b 33bc 90bc
00000310: 88aa 03bc d857 bfbd a776 e83d b959 093e
00000320: 78ec a8bc a961 a1bd 6bf3 3cbd 22c2 c23a
00000330: 6b13 e4bd 9beb 4a3d 7296 a3bd 894b a03d
00000340: 8167 123d 7331 c43d 6b9e 883d f134 bb3d
00000350: c064 ce3d 5eea 903d 792e 9fbd b387 89bd
00000360: 5e99 283d e025 ec3d 85f4 89bd b585 8cbd
00000370: 0fa8 e6bd db13 153d 181f adbd ab6b 89bd
00000380: 431f 3f3d d6e1 9ebd e283 b03d 04a3 d7bb
00000390: e007 9e3c f8da 443d eab4 d13b af76 883d
000003a0: f12f ddbd 5aa7 a53d 9f9a 3a3d 6251 b63c
000003b0: edd5 6d3d 80f3 b83d d17f 52bd e156 013e
000003c0: 6e08 35bc fa27 d9bd 60d3 453d b6f9 a3bd
000003d0: 6d12 ab3c 8982 babd a96f 413c 450c 043c
000003e0: 54e0 dabd 42d8 4ebd ddc3 29bd 3c3a c2bd
000003f0: c4eb 2e3d 5371 5cbd 6591 a83c a2e1 9d3d

feature_extract.mlps.0.linears.1.bias f4 [64]
0.041981153 0.05139544 0.010018599 0.102337874 -0.08790676 0.02707168 0.026326455 0.02307301
0.08133029 0.10506699 0.085292555 -0.020463347 0.10995977 0.049674004 0.039668806 -0.0004692387
-0.06369141 0.073967695 0.034337983 0.025864597 -0.038449835 0.11335859 0.08847465 0.11478645
-0.031455465 0.048301984 -0.052011542 0.09341767 0.10725531 0.033876196 0.10425653 -0.09312992
0.028254155 0.06637141 -0.083670646 0.0008524859 0.06694345 -0.03964505 -0.08390138 0.070835285
-0.093840726 -0.0096803345 0.1152684 -0.029649474 -0.005765037 0.029664258 -0.10917654 -0.1105465
-0.04498623 0.027146142 0.12404616 0.04116751 -0.122017235 0.089708924 -0.052933987 0.012238922
0.088492185 0.072368294 0.05274252 0.026769565 -0.104482606 -0.029723505 0.10697897 -0.12486788
00000000: 6ef4 2b3d 0684 523d 0d25 243c 8596 d13d
00000010: 7608 b4bd 6ec5 dd3c 94aa d73c 9c03 bd3c
00000020: 7f90 a63d 5d2d d73d ddad ae3d c0a2 a7bc
00000030: 9732 e13d f876 4b3d c27b 223d 2704 f6b9
00000040: a470 82bd 607c 973d fca5 0c3d fee1 d33c
00000050: 937d 1dbd 8c28 e83d 3332 b53d 2915 eb3d
00000060: 72d7 00bd 4dd8 453d 0e0a 55bd c351 bf3d
00000070: aca8 db3d c4c1 0a3d 7384 d53d e6ba bebd
00000080: 4275 e73c bced 873d 845b abbd 5c79 5f3a
00000090: a619 893d d962 22bd 7dd4 abbd 1712 913d
000000a0: 912f c0bd 449a 1ebc d711 ec3d 74e3 f2bc
000000b0: a3e8 bcbb 7502 f33c f397 dfbd 3466 e2bd
000000c0: 7b43 38bd 9661 de3c ea0b fe3d 439f 283d
000000d0: 2ce4 f9bd 50b9 b73d 4fd1 58bd c285 483c
000000e0: 643b b53d d435 943d 8a08 583d d94b db3c
000000f0: fafa d5bd b57e f3bc ca17 db3d bbba ffbd

feature_extract.mlps.0.batch_norms.0.weight f4 [64]
0.9911282 1.0018641 1.007563 1.0001451 0.98554367 1.0085081 1.0014257 1.0047306
1.0047696 1.0049691 1.0103271 0.9991981 0.997323 1.0059919 1.0008087 1.0000802
1.0015471 0.99166274 1.0007362 1.004617 0.99966323 1.0015227 0.9933661 1.0014184
0.9994718 0.9955786 1.0033209 1.002039 1.0051025 1.0006126 1.0005319 1.001672
1.0087373 0.9957249 0.9980435 0.9985667 0.9896992 1.0069722 0.9976892 1.004933
0.9961434 0.99990034 1.0033664 1.0091982 0.9991521 0.99942505 1.0034604 1.0050623
0.99188936 0.99653417 1.0040045 0.9981018 0.99497724 1.0111418 0.99341273 0.9948593
1.0004332 1.0008075 0.9974615 0.9944631 0.9953964 1.0026175 0.99385697 0.9986419
00000000: 94ba 7d3f 153d 803f d3f7 803f c104 803f
00000010: 974c 7c3f cb16 813f b82e 803f 039b 803f
00000020: 4a9c 803f d4a2 803f 6652 813f 72cb 7f3f
00000030: 8f50 7f3f 58c4 803f 801a 803f a102 803f
00000040: b232 803f 9cdd 7d3f 2018 803f 4a97 803f
00000050: eee9 7f3f e531 803f 3e4d 7e3f 7a2e 803f
00000060: 62dd 7f3f 3dde 7e3f d26c 803f d042 803f
00000070: 33a7 803f 1314 803f 6e11 803f ca36 803f
00000080: 4e1e 813f d4e7 7e3f c77f 7f3f 11a2 7f3f
00000090: ed5c 7d3f 77e4 803f 8f68 7f3f a5a1 803f
000000a0: 4103 7f3f 78f9 7f3f 4f6e 803f 682d 813f
000000b0: 6fc8 7f3f 52da 7f3f 6471 803f e2a5 803f
000000c0: 76ec 7d3f dd1c 7f3f 3883 803f 9983 7f3f
000000d0: d4b6 7e3f 186d 813f 4c50 7e3f 19af 7e3f
000000e0: 320e 803f 761a 803f a359 7f3f 2295 7e3f
000000f0: 4cd2 7e3f c555 803f 696d 7e3f ffa6 7f3f

feature_extract.mlps.0.batch_norms.0.bias f4 [64]
-0.00073761964 0.0023633428 0.002541848 -0.004244748 -0.010881634 0.017225077 0.014703493 -0.0008396138
0.0047886632 0.013632033 0.009994363 -0.0006371365 0.0012012934 0.004825309 0.003662112 0.0038548538
0.004747011 -0.004552915 -0.0004795679 -0.0014892176 -0.00040578077 -0.0040169517 -0.0057705725 0.0026256004
-0.0044279536 -0.0070780045 -0.0040090713 0.0014553734 0.0035029547 0.013108359 -0.0037080182 0.003147409
0.008531762 -0.0028234555 -0.0009564513 -0.0030162416 -0.0006930966 0.011236716 0.007843524 -0.009453358
-0.0065389057 0.002686871 -0.001095617 -0.0021255459 -0.0016593229 -0.0020921074 0.009965295 0.002853816
0.0062577836 -0.008698626 -0.00022697148 0.00070352526 0.0016525657 0.007562738 -0.007859719 -0.0104801
-0.01276585 -0.0017396006 0.0007667348 -0.015009123 0.0025005136 0.006018644 0.024167953 -0.0027520899
00000000: d15c 41ba 50e2 1a3b 2295 263b 8717 8bbb
00000010: e248 32bc 9b1b 8d3c ebe6 703c 8719 5cba
00000020: 38ea 9c3b e458 5f3c 66bf 233c 8205 27ba
00000030: b874 9d3a a01d 9e3b 0b00 703b b7a1 7c3b
00000040: d08c 9b3b 9f30 95bb 846e fbb9 da31 c3ba
00000050: f9be d4b9 a2a0 83bb 1217 bdbb 4412 2c3b
00000060: 5e18 91bb 9bee e7bb 875e 83bb 3ac2 be3a
00000070: d491 653b 71c4 563c 3902 73bb c344 4e3b
00000080: cec8 0b3c b909 39bb 5cba 7aba 23ac 45bb
00000090: edb0 35ba 341a 383c 2082 003c 42e2 1abc
000000a0: 5144 d6bb 3716 303b ce9a 8fba be4c 0bbb
000000b0: a37d d9ba bd1b 09bb 7a45 233c 1607 3b3b
000000c0: 180e cd3b af84 0ebc 31ff 6db9 c86c 383a
000000d0: e79a d83a d8d0 f73b 0dc6 00bc bab4 2bbc
000000e0: db27 51bc 4f03 e4ba b4fe 483a d3e8 75bc
000000f0: a8df 233b 0c38 c53b dffb c53c 685c 34bb

feature_extract.mlps.0.batch_norms.0.running_mean f4 [64]
0.571954 0.50674725 -1.0045546 -0.31947103 1.2656059 -3.1560142 -1.8816522 -2.9137623
-0.067771494 -2.2852645 0.92531496 -1.5535294 1.7753172 -0.67625844 2.0904922 0.9375744
0.23537683 0.3622431 -1.0980414 0.48076957 0.45585158 -0.96912587 -0.91376066 -0.30801326
0.7146796 -2.1262398 0.1956965 -0.47842988 -2.5067208 -2.0769029 -0.50587434 2.371954
-0.72667915 0.16778103 2.704829 -1.372714 0.065812565 -1.8196017 -1.1207061 2.2846203
1.1214044 0.2680245 0.9307487 -0.65569407 1.4047679 3.4987285 -1.0739291 0.065606974
0.27085745 -0.7064397 1.2384429 -0.16978012 -0.25159717 -0.053639952 2.3161848 -0.2688438
-3.0956526 0.5005903 -2.2062416 1.4552319 0.68101573 2.7400255 -0.42621502 -1.6591591
00000000: 946b 123f 30ba 013f 3f95 80bf b591 a3be
00000010: 60ff a13f 23fc 49c0 fbd9 f0bf 157b 3ac0
00000020: c8cb 8abd c641 12c0 71e1 6c3f 0dda c6bf
00000030: 983d e33f 461f 2dbf a0ca 0540 e004 703f
00000040: a006 713e ed77 b93e 9f8c 8cbf 6e27 f63e
00000050: 6165 e93e a218 78bf 38ec 69bf eab3 9dbe
00000060: 3ef5 363f 5014 08c0 aa64 483e c3f4 f4be
00000070: 1d6e 20c0 faeb 04c0 fb80 01bf 18ce 1740
00000080: a507 3abf cace 2b3e eb1b 2d40 18b5 afbf
00000090: bdc8 863d b5e8 e8bf 4c73 8fbf 3837 1240
000000a0: 2e8a 8f3f 823a 893e 8c45 6e3f 91db 27bf
000000b0: 6fcf b33f 2beb 5f40 8276 89bf f35c 863d
000000c0: d4ad 8a3e 3bd9 34bf 4c85 9e3f d7da 2dbe
000000d0: 58d1 80be 91b5 5bbd 5f3c 1440 e5a5 89be
000000e0: 2c1f 46c0 b026 003f 1033 0dc0 0a45 ba3f
000000f0: 0c57 2e3f 945c 2f40 db38 dabe 535f d4bf

feature_extract.mlps.0.batch_norms.0.running_var f4 [64]
0.32949987 0.88938147 0.052840095 0.99873924 0.99087816 1.8775207 0.7106968 0.28387728
0.50789243 0.5680518 0.56118846 0.36967322 0.14707488 0.5857808 1.3621227 1.772141
1.0217445 0.5475395 1.0882063 0.012340617 0.0015061245 0.41819933 0.17224565 0.0013316103
0.385355 1.4794525 0.5131649 0.80136126 1.4493932 1.0156572 0.2770785 0.71271676
0.021849193 0.4309193 1.0750997 0.445911 0.025644211 0.058286555 0.8018813 0.7336929
1.5988849 0.011728925 0.08704345 0.026651885 0.03187861 0.5665455 0.4183237 0.36042553
1.0939827 1.0972117 0.16285501 0.7588882 0.050068974 0.8703756 0.12799907 0.61307883
0.949823 0.59195393 0.6748081 1.7691438 0.22331634 0.2529469 0.41411564 0.66027564
00000000: 35b4 a83e 81ae 633f db6e 583d 60ad 7f3f
00000010: 31aa 7d3f 9952 f03f 3af0 353f 5d58 913e
00000020: 3d05 023f d86b 113f 0caa 0f3f cf45 bd3e
00000030: cc9a 163e bbf5 153f 095a ae3f 84d5 e23f
00000040: 86c8 823f 8c2b 0c3f 584a 8b3f 4d30 4a3c
00000050: 2769 c53a 391e d63e 2a61 303e 6d89 ae3a
00000060: 404d c53e b35e bd3f c65e 033f 0326 4d3f
00000070: b785 b93f 0e01 823f 3cdd 8d3e 9b74 363f
00000080: 14fd b23c 74a1 dc3e de9c 893f 724e e43e
00000090: cf13 d23c e2bd 6e3d 1848 4d3f 4cd3 3b3f
000000a0: 43a8 cc3f ad2a 403c d643 b23d 0e55 da3c
000000b0: 2593 023d 2009 113f 862e d63e b289 b83e
000000c0: a007 8c3f 6f71 8c3f 77c3 263e 7f46 423f
000000d0: 2015 4d3d efd0 5e3f 3012 033e bcf2 1c3f
000000e0: 9a27 733f 4b8a 173f 39c0 2c3f 4e73 e23f
000000f0: 0aad 643e 4282 813e f706 d43e d307 293f

feature_extract.mlps.1.linears.0.weight f4 [64, 64]
0.12559253 0.08679221 0.10334948 0.1289078 0.0143424 -0.035415392 -0.054651376 0.008193057
0.04010952 -0.034502547 0.08046661 -0.10080302 -0.10233354 -0.044609495 -0.004245471 0.009314282
-0.03467367 -0.031364296 -0.070653066 0.034133073 0.055165693 0.029116128 -0.044506844 -0.04604978
0.06570381 -0.02677605 0.02858623 0.002539903 -0.033151027 0.030049054 0.11298016 0.054070238
-0.010859912 0.03889944 -0.07100013 0.09058059 -0.032234374 0.07376539 -0.1229509 0.10837589
0.10177411 0.07160102 0.08432067 0.05231058 0.07802975 0.08352199 -0.059162386 -0.1138145
0.07531659 -0.120681286 0.029818939 -0.07090431 0.05045116 -0.0099429535 0.08722218 0.062777065
0.016921425 -0.064452775 0.07261947 -0.0354804 0.059226956 0.07497596 -0.037043568 0.049971677
-0.020534072 -0.11535472 -0.096732646 0.0727063 -0.037668772 0.10434331 -0.12554315 0.10041427
-0.054815535 0.07674927 -0.11846592 0.09088509 0.04876601 -0.05294928 0.039081387 -0.08456739
0.089831054 -0.018191196 -0.025588557 0.03814558 -0.07573025 0.07043546 -0.028370554 -0.046199244
-0.095235564 0.09991395 -0.051871646 0.05495947 0.021868192 -0.090665475 0.103978954 -0.07164052
-0.022032833 0.017236497 -0.10685237 -0.0249653 -0.047551386 -0.037922215 -0.044918206 -0.11409609
-0.077632464 -0.0067862677 -0.040910807 -0.06651665 -0.023195492 0.022472113 -0.058541127 -0.0638229
0.099967346 0.06957317 0.09796696 0.10288925 0.08643736 0.12068971 -0.062042747 0.048090655
-0.052665304 -0.071816154 -0.099653065 -0.101787314 0.04482603 0.049136415 0.037236128 -0.058834225
-0.058787547 0.083496705 -0.071304664 0.06379061 -0.06971606 -0.10588291 -0.00680874 0.10851999
0.107300736 -0.10835803 -0.009926788 -0.12859304 -0.09067122 0.038284786 -0.008604342 -0.02740375
-0.05533814 -0.029285967 0.013103026 -0.016351463 -0.054032307 -0.043640055 0.11078711 0.01909864
-0.026692258 -0.08214221 -0.049804773 -0.024250498 0.11480109 -0.0944321 -0.07700446 -0.07611597
-0.026243534 0.06480104 -0.03769103 -0.039643623 -0.13853754 0.051457666 0.012516174 -0.049354035
0.12264274 0.09323467 0.0065682065 -0.045052435 -0.009271025 0.0017322146 -0.017727125 0.12633923
0.07193508 -0.067913644 -0.07894326 0.044154156 -0.0014711404 -0.025803715 -0.10461839 -0.064558126
0.13496554 0.07738385 -0.030260239 -0.012769481 0.05974353 0.009996213 0.03081503 0.086768374
0.06745884 -0.05156783 0.09991225 0.047071032 -0.06027908 -0.030150708 0.053690877 -0.054322172
-0.07917831 -0.081260934 0.08484613 -0.08278218 -0.121107765 0.081802405 -0.09017543 0.117171235
-0.14062934 0.022268387 0.017059967 0.028201632 0.04243126 -0.12196262 0.044461194 -0.004245759
-0.019392531 0.10029286 -0.03445902 -0.029678037 -0.10583048 -0.105865195 -0.08805822 0.027413625
0.03373807 -0.022876307 -0.072300926 -0.003945525 -0.033247583 0.022677608 0.044284597 -0.040887002
-0.036008358 -0.09033308 0.110840954 0.051537693 -0.11145099 0.053745333 0.05953045 0.053523455
-0.025241153 -0.09374284 0.030382825 -0.03132708 -0.049484264 -0.03620462 -0.077966414 0.039410263
0.06540108 0.0073500266 0.09918149 -0.06517206 -0.088862285 -0.12354698 -0.104813874 -0.10522018
00000000: 549b 003e 1dc0 b13d e4a8 d33d 6800 043e
00000010: 63fc 6a3c bb0f 11bd 1fda 5fbd 2c3c 063c
00000020: e149 243d 8b52 0dbd aecb a43d d071 cebd
00000030: 3f94 d1bd 72b8 36bd 981d 8bbb ee9a 183c
00000040: fa05 0ebd d977 00bd 8eb2 90bd 1fcf 0b3d
00000050: 6cf5 613d f284 ee3c cf4c 36bd b29e 3cbd
00000060: b88f 863d 7259 dbbc ab2d ea3c 8074 263b
00000070: 5fc9 07bd 6f29 f63c 2462 e73d c178 5d3d
00000080: c6ed 31bc 0555 1f3d 8468 91bd 5182 b93d
00000090: 3108 04bd 4f12 973d aecd fbbd 2ef4 dd3d
000000a0: f26e d03d 8ea3 923d 51b0 ac3d 9e43 563d
000000b0: 10ce 9f3d 940d ab3d 4254 72bd 9417 e9bd
000000c0: 963f 9a3d c027 f7bd d946 f43c 4736 91bd
000000d0: e0a5 4e3d c5e7 22bc 8ba1 b23d 4391 803d
000000e0: cd9e 8a3c d1ff 83bd 84b9 943d e553 11bd
000000f0: f797 723d ff8c 993d ffba 17bd 1aaf 4c3d
00000100: 1237 a8bc 183f ecbd c41b c6bd 0ae7 943d
00000110: 924a 1abd f2b1 d53d 628e 00be ffa5 cd3d
00000120: 4186 60bd b92e 9d3d 439e f2bd f621 ba3d
00000130: debe 473d 58e1 58bd ce13 203d ab31 adbd
00000140: 58f9 b73d b405 95bc 189f d1bc 8a3e 1c3d
00000150: 7618 9bbd 7740 903d 5d69 e8bc 6b3b 3dbd
00000160: dd0a c3bd af9f cc3d 5d77 54bd 2e1d 613d
00000170: ec24 b33c d2ae b9bd ebf2 d43d 44b8 92bd
00000180: 337e b4bc 8e33 8d3c 6ad5 dabd 0784 ccbc
00000190: 3ec5 42bd 5354 1bbd 27fc 37bd 36ab e9bd
000001a0: c5fd 9ebd 575f debb 1792 27bd e239 88bd
000001b0: 7904 bebc 7017 b83c d2c8 6fbd 95b5 82bd
000001c0: aebb cc3d 617c 8e3d e7a2 c83d 99b7 d23d
000001d0: 1206 b13d 2b2c f73d 8920 7ebd b5fa 443d
000001e0: 93b7 57bd 5914 93bd e816 ccbd de75 d0bd
000001f0: 809b 373d 4443 493d e984 183d 28fc 70bd
00000200: 36cb 70bd 5200 ab3d 2e08 92bd a7a4 823d
00000210: 4bc7 8ebd 24d9 d8bd da1b dfbb bb3f de3d
00000220: 7dc0 db3d d1ea ddbd f7a3 22bc e5ad 03be
00000230: d5b1 b9bd 82d0 1c3d 3af9 0cbc d47d e0bc
00000240: 3faa 62bd 20e9 efbc 13ae 563c 81f3 85bc
00000250: fb50 5dbd eabf 32bd 5ae4 e23d c074 9c3c
00000260: b9a9 dabc 2d3a a8bd 1700 4cbd fba8 c6bc
00000270: d51c eb3d 9e65 c1bd 84b4 9dbd b1e2 9bbd
00000280: aefc d6bc 68b6 843d e961 1abd 5a61 22bd
00000290: c9dc 0dbe 46c5 523d a410 4d3c 7527 4abd
000002a0: 1e2c fb3d d2f1 be3d 1c3a d73b e788 38bd
000002b0: 7fe5 17bc 7a0b e33a 7a38 91bc 125f 013e
000002c0: b352 933d 4f16 8bbd 01ad a1bd fdda 343d
000002d0: 48d3 c0ba 5062 d3bc 2b42 d6bd 0d37 84bd
000002e0: 6834 0a3e 6d7b 9e3d 52e4 f7bc 1637 51bc
000002f0: a2b5 743d 28c7 233c cd6f fc3c 9eb3 b13d
00000300: dc27 8a3d ca38 53bd cb9e cc3d 8ecd 403d
00000310: 32e7 76bd 9efe f6bc f7ea 5b3d ed80 5ebd
00000320: 3d28 a2bd 226c a6bd cfc3 ad3d b489 a9bd
00000330: 5907 f8bd 0588 a73d e5ad b8bd 79f7 ef3d
00000340: 2301 10be 316c b63c 58c1 8b3c 1c07 e73c
00000350: 67cc 2d3d 8ac7 f9bd f11c 363d 0220 8bbb
00000360: 16dd 9ebc 5866 cd3d e724 0dbd 5b1f f3bc
00000370: a7bd d8bd dacf d8bd de57 b4bd 8a92 e03c
00000380: ee30 0a3d 1867 bbbc 8212 94bd 7649 81bb
00000390: 9e2e 08bd 64c6 b93c c463 353d 2179 27bd
000003a0: 807d 13bd 8d00 b9bd 9500 e33d 3019 533d
000003b0: 6b40 e4bd 1124 5c3d 33d6 733d 693b 5b3d
000003c0: 89c6 cebc 3ffc bfbd 67e5 f83c d350 00bd
000003d0: 03b0 4abd 4c4b 14bd dbac 9fbd a86c 213d
000003e0: 00f1 853d 7ed8 f03b aa1f cb3d ee78 85bd
000003f0: 6efd b5bd 3306 fdbd a8a8 d6bd ad7d d7bd

feature_extract.mlps.1.linears.0.bias f4 [64]
-0.07022267 0.04625283 -0.013607584 0.032263286 -0.050417088 -0.07405978 -0.04496718 0.098266415
0.09058292 0.021961946 0.010893616 -0.01870497 0.09133558 -0.04689746 0.040016238 -0.038080517
0.122572675 0.011004689 0.098064095 0.11597845 -0.05889054 -0.09431117 0.0021361485 0.026067715
0.118068956 0.1047015 -0.082544915 0.0793651 0.022914255 -0.06828358 -0.09054109 0.092425816
0.07911441 -0.11142267 -0.07631936 0.066313 0.05620177 0.047995813 -0.051859513 0.0067744995
0.00027230754 -0.001557658 0.03460979 -0.012628564 0.07795655 -0.12254251 0.10044131 0.109100334
0.014047236 0.07131082 -0.05551198 0.11173418 0.010294517 -0.11194834 0.056705777 0.09356885
0.032866023 0.06155134 -0.0049142432 0.05059155 0.10833554 -0.114187665 -0.075182535 -0.11334901
00000000: e7d0 8fbd 9c73 3d3d 58f2 5ebc 8226 043d
00000010: 2682 4ebd a7ac 97bd 812f 38bd e73f c93d
00000020: 8a83 b93d 8ae9 b33c 237b 323c 2a3b 99bc
00000030: 260e bb3d 8d17 40bd 11e8 233d 51fa 1bbd
00000040: 6207 fb3d 034d 343c d4d5 c83d 1c86 ed3d
00000050: 3537 71bd 3726 c1bd a0fe 0b3b f68b d53c
00000060: 23ce f13d bd6d d63d 4f0d a9bd 2b8a a23d
00000070: adb6 bb3c 43d8 8bbd 9b6d b9bd bf49 bd3d
00000080: bc06 a23d 9231 e4bd 534d 9cbd 1ccf 873d
00000090: d433 663d 4297 443d a46a 54bd 9ffc dd3b
000000a0: 80c4 8e39 542a ccba ffc2 0d3d 09e8 4ebc
000000b0: afa7 9f3d 91f7 fabd 2cb4 cd3d ff6f df3d
000000c0: 6126 663c 680b 923d 8860 63bd e4d4 e43d
000000d0: 55aa 283c 2c45 e5bd 5144 683d 06a1 bf3d
000000e0: 869e 063d 421d 7c3d a907 a1bb 1639 4f3d
000000f0: 06df dd3d 39db e9bd 4df9 99bd 8723 e8bd

feature_extract.mlps.1.linears.1.weight f4 [64, 64]
-0.00040224116 0.09208078 0.070941955 -0.013093363 -0.057234652 -0.07254985 0.0996392 0.12203916
0.045736227 -0.007967061 -0.08703647 -0.08200147 -0.07958103 0.07168561 -0.04072436 0.07077505
0.1350487 0.08166337 -0.016632324 0.009415817 0.13391241 -0.08170794 0.047396887 0.12750566
-0.036190044 -0.029511854 -0.11118428 -0.058226325 0.05769321 -0.010238697 0.070224024 -0.029558748
0.102424175 0.01606726 -0.09922173 -0.06875857 -0.042824786 0.08492618 -0.098166674 0.03943545
-0.075217456 0.04607131 0.0041903625 -0.07357959 0.10543994 -0.09907197 0.12895912 0.02063849
0.042188056 -0.071744524 -0.00064118335 0.09300226 0.080137655 0.1277764 0.008005007 -0.0017685085
-0.056492608 -0.12226057 0.045522124 -0.10227026 0.070069544 -0.03378495 -0.0011631438 0.0660167
-0.01870374 0.08764535 0.07517526 -0.09040079 -0.096374616 -0.09823381 0.1435758 0.11647578
0.006129267 0.03436722 0.019991195 -0.093664 0.033674337 -0.041549757 -0.08609486 -0.00027597917
0.10945369 -0.093363345 0.010527438 -0.055363394 -0.030343216 -0.024794322 0.09721598 -0.12400348
-0.060273003 0.07840558 0.048024748 0.026861677 0.10032462 -0.06879186 0.014612143 -0.035455536
-0.018348144 0.004170446 0.04025781 -0.12640034 0.030649617 0.062319767 0.03270987 0.054040328
-0.013898543 0.02023402 -0.05357391 0.040918704 -0.07668509 0.11548947 -0.059027817 0.13511413
0.11801558 -0.013061556 0.04523655 0.04256927 -0.115997605 0.10906018 0.062105987 -0.09913097
-0.016541852 -0.095556006 -0.05926305 -0.10196761 -0.09888845 -0.04926183 -0.020140449 -0.02185199
-0.029866831 0.07426157 0.082001016 -0.03547014 -0.12231587 0.117610596 0.09421022 -0.02811257
0.016496712 0.08279013 0.024983246 0.05813203 0.061412103 0.026274601 -0.02378611 -0.09924138
0.032543797 -0.02703001 -0.05080688 0.0745344 -0.11157602 0.0684592 -0.0062340684 0.09981137
-0.03481846 0.1125948 -0.002880286 -0.10372048 0.0149831595 -0.02975731 0.018346548 0.03324953
-0.0029604852 -0.11811299 -0.07260075 -0.07214025 -0.05815401 -0.075949505 -0.08519316 0.07596462
0.029197872 -0.00021374896 -0.15484606 0.0987468 0.039105598 -0.118264556 0.102267 0.07421976
0.07306024 0.008252537 -0.10146209 -0.018404646 -0.105108105 0.097853124 0.07951834 0.03159879
0.019056562 -0.027301216 -0.043089673 0.09399085 0.1076127 0.035579454 -0.027414579 0.011929352
-0.0068867644 -0.015748283 -0.008851783 0.028325884 0.032180414 0.11847218 -0.0925842 -0.04466095
0.036253754 0.09442537 0.12178721 0.07434002 -0.008397785 0.07257437 -0.082916185 0.016072718
-0.048707046 0.08018072 -0.06567811 0.1241085 0.018563094 -0.11330642 0.081337854 0.0026486428
-0.14657786 0.12138302 -0.07644311 -0.03240273 0.12951933 -0.046671942 -0.0949589 0.12563297
-0.09144581 0.11147725 0.104593985 0.08535333 0.07760999 0.007262781 -0.12659128 -0.08769851
0.09063268 0.11123643 0.07436137 -0.094974786 0.07198966 -0.0072804373 -0.006600332 -0.09724353
-0.080499545 -0.10772013 0.029678542 0.13434905 -0.06636769 -0.04615696 -0.085274406 -0.11397989
0.10363185 0.06494491 -0.009568289 0.038039103 0.07304394 -0.03817639 -0.08529693 0.022534106
00000000: e5e3 d2b9 d994 bc3d 044a 913d 8b85 56bc
00000010: e26e 6abd 0495 94bd a30f cc3d abef f93d
00000020: e955 3b3d 4788 02bc 2d40 b2bd 63f0 a7bd
00000030: 61fb a2bd e8cf 923d 96ce 26bd 82f2 903d
00000040: 354a 0a3e 203f a73d 8340 88bc cd44 1a3c
00000050: 5620 093e 7e56 a7bd 3d23 423d d890 023e
00000060: 033c 14bd d8c2 f1bc 95b4 e3bd ba7e 6ebd
00000070: b74f 6c3d 35c0 27bc 9dd1 8f3d 3025 f2bc
00000080: c4c3 d13d 7d9f 833c c334 cbbd 4bd1 8cbd
00000090: 0b69 2fbd c7ed ad3d 9c0b c9bd 1187 213d
000000a0: 9c0b 9abd 45b5 3c3d 4f4f 893b e5b0 96bd
000000b0: e5f0 d73d 3fe6 cabd dc0d 043e 0d12 a93c
000000c0: 62cd 2c3d cbee 92bd 1615 28ba f877 be3d
000000d0: 361f a43d d1d7 023e 6f27 033c 4ccd e7ba
000000e0: cb64 67bd c063 fabd 6875 3a3d 1273 d1bd
000000f0: 9f80 8f3d 1662 0abd a174 98ba c333 873d
00000100: 9638 99bc 687f b33d 7df5 993d 0d24 b9bd
00000110: 0e60 c5bd cf2e c9bd 8905 133e db8a ee3d
00000120: 05d8 c83b a4c4 0c3d 93c4 a33c e9d2 bfbd
00000130: 1aee 093d 1430 2abd 8152 b0bd 4cb1 90b9
00000140: 4229 e03d 4835 bfbd 467b 2c3c bac4 62bd
00000150: 5692 f8bc 761d cbbc 2c19 c73d 89f5 fdbd
00000160: d3e0 76bd 1b93 a03d 99b5 443d 050d dc3c
00000170: ff76 cd3d bfe2 8cbd c567 6f3c d339 11bd
00000180: d94e 96bc 3da8 883b 60e5 243d 176f 01be
00000190: e814 fb3c 0343 7f3d c9fa 053d 6459 5d3d
000001a0: b7b6 63bc d1c1 a53c 5170 5bbd 5f9a 273d
000001b0: 130d 9dbd be85 ec3d 27c7 71bd 5c5b 0a3e
000001c0: 27b2 f13d 2300 56bc f649 393d 1d5d 2e3d
000001d0: 2790 edbd f25a df3d d962 7e3d 2e05 cbbd
000001e0: c782 87bc deb2 c3bd d0bd 72bd 65d4 d0bd
000001f0: 0786 cabd c6c6 49bd 95fd a4bc f202 b3bc
00000200: 49ab f4bc 7316 983d 26f0 a73d 2349 11bd
00000210: be80 fabd d3dd f03d 4af1 c03d 554c e6bc
00000220: 1d24 873c df8d a93d aaa9 cc3c da1b 6e3d
00000230: 428b 7b3d d53d d73c 17db c2bc 113f cbbd
00000240: a54c 053d 0a6e ddbc e01a 50bd 7ea5 983d
00000250: f881 e4bd 5634 8c3d 2847 ccbb e769 cc3d
00000260: cd9d 0ebd 1a98 e63d 2ec3 3cbb 676b d4bd
00000270: ed7b 753c 9ac5 f3bc 804b 963c a930 083d
00000280: b304 42bb 39e5 f1bd b4af 94bd 44be 93bd
00000290: e632 6ebd 6a8b 9bbd c079 aebd 5793 9b3d
000002a0: 6030 ef3c cd21 60b9 f78f 1ebe c33b ca3d
000002b0: 312d 203d b034 f2bd 5c71 d13d 8800 983d
000002c0: 9ba0 953d a635 073c 5bcb cfbd 57c5 96bc
000002d0: eb42 d7bd 3867 c83d 83da a23d bc6d 013d
000002e0: 821c 9c3c cda6 dfbc cc7e 30bd 467e c03d
000002f0: 0c64 dc3d c3bb 113d 8a94 e0bc 5473 433c
00000300: 5eaa e1bb 8b02 81bc 1207 11bc af0b e83c
00000310: 9ccf 033d 8ba1 f23d c99c bdbd 66ee 36bd
00000320: d17e 143d 1762 c13d 936b f93d 953f 983d
00000330: dd96 09bc dfa1 943d f6cf a9bd efaa 833c
00000340: 0a81 47bd ca35 a43d 3f82 86bd 992c fe3d
00000350: a111 983c 320d e8bd 7694 a63d da94 2d3b
00000360: 8218 16be a997 f83d 358e 9cbd bab8 04bd
00000370: b7a0 043e 142b 3fbd d079 c2bd eea5 003e
00000380: f147 bbbd 2f4e e43d 5f35 d63d bacd ae3d
00000390: fdf1 9e3d 9ffc ed3b 25a1 01be 479b b3bd
000003a0: a09d b93d edcf e33d c64a 983d 2482 c2bd
000003b0: 516f 933d bc90 eebb 9947 d8bb 9e27 c7bd
000003c0: f2dc a4bd 5f9c dcbd 6a20 f33c cc92 093e
000003d0: c9eb 87bd 150f 3dbd 59a4 aebd 4a6e e9bd
000003e0: ef3c d43d d601 853d 50c4 1cbc e4ce 1b3d
000003f0: 1098 953d d95e 1cbd 28b0 aebd 7299 b83c

feature_extract.mlps.1.linears.1.bias f4 [64]
0.074926324 -0.037273478 -0.0906566 0.042910736 0.021777581 0.04131805 -0.02212875 -0.06919683
0.023764793 0.07903764 0.12195062 -0.09007718 -0.029935647 0.093821816 -0.07916055 0.10296996
0.036490794 0.06976673 -0.042459283 0.104296945 -0.121789075 0.08585635 0.012147134 0.032526065
0.064482935 -0.11992996 0.0036276798 0.0028396598 0.040039062 -0.015732812 0.020803772 -0.006951065
-0.11247953 -0.06400932 0.089985944 -0.10089554 -0.04584353 -0.095709436 -0.0063392087 0.050913837
-0.012207067 0.061320875 -0.083564684 -0.083861895 -0.109127715 0.057532623 0.017782519 -0.085725814
-0.11576478 -0.043228865 -0.001341398 0.086938605 -0.08035397 0.0824488 0.049874842 -0.11025907
0.04895714 0.0799518 -0.07207934 0.09010146 0.11451012 -0.09344228 0.08875334 0.07718968
00000000: f972 993d 13ac 18bd 2baa b9bd 2bc3 2f3d
00000010: e666 b23c 1e3d 293d 5a47 b5bc 11b7 8dbd
00000020: 62ae c23c 7cde a13d 3fc1 f93d 627a b8bd
00000030: 9a3b f5bc a725 c03d ed1e a2bd eae1 d23d
00000040: 5f77 153d dce1 8e3d c9e9 2dbd a399 d53d
00000050: 8d6c f9bd 74d5 af3d c604 473c 0d3a 053d
00000060: a10f 843d d79d f5bd 5ebe 6d3b 9619 3a3b
00000070: 0000 243d 19e2 80bc ac6c aa3c c2c5 e3bb
00000080: ab5b e6bd 5217 83bd 8d4a b83d 52a2 cebd
00000090: 6dc6 3bbd 4f03 c4bd 23b9 cfbb 078b 503d
000000a0: 2600 48bc 992b 7b3d f623 abbd c9bf abbd
000000b0: 5a7e dfbd 54a7 6b3d a5ac 913c 0491 afbd
000000c0: 1616 edbd c010 31bd d9d1 afba de0c b23d
000000d0: 9f90 a4bd ebda a83d 9049 4c3d 82cf e1bd
000000e0: 4887 483d c5bd a33d 559e 93bd 1d87 b83d
000000f0: 4884 ea3d ab5e bfbd 50c4 b53d 9f15 9e3d

feature_extract.mlps.1.batch_norms.0.weight f4 [64]
1.002129 0.994475 1.0111208 0.98815554 1.0162601 1.0007659 1.0127839 1.0014291
1.0236108 1.0050335 1.0077981 1.0180086 0.9822513 0.99566495 0.9919215 0.98414516
1.0230407 0.9691082 0.98742867 1.0066783 1.0163149 0.9928301 1.0057386 1.0108018
1.0069139 0.99468094 1.0160666 1.0218202 1.0086064 1.0106835 1.0108484 1.006598
1.0083013 0.9908493 0.99632716 0.9984272 0.9756626 1.0041379 1.0177495 0.98537004
0.99358666 0.98247474 0.99239784 0.9719274 1.0014011 1.0215613 1.0110478 0.9905496
0.9941762 0.98813355 1.0063906 1.0141757 1.0052651 1.0111504 0.9833237 0.99282366
0.96891475 0.99284077 0.9882333 1.0026219 0.9798315 0.9803473 1.0082768 1.0057266
00000000: c345 803f ea95 7e3f 686c 813f c3f7 7c3f
00000010: d014 823f 1919 803f e7a2 813f d42e 803f
00000020: ae05 833f f0a4 803f 87ff 803f 1b4e 823f
00000030: d274 7b3f e6e3 7e3f 91ee 7d3f f0f0 7b3f
00000040: fff2 823f 7a17 783f 20c8 7c3f d6da 803f
00000050: 9b16 823f 1d2a 7e3f 0bbc 803f f461 813f
00000060: 8ee2 803f 69a3 7e3f 780e 823f 01cb 823f
00000070: 041a 813f 145e 813f 7b63 813f 34d8 803f
00000080: 0410 813f 4da8 7d3f 4c0f 7f3f ed98 7f3f
00000090: 06c5 793f 9787 803f 9e45 823f 3641 7c3f
000000a0: b25b 7e3f 7783 7b3f c90d 7e3f 3cd0 783f
000000b0: e92d 803f 85c2 823f 046a 813f a994 7d3f
000000c0: 5582 7e3f 52f6 7c3f 68d1 803f 82d0 813f
000000d0: 87ac 803f 606d 813f 1abb 7b3f b129 7e3f
000000e0: cc0a 783f d02a 7e3f dcfc 7c3f ea55 803f
000000f0: 3dd6 7a3f 0af8 7a3f 370f 813f a6bb 803f

feature_extract.mlps.1.batch_norms.0.bias f4 [64]
-0.007634547 0.00056375825 0.022515697 -0.0015040486 -0.0016389221 0.003498074 -0.012355705 -0.009436136
0.022684047 0.009662777 0.0015069167 0.04371834 0.01236986 0.0031255214 0.007363102 -0.022147462
0.0006283081 -0.019757431 -0.01479346 0.013246294 0.016223552 -0.008069459 0.0117725665 0.018469468
0.009690282 -0.024648298 0.018211156 0.0023094842 0.012891109 -0.0048231827 0.014707914 0.030037863
0.00401065 -0.008973677 0.0017619425 0.0028656728 -0.00126768 0.0011614086 -0.0017809384 -0.010092447
-0.010991065 -0.011480206 0.002480889 -0.01453634 0.007385087 0.025334187 0.02153115 0.008581905
0.021190716 0.001709814 0.013507246 0.027170714 -0.00409735 0.0237544 -0.0026139342 0.006719983
-0.030033514 0.00031411767 -0.013003319 -0.01427208 -0.00634574 -0.0102690505 -0.004387507 0.015294322
00000000: 392b fabb 2dc9 133a d772 b83c 7f23 c5ba
00000010: 1ad1 d6ba f13f 653b 956f 4abc 069a 1abc
00000020: e5d3 b93c a050 1e3c bc83 c53a 0112 333d
00000030: f4aa 4a3c 8cd5 4c3b 2d46 f13b 986e b5bc
00000040: 0bb5 243a 56da a1bc 4560 72bc fc06 593c
00000050: 41e7 843c c435 04bc b9e1 403c 484d 973c
00000060: fdc3 1e3c 3aeb c9bc 902f 953c b75a 173b
00000070: 3b35 533c ca0b 9ebb 76f9 703c f711 f63c
00000080: c56b 833b 5406 13bc fbf0 e63a 03ce 3b3b
00000090: 4828 a6ba 683a 983a 606e e9ba ca5a 25bc
000000a0: de13 34bc 7917 3cbc 6996 223b d429 6ebc
000000b0: 9afe f13b a489 cf3c 1862 b03c 1e9b 0c3c
000000c0: 2798 ad3c d61b e03a 7f4d 5d3c 1e95 de3c
000000d0: 1043 86bb 9698 c23c 8a4e 2bbb 4e33 dc3b
000000e0: d808 f6bc 29b0 a439 df0b 55bc 71d5 69bc
000000f0: edef cfbb 853f 28bc 14c5 8fbb 0995 7a3c

feature_extract.mlps.1.batch_norms.0.running_mean f4 [64]
1.1190213 -0.8258303 -0.31578964 -1.0181848 0.023004118 -0.14792238 -0.5141631 0.09515281
1.084335 -0.63569295 -0.5433803 -0.7900128 0.23871616 0.17802145 0.290793 1.0474936
1.3397189 -0.5951313 0.9890009 -0.39583528 0.09832204 -0.106989644 -0.793091 -1.4940319
-0.23018378 -0.39373723 -0.6187717 0.74086857 -0.6590215 0.5034515 -0.62645227 -0.4981829
-1.2388575 -0.7763644 -0.40879253 0.28207615 -0.24480446 -1.2318071 0.80521154 -0.6673305
0.67728573 0.91179305 -0.2043819 -0.25230518 -0.71189135 -0.39035526 -0.8293474 -0.41002026
-0.13715202 0.32335263 -0.8186928 -0.1553327 0.7006787 -0.38475165 -0.0057182233 0.1739425
0.7463237 -0.41484433 0.82839066 -1.5805323 0.48596823 -0.094816804 0.72218174 0.103764504
00000000: 173c 8f3f 9d69 53bf 2eaf a1be e153 82bf
00000010: 2273 bc3c f778 17be 31a0 03bf 7adf c23d
00000020: 7dcb 8a3f c6bc 22bf f91a 0bbf 473e 4abf
00000030: 0272 743e 414b 363e d2e2 943e 4514 863f
00000040: e97b ab3f 865a 18bf 2a2f 7d3f ecaa cabe
00000050: 115d c93d 631d dbbd 0308 4bbf 703c bfbf
00000060: 4cb5 6bbe ed97 c9be d267 1ebf 90a9 3d3f
00000070: a2b5 28bf 33e2 003f 2d5f 20bf d411 ffbe
00000080: e292 9ebf d1bf 46bf 414d d1be 496c 903e
00000090: 05ae 7abe dbab 9dbf 5822 4e3f 2cd6 2abf
000000a0: 9962 2d3f 456b 693f 7d49 51be 252e 81be
000000b0: 833e 36bf a5dc c7be 1c50 54bf 2dee d1be
000000c0: 9471 0cbe 7a8e a53e da95 51bf 890f 1fbe
000000d0: ae5f 333f 2bfe c4be ef5f bbbb fc1d 323e
000000e0: 120f 3f3f 7a66 d4be 6911 543f e24e cabf
000000f0: d4d0 f83e 502f c2bd e7e0 383f 7c82 d43d

feature_extract.mlps.1.batch_norms.0.running_var f4 [64]
0.17314374 1.3571503 1.2866242 0.33451027 0.78219223 0.08461937 0.40029514 0.20008835
0.7466656 0.6702395 0.8875186 0.4700084 0.3721491 1.258584 0.63692844 0.6159965
0.4027689 0.49901104 1.1833289 0.26878053 0.6967977 0.09975913 0.72537804 1.3388262
0.55471486 1.3525268 0.7778162 0.07718108 0.6378524 0.7753734 0.5431355 0.22306387
0.42419642 0.7571227 0.3154833 0.7007237 0.18747237 0.7798593 0.5336853 0.6485168
0.33082014 0.6138367 0.49601126 0.23632878 0.5928183 1.8367096 0.26482636 0.45096025
2.3224585 0.6719699 0.5137746 0.05549182 0.20831761 0.48047504 0.47430754 0.16428523
2.0831296 0.121094726 0.4660618 0.64253706 1.1478167 0.9044161 1.0445803 1.0132726
00000000: 984c 313e 1ab7 ad3f 1ab0 a43f ee44 ab3e
00000010: c03d 483f ec4c ad3d 7cf3 cc3e f6e3 4c3e
00000020: 7a25 3f3f d194 2b3f 6b34 633f f1a4 f03e
00000030: 548a be3e 4819 a13f be0d 233f f2b1 1d3f
00000040: ba37 ce3e 607e ff3e 5277 973f 9a9d 893e
00000050: 5661 323f 844e cc3d 60b2 393f a85e ab3f
00000060: cb01 0e3f 991f ad3f f61e 473f 1d11 9e3d
00000070: 4b4a 233f df7e 463f ee0a 0b3f db6a 643e
00000080: 4630 d93e cbd2 413f 0787 a13e a162 333f
00000090: c2f8 3f3e dca4 473f 9a9f 083f 3205 263f
000000a0: 4261 a93e 6724 1d3f 30f5 fd3e 2c00 723e
000000b0: f1c2 173f 4d19 eb3f 5297 873e 43e4 e63e
000000c0: 29a3 1440 3806 2c3f bb86 033f 644b 633d
000000d0: 3651 553e d300 f63e 70d8 f23e 633a 283e
000000e0: ff51 0540 8300 f83d a79f ee3e 4f7d 243f
000000f0: a8eb 923f d087 673f cfb4 853f ebb2 813f

feature_extract.batch_norms.0.weight f4 [64]
1.0122572 1.0001055 1.0032965 0.9945904 1.0059998 0.9981625 1.0070055 0.99632704
0.9829792 0.99084216 1.0021003 1.0020865 1.0050849 0.9909759 1.0108441 1.0113605
0.99275863 0.9855229 1.0015562 1.0073292 1.008237 1.0079825 0.99689037 1.0073745
0.99933136 0.9750032 1.0181851 0.9999736 1.0004877 1.0092055 0.9965638 0.99783844
1.0080237 1.0040632 0.99454004 0.99953884 0.99887556 1.0070584 0.9930794 0.9981745
1.0224117 0.9920211 0.9990655 1.003834 0.9875145 1.0009207 0.977786 1.0032969
1.0147743 0.9964063 1.0072213 1.0170643 0.9989439 1.0015925 0.998169 0.9897559
0.9870816 1.0090741 1.0093411 1.0085341 0.99888057 0.9936241 0.98956466 1.003102
00000000: a591 813f 7503 803f 056c 803f 7a9d 7e3f
00000010: 9ac4 803f 9487 7f3f 8ee5 803f 4a0f 7f3f
00000020: 86a4 7b3f d5a7 7d3f d344 803f 5f44 803f
00000030: 9fa6 803f 99b0 7d3f 5763 813f 4374 813f
00000040: 6e25 7e3f 3b4b 7c3f fe32 803f 2af0 803f
00000050: e90d 813f 9205 813f 3534 7f3f a6f1 803f
00000060: 2ed4 7f3f cf99 793f e453 823f 45fe 7f3f
00000070: fb0f 803f a52d 813f ce1e 7f3f 5772 7f3f
00000080: ec06 813f 2585 803f 2d9a 7e3f c7e1 7f3f
00000090: 4fb6 7f3f 4ae7 803f 743a 7e3f 5d88 7f3f
000000a0: 63de 823f 18f5 7d3f c2c2 7f3f a27d 803f
000000b0: c0cd 7c3f 2b1e 803f 2f50 7a3f 086c 803f
000000c0: 20e4 813f 7c14 7f3f a1ec 803f 2a2f 823f
000000d0: caba 7f3f 2f34 803f 0188 7f3f a560 7d3f
000000e0: 61b1 7c3f 5729 813f 1732 813f a517 813f
000000f0: a3b6 7f3f 265e 7e3f 1c54 7d3f a565 803f

feature_extract.batch_norms.0.bias f4 [64]
0.02007988 0.0066876123 0.005765877 -0.01256766 0.0040688952 -0.006980223 0.012894874 -0.002715791
-0.017244019 -0.008249361 0.012156807 0.0021397776 -0.0023748956 -0.0077310256 0.014816766 0.017567173
-0.010547434 -0.012334423 0.021419888 0.004262293 0.013235855 0.004397301 0.00071845605 0.016158385
0.0032953187 -0.01636932 0.019552624 -0.0012555264 0.0015485834 0.013823943 0.004725143 0.0054300623
0.012567101 0.016831439 -0.011426496 -0.0024378954 0.009833093 0.0065470147 -0.0033353306 -0.0028933976
0.020683834 -0.0060444465 0.0006895701 -0.0053003468 -0.008290436 -0.0014095509 -0.016615251 0.0019004461
0.014748232 -0.002853085 0.0029175899 -0.0063838633 0.005383777 -0.0019682157 -0.0014004655 0.00042033798
-0.019944344 0.009839451 0.01591682 0.013319295 0.002189938 -0.009108631 -0.009985774 -0.00037140044
00000000: 8f7e a43c c223 db3b afef bc3b 96e8 4dbc
00000010: 5e54 853b 5bba e4bb 0645 533c 6afb 31bb
00000020: 5443 8dbc 5428 07bc 582d 473c 833b 0c3b
00000030: 23a4 1bbb 8b54 fdbb 05c2 723c 08e9 8f3c
00000040: 25cf 2cbc 5216 4abc c378 af3c b5aa 8b3b
00000050: 33db 583c 3c17 903b c556 3c3a 975e 843c
00000060: 46f6 573b f418 86bc d32c a03c 7a90 a4ba
00000070: d6f9 ca3a d27d 623c 5fd5 9a3b aaee b13b
00000080: 3ee6 4d3c 16e2 893c 3336 3bbc 19c5 1fbb
00000090: fb1a 213c 5788 d63b 9095 5abb 289f 3dbb
000000a0: 2571 a93c 7e10 c6bb 44c4 343a 88ae adbb
000000b0: 9cd4 07bc aec0 b8ba b51c 88bc 6418 f93a
000000c0: 92a2 713c d3fa 3abb 0935 3f3b ba2f d1bb
000000d0: 656a b03b 2efd 00bb d38f b7ba cf60 dc39
000000e0: 5262 a3bc a635 213c fe63 823c 2c39 5a3c
000000f0: 1085 0f3b 5e3c 15bc 5f9b 23bc 86b8 c2b9

feature_extract.batch_norms.0.running_mean f4 [64]
0.026651012 -0.056125585 -0.16839556 0.13687885 -0.12857386 0.11138754 -0.077498384 -0.04847508
-0.16093683 0.2897029 -0.13373521 -0.11091286 0.20055863 -0.10247336 0.09299014 -0.0621657
-0.00211195 -0.16666967 -0.2935693 0.3714363 -0.07375446 0.48621365 0.36192936 0.19250764
0.08053165 0.7360631 -0.26204172 0.13154812 0.043832775 -0.34818414 0.26994473 0.038892224
-0.17193146 -0.3047898 0.06676664 0.11194185 -0.03358091 -0.33491224 0.38658774 0.15141957
-0.00663189 -0.29105043 -0.01380648 -0.08873444 0.09983539 0.14899972 0.19250159 -0.25524518
0.071311794 0.20007817 0.43771955 -0.0208119 -0.11365225 0.19633289 0.28199708 0.015409862
0.0625203 -0.07414118 0.3830927 0.23720919 -0.47961932 -0.049978618 -0.1794509 0.18030731
00000000: 3953 da3c f1e3 65bd e36f 2cbe f829 0c3e
00000010: dea8 03be 271f e43d 79b7 9ebd ce8d 46bd
00000020: a0cc 24be f053 943e e2f1 08be 4826 e3bd
00000030: 3e5f 4d3e 8edd d1bd 9d71 be3d 76a1 7ebd
00000040: a468 0abb 74ab 2abe b74e 96be e62c be3e
00000050: 940c 97bd fff0 f83e ce4e b93e b920 453e
00000060: c7ed a43d a26e 3c3f 552a 86be 8db4 063e
00000070: ff89 333d 3145 b2be 3236 8a3e 744d 1f3d
00000080: cd0e 30be 690d 9cbe f3bc 883d c541 e53d
00000090: 238c 09bd 9e79 abbe d4ee c53e bb0d 1b3e
000000a0: 5350 d9bb 9004 95be 9334 62bc 67ba b5bd
000000b0: 7f76 cc3d 6293 183e 231f 453e 7faf 82be
000000c0: eb0b 923d 4be1 4c3e c71c e03e b87d aabc
000000d0: 83c2 e8bd 7d0b 493e ec61 903e a579 7c3c
000000e0: a50a 803d 55d7 97bd ba24 c43e f7e6 723e
000000f0: aa90 f5be 61b6 4cbd fac1 37be 7ba2 383e

feature_extract.batch_norms.0.running_var f4 [64]
0.050303057 0.015215383 0.1375381 0.08651589 0.043382607 0.010809413 0.015992548 0.2778993
0.21556132 0.0215465 0.27474344 0.026950883 0.30821592 0.06390317 0.030143758 0.022618636
0.00914722 0.156152 0.20469588 0.27624953 0.017704591 0.2792412 0.039998364 0.017427739
0.021743935 0.18617898 0.07080714 0.07645367 0.036317345 0.11005109 0.06751031 0.08810712
0.055787574 0.26942164 0.06854815 0.14225923 0.018596463 0.03562581 0.1491178 0.117740355
0.12057595 0.0458631 0.0270026 0.051971134 0.011402773 0.06576484 0.09234858 0.06522061
0.42026597 0.07061743 0.20290978 0.040048417 0.065124564 0.06718095 0.06415903 0.37570143
0.026484452 0.18449984 0.09030869 0.24344261 0.043120403 0.12404332 0.5805714 0.16334529
00000000: 940a 4e3d f149 793c cad6 0c3e 3e2f b13d
00000010: f6b1 313d f719 313c ce02 833c d148 8e3e
00000020: 1bbc 5c3e 4982 b03c 2cab 8c3e 19c8 dc3c
00000030: 7ace 9d3e aadf 823d 0bf0 f63c b84a b93c
00000040: 39de 153c 4fe6 1f3e cc9b 513e 9470 8d3e
00000050: 3809 913c b4f8 8e3e 53d5 233d 9ec4 8e3c
00000060: 5620 b23c b4a5 3e3e 5503 913d be93 9c3d
00000070: 7fc1 143d 7762 e13d d842 8a3d 8171 b43d
00000080: 8381 643d a2f1 893e f962 8c3d 67ac 113e
00000090: 9c57 983c 5fec 113d 56b2 183e db21 f13d
000000a0: 86f0 f63d f2da 3b3d 8e34 dd3c afdf 543d
000000b0: b2d2 3a3c b7af 863d 4121 bd3d 6292 853d
000000c0: 1a2d d73e df9f 903d 95c7 4f3e cf09 243d
000000d0: 0760 853d 2a96 893d cf65 833d f05b c03e
000000e0: ecf5 d83c 87ed 3c3e c3f3 b83d 0549 793e
000000f0: 059f 303d 6d0a fe3d 54a0 143f fd43 273e

feature_extract.batch_norms.1.weight f4 [64]
1.0793512 1.1334661 1.1016377 1.0849123 1.1478722 1.0762266 1.1308655 1.0757592
1.1310452 1.0823679 1.1086513 1.039252 1.1266375 1.0739001 1.0702106 1.111997
1.13224 1.124791 1.152466 1.0643712 1.0618154 1.0426395 1.1237147 1.1357183
1.1116273 1.1213071 1.0925864 1.1285444 1.1147943 1.1264876 1.123246 1.0814958
1.0760345 1.1050456 1.1335807 1.076082 1.0457567 1.0625263 1.1453792 1.1036553
1.0618477 1.0925672 1.090526 1.1226205 1.0549709 1.1272604 1.1097394 1.1087044
1.0586318 1.1353152 1.0918111 1.0654774 1.1286914 1.0575607 1.0499071 1.1087017
1.132429 1.1401564 1.1185564 1.1272452 1.1441535 1.1448884 1.1379346 1.1121236
00000000: 2e28 8a3f 6b15 913f 7702 8d3f 68de 8a3f
00000010: 7aed 923f cbc1 893f 33c0 903f 7ab2 893f
00000020: 17c6 903f 088b 8a3f 49e8 8d3f 3606 853f
00000030: a835 903f 8f75 893f a9fc 883f eb55 8e3f
00000040: 3eed 903f 27f9 8f3f 0284 933f 513d 883f
00000050: 91e9 873f 3675 853f e2d5 8f3f 385f 913f
00000060: ce49 8e3f fe86 8f3f dfd9 8b3f 2574 903f
00000070: 94b1 8e3f bf30 903f 86c6 8f3f 746e 8a3f
00000080: 80bb 893f 2272 8d3f 2c19 913f 0ebd 893f
00000090: 5bdb 853f dd00 883f c99b 923f 9444 8d3f
000000a0: a0ea 873f 3ed9 8b3f 5b96 8b3f 07b2 8f3f
000000b0: 4909 873f 124a 903f f10b 8e3f 07ea 8d3f
000000c0: 3f81 873f 0252 913f 77c0 8b3f 9061 883f
000000d0: f678 903f 265e 873f 5b63 863f f0e9 8d3f
000000e0: 6ff3 903f a5f0 913f db2c 8f3f 9249 903f
000000f0: 9f73 923f b48b 923f d7a7 913f 115a 8e3f

feature_extract.batch_norms.1.bias f4 [64]
0.07972751 0.121188834 0.13198651 0.077957034 0.14654736 0.074903406 0.114382036 0.05634398
0.1000486 0.08379232 0.09666806 0.05603321 0.114597745 0.084380716 0.08352971 0.0795859
0.116053365 0.11346473 0.14520787 0.07415652 0.091208726 0.03348919 0.113307215 0.11624321
0.09442245 0.10248859 0.10150787 0.12576804 0.10504212 0.120654464 0.10841741 0.09894816
0.08460629 0.052814525 0.1290199 0.048925035 0.05721783 0.08840651 0.10837486 0.11364841
0.06427081 0.10944742 0.0876356 0.10734801 0.045481015 0.10816032 0.10311318 0.106188625
0.070374005 0.123886414 0.104103394 0.0733171 0.12551528 0.06105482 0.09234771 0.09867876
0.122825116 0.12854096 0.103809446 0.10588082 0.12540308 0.12535256 0.107732795 0.098741464
00000000: 2d48 a33d da31 f83d 7927 073e f0a7 9f3d
00000010: 8310 163e f566 993d 2141 ea3d f2c8 663d
00000020: 48e6 cc3d 4f9b ab3d e7f9 c53d 1483 653d
00000030: 39b2 ea3d cccf ac3d a011 ab3d effd a23d
00000040: 63ad ed3d 3260 e83d 5fb1 143e 60df 973d
00000050: a4cb ba3d f62b 093d 9d0d e83d ec10 ee3d
00000060: 8f60 c13d 8ae5 d13d 5ce3 cf3d 56c9 003e
00000070: 5320 d73d b019 f73d f209 de3d 55a5 ca3d
00000080: 1046 ad3d 0b54 583d cb1d 043e 9e65 483d
00000090: 3e5d 6a3d 790e b53d a3f3 dd3d 7fc0 e83d
000000a0: 6aa0 833d f825 e03d 4b7a b33d 46d9 db3d
000000b0: 4d4a 3a3d 2883 dd3d 012d d33d 6c79 d93d
000000c0: 3f20 903d 29b8 fd3d 2934 d53d 4727 963d
000000d0: 1487 003e 9e14 7a3d cc20 bd3d 1718 ca3d
000000e0: bc8b fb3d 3ea0 033e 0c9a d43d 0bd8 d83d
000000f0: aa69 003e 6c5c 003e 03a3 dc3d f738 ca3d
