SavedNetwork/30_20_1_199.pth (torch_old, 86544 bytes, 30 tensors)

feature_extract.mlps.0.linears.0.weight f4 [64, 2]
00000000: 63a4 a1be 024a cf3e 77c3 fd3e 36c9 77be
00000010: 0a2f 893d 2551 dcbe cf17 07bf 5af2 b53e
00000020: c748 053f 4ad5 8fbb 6421 30bf 7533 52be
00000030: 320d d8be fabf 45be bf88 42be d7ae 19bf
00000040: a197 c7be ad9c 8f3e 1a33 b8be 88f3 a8be
00000050: 885d cbbe 4b8c 0d3f 7fc3 9abe 319c 68be
00000060: 566d 16be 8c61 283f b18a d1be ffe2 803e
00000070: 94cf 1c3f 520e 123e df46 333f 8b9f b2be
00000080: 0008 0c3f 58ee 1cbf 4712 c63e 36ff 06bf
00000090: 8e90 0dbf 0d0c 043e 78b8 32bb ccae 6a3e
000000a0: dc97 853c a761 553c 731d b5be a6b0 5e3e
000000b0: f584 56be afce 163e a30f 183c 2f3e 59bd
000000c0: 6bdb a4be 1d6a fe3e dae0 21bf 469a 8bbc
000000d0: 2de0 c23e bdf6 36be 1acb f33e 8f7a f7be
000000e0: 60a9 18bf 329a acbe f206 07bf 687d 6abc
000000f0: a1c9 91be b5ff 663e 14dc da3e c2a7 093e
00000100: e8e2 c4bc eb74 85be 2783 b8be aef5 0d3f
00000110: cb80 063f e464 b03e 77de a9be 31ab 7dbe
00000120: e226 943d b130 683d 35e0 0fbd e239 e2be
00000130: f549 f3be c101 bb3e 04c7 d13e f9d5 0d3f
00000140: e47b 2d3f 1777 15be bbd0 52bd 9109 103d
00000150: 905a 203e e919 053e 5fb7 163d 71ba a7be
00000160: b389 9dbb f405 c53e 7eb3 a53e 30a0 233f
00000170: cf42 a63e 1707 2bbf b5fe 9a3e d910 0bbf
00000180: 08a7 0c3f fd48 0fbf 9a16 0cbf 3b82 2f3e
00000190: 501a 0f3e 8178 013f a4a6 ecbe 8e4c 0d3f
000001a0: 5589 e23d 1ce5 08be caa5 fcbe 96dd b23e
000001b0: d4d4 c63d 48a3 0d3f 5aab d6be c3d2 163f
000001c0: 7f0f f0be 6806 d8be b5b2 c93e 28cb b9bd
000001d0: f4bb dfbe df31 38bd 2ce2 313f 7fac e6bc
000001e0: 26e5 793e 3f48 28be 6747 213e cc82 313f
000001f0: 8382 ae3e bffe fcbe 3e50 d5be 6ffe dbbd
-0.3157073 0.4048615 0.4956319 -0.2419785 0.06698425 -0.43030658 -0.52770704 0.35536462
0.52064174 -0.0043894397 -0.6880095 -0.20527442 -0.42197567 -0.19311514 -0.18997477 -0.6003241
-0.3898287 0.28049222 -0.35976487 -0.329983 -0.39719796 0.55292195 -0.30227277 -0.22715832
-0.14690146 0.65773845 -0.40926126 0.25173184 0.6125424 0.14263275 0.70030016 -0.34887347
0.5469971 -0.61301184 0.3868582 -0.5273317 -0.552987 0.12895222 -0.0027270596 0.22918242
0.016307764 0.01302377 -0.3537403 0.21747074 -0.20949157 0.14727281 0.009281072 -0.05303782
-0.32198653 0.49690333 -0.6323372 -0.017041337 0.38061658 -0.1786756 0.47615892 -0.48335692
-0.59633446 -0.33711392 -0.5274497 -0.014312126 -0.28474143 0.22558482 0.4274603 0.13442901
-0.024033979 -0.26065764 -0.3603756 0.55453 0.5254027 0.34451973 -0.3317754 -0.24772336
0.07233979 0.05668706 -0.03512593 -0.44184786 -0.47517362 0.36524776 0.4097215 0.5540462
0.6776717 -0.1459621 -0.051468592 0.035165373 0.15659547 0.12998165 0.03679597 -0.3275943
-0.004807675 0.38481104 0.32363504 0.639163 0.32472846 -0.66807693 0.3027245 -0.5432258
0.5494237 -0.55970746 -0.5472199 0.17139523 0.13974881 0.505745 -0.46220887 0.5519494
0.1106135 -0.13368648 -0.49345237 0.34934682 0.097085625 0.5532727 -0.41927606 0.58915347
-0.46886823 -0.42192388 0.39394155 -0.09071952 -0.43698084 -0.044969436 0.69485736 -0.028158424
0.2440382 -0.1643381 0.15749894 0.69340205 0.34083948 -0.49413106 -0.41662782 -0.10741889

feature_extract.mlps.0.linears.0.bias f4 [64]
00000000: 7628 a23e a8d5 c7be b736 4fbd 8b9e b23e
00000010: f63e b1be 55ed c5be 81a5 4c3c f878 13bf
00000020: dbe7 933e ec37 44be 0ce5 103f d198 643d
00000030: 5e35 ac3e 824d f4bd 4ed7 82be 77ab 9cbe
00000040: 7fe9 b03e 0f6c 253f 7c65 823e b83b 29be
00000050: 710c bf3e 41f3 09bf 6895 1bbf 529a 6dbe
00000060: d4f6 a03e b356 99bd b9e2 f9be d65a 15bf
00000070: c5fd b43e badf bbbe a0a0 92be 9d12 213f
00000080: 5dbf cc3d e081 d3be 46a7 7d3d b831 c83e
00000090: 3973 a8be d657 e3be 048f 29bf 32aa 19bf
000000a0: 1828 07bf 70dd ba3e 0885 843d b2bd 623e
000000b0: 44f1 cf3e 1c2c 233f 2eef 42be 775e 213f
000000c0: 740f e73d 32a3 103f 5fdc 28bf a2aa 9fbe
000000d0: ea65 89be b953 043f cb96 d53e b067 32bf
000000e0: 75ae cbbe 0c0a 0dbf 6227 32bf 4b74 28bf
000000f0: 1b62 ad3e 1f32 7d3e db98 5dbd 05b1 04bd
0.31671494 -0.39030194 -0.05058929 0.34886584 -0.34618348 -0.38657632 0.012490631 -0.5760646
0.2888783 -0.19161958 0.565995 0.0558098 0.33634466 -0.11928846 -0.2555489 -0.30599567
0.34553143 0.6461801 0.2546805 -0.16526687 0.3731418 -0.538868 -0.6077485 -0.232034
0.31438315 -0.0748724 -0.48805788 -0.5834173 0.3534986 -0.36694127 -0.28638172 0.62919027
0.09997437 -0.41310024 0.061927103 0.39100432 -0.32900408 -0.4440295 -0.6623385 -0.6002532
-0.52795553 0.36497068 0.06470686 0.22142676 0.4061376 0.6373918 -0.19036552 0.63034767
0.11282244 0.56499016 -0.6596126 -0.3118487 -0.26835567 0.5169025 0.41716608 -0.69689465
-0.39781538 -0.55093455 -0.69591343 -0.6580245 0.3386391 0.24726151 -0.054100852 -0.03239538

feature_extract.mlps.0.linears.1.weight f4 [64, 64]
00000000: d3d8 a6bd a931 883d 9353 fcbd c9f7 d3bd
00000010: 602a cfbd d224 84bd 2089 dcbd cfbf af3d
00000020: 0f7b 06be 8419 ab3b 75d5 413c 3faf e5bb
00000030: d535 f73c c7d3 dc3d 68ce 883d 9d74 023d
00000040: 4c80 56bd de65 85bc 4ee2 e03d bf87 e63c
00000050: 4b6a 09bd 308d c3bc acff f3bd 0dde d8bd
00000060: 34fd 6d3d 5c1f 073c f17d bf3d 7cb1 9a3d
00000070: 703d e4bc 02d2 ca3d 171c df3c 871a bd3d
00000080: 534f b23d c02e cb3d 378e a6bd 1c24 cfbc
00000090: 8922 893d b92f d3bd d0bd 653c 68df dcbd
000000a0: 3045 66bd caf1 74bd 3a0b 7bbd 84d8 a43c
000000b0: ca09 a63d 8fe5 d8bd 3251 a53d c9fc 48bd
000000c0: 7bd7 72bc 5dc6 e7bc 5563 c4bc 7800 97bc
000000d0: 1589 1cbd 365a bfbd aa1e 3f3b ed1d 253d
000000e0: 6735 873c 72e2 8b3d 1ede 31bd f515 4c3c
000000f0: e3d9 a63d a9d6 f13d 12ef f9bd c177 ae3d
00000100: a0cb b73d c6bc b0bd fefc 50bd 5678 333d
00000110: 09df 9f3d ddad 00be d962 c539 3f53 94bc
00000120: 4009 34bc f159 ba3d e9fb 8f3b f77e 7fbd
00000130: 5b65 bd3d b036 17bd 5e16 b13d 1a0d d33d
00000140: 20ee 223d e0dd abbd 40c9 75bd 5cef c2bd
00000150: 09df 82bd 9adc f8bd d8d9 eab7 c6f0 5dbd
00000160: 6ad3 da3d 5b4d af3c 590c 69bd b18c 04be
00000170: 1ac3 553d 9b55 ecbd 6959 49bd cf93 4a3d
00000180: b4cd 3d3d c569 1ebd 274c b13d 153c 92bd
00000190: 19ee 93bd 4df3 8b3d 90d4 423b 5e6b 553d
000001a0: 0b69 603c 9822 0e3d 46a5 93bd 4af4 eb3c
000001b0: 7864 80bc 8ea9 acbd 3a3c e73d af28 8e3d
000001c0: c56b c9bb c57c e93d c865 e8bd 1a66 a93d
000001d0: fc87 28bc 65c5 aabd 0f4e 033e 49c4 de3d
000001e0: d627 7dbd dc16 84bd 8fdc 5ebd cfa7 2cbd
000001f0: f25d fd3c 6e0b 5d3d 240b 8a3c 8583 03be
00000200: d17d 9dbd 94c1 26bd ab2e 48bc 3431 07bc
00000210: e871 9f3a b60d b2bc 2309 bfbd 6ef4 2a3d
00000220: bcc4 c6bd 822d c6bd de22 4c3c d77b ed3d
00000230: 43c4 3bbd 09f0 d4bd 1e4a b0b9 0631 563d
00000240: b544 2e3d 98d4 193b 0fcf a1bd 667a d53b
00000250: 422e 263c 91d4 dfbd bdc3 413d 25c2 043d
00000260: e791 433d 540b ae3d 2cd1 5abd cdd0 743d
00000270: e7af c03d c141 f9bd 5000 d5bd 0633 4f3c
00000280: eb92 4abd 3d31 9b3d 452c 003e 9c72 4dbc
00000290: ec69 583c 463e a5bd f215 ec3d a4a9 f0bc
000002a0: e577 a1bd 4a78 f5bd edd8 98bd 436d 24bc
000002b0: c068 7abd daba 7238 a5c2 253c 5d69 b039
000002c0: 1b4d 3f3c 2666 7ebc 85ab 853d 1888 e8bd
000002d0: e3b3 a4bd eb44 85bc a655 88bd 0216 b13d
000002e0: 7625 a93d 2eaa fa3c 502b 32bd 393e 9bbb
000002f0: 5bf5 c93d 0162 223c b59e d33d 891d d33d
00000300: 6ab2 9c3c 333d ce3d a9b5 f4bb f436 81bc
00000310: 69de b5bb 4409 dfbd 4365 ce3d 4936 013e
00000320: ac5d 95bc c7a4 adbd 6b25 23bd c395 d6bb
00000330: 4f3b e4bd 9046 513d 15b3 9ebd 5f84 a03d
00000340: 4980 013d 3f44 bc3d 3b31 803d 1344 bc3d
00000350: eae5 d03d e9fc 933d e7f6 9abd e8a3 96bd
00000360: 74b3 413d 8001 d93d 44a7 88bd f166 94bd
00000370: 2f2d fbbd 469b dc3c 9d66 a7bd 39b1 84bd
00000380: 9cc3 193d d93e 91bd 4188 b33d 6755 50bc
00000390: f5f8 a63c fb41 1f3d fe33 153c b329 893d
000003a0: 4294 d8bd 2b2a a83d 161a 3f3d 5c22 2e3c
000003b0: ee15 713d 5b10 ba3d c0f4 5cbd fc03 fb3d
000003c0: 819e 72bc 8501 dfbd ce36 4c3d 6e1b 99bd
000003d0: 2827 8a3c a173 b6bd d349 573c 3ddf 6e3c
000003e0: 7187 e7bd 0cf9 44bd 7e7a 54bd d7e5 bcbd
000003f0: eda3 223d ca47 56bd 1c44 863c 26fd 813d
-0.08146825 0.06650097 -0.12320628 -0.10349996 -0.10115504 -0.064523354 -0.10768342 0.085815065
-0.1313288 0.0052215476 0.011830677 -0.0070094164 0.030177036 0.10782581 0.06679994 0.031849492
-0.052368447 -0.016283926 0.10980664 0.0281409 -0.033548634 -0.023871034 -0.11914 -0.10589228
0.0581028 0.008247223 0.09350193 0.07553384 -0.027861327 0.09903337 0.027235074 0.09233575
0.08706536 0.09921026 -0.08132594 -0.025285773 0.0669604 -0.10311837 0.014022306 -0.10784799
-0.056218326 -0.0598009 -0.061290003 0.020122774 0.08107336 -0.1059066 0.080721274 -0.0490692
-0.014821882 -0.02829283 -0.023973146 -0.01843284 -0.03821667 -0.09343378 0.0029162564 0.040311743
0.016504956 0.068303004 -0.043424718 0.012456407 0.08147027 0.11808521 -0.12203802 0.08518935
0.08974385 -0.08629756 -0.051022522 0.043815933 0.078062125 -0.12566324 0.00037648415 -0.018106101
-0.0109885335 0.09099186 0.0043940437 -0.062376942 0.09247848 -0.03691739 0.08646844 0.10305233
0.039777875 -0.08391929 -0.06000638 -0.095183104 -0.06390197 -0.121514514 -2.7996415e-05 -0.054184698
0.10684855 0.02139919 -0.05689654 -0.12944295 0.052188016 -0.115397654 -0.049157534 0.049457368
0.046338752 -0.03867509 0.08657103 -0.07140366 -0.07223148 0.06833515 0.0029728748 0.052104346
0.013696919 0.03470096 -0.07209258 0.02880301 -0.015672907 -0.084307775 0.11290784 0.069413535
-0.0061468803 0.11400751 -0.11347538 0.082714275 -0.010286327 -0.08338431 0.12822746 0.10877282
-0.06180557 -0.064496726 -0.05440956 -0.042152222 0.030928586 0.05396598 0.016851015 -0.1284314
-0.07690013 -0.040711954 -0.012218158 -0.008251477 0.0012164684 -0.021735054 -0.093279146 0.041737013
-0.09705493 -0.09676649 0.012459485 0.11595886 -0.045841467 -0.103973456 -0.00033624558 0.052292846
0.042545993 0.0023472663 -0.079008214 0.006514835 0.010142865 -0.10929216 0.04730581 0.032411713
0.047746565 0.084982544 -0.053422138 0.05976944 0.09408551 -0.12170745 -0.1040045 0.012646442
-0.04945652 0.07577751 0.12516887 -0.012539532 0.0132088475 -0.08068518 0.11527623 -0.029377766
-0.07884196 -0.11985834 -0.0746325 -0.010035816 -0.061135054 5.7871315e-05 0.010117208 0.00033647838
0.011676098 -0.015527284 0.065268554 -0.11354083 -0.08042123 -0.016268214 -0.06656961 0.08646776
0.08259098 0.030598726 -0.043498337 -0.004737642 0.09861251 0.009911061 0.10333005 0.10308368
0.019128043 0.100702666 -0.0074679446 -0.015773274 -0.005550195 -0.10890439 0.10077908 0.12618364
-0.018233143 -0.084786944 -0.039830606 -0.0065486147 -0.11144125 0.051092684 -0.07749001 0.07837748
0.031616483 0.091927044 0.0625939 0.091926716 0.102001026 0.07225973 -0.07566624 -0.073554814
0.04729028 0.10595989 -0.066725284 -0.07246197 -0.122644775 0.026929509 -0.08173869 -0.06479115
0.037540063 -0.07092065 0.08766223 -0.012715674 0.020382384 0.038881283 0.009106634 0.066974066
-0.10575153 0.08211168 0.046655737 0.010628309 0.058858804 0.09085151 -0.05394435 0.12256619
-0.014808298 -0.10888962 0.049856953 -0.07475935 0.016864374 -0.08908773 0.01314016 0.014579591
-0.1130513 -0.048089072 -0.05187463 -0.09223526 0.039707113 -0.052314557 0.016389899 0.06347112

feature_extract.mlps.0.linears.1.bias f4 [64]
00000000: 4910 233d 758e 553d ce4f 623c 3f98 ca3d
00000010: 7b43 acbd be5e e93c 67e0 f43c 997e b43c
00000020: d19b a63d 34ae d73d 16b0 ab3d 5acb adbc
00000030: ad49 e93d 2d89 583d 386f 0f3d d908 803b
00000040: 04d8 8dbd 8ded 8e3d 5ee6 0a3d e860 a73c
00000050: 4f37 23bd caef d93d 8b4c bb3d 08fa f03d
00000060: 5140 f2bc f2cb 453d 6eb9 4bbd adb3 c63d
00000070: 7bee d03d 881b f53c d8d4 da3d 16a7 c2bd
00000080: d8b5 073d cb2e 783d 0e9a a8bd ed6d 32bb
00000090: b2a0 763d d97c 18bd b531 b2bd d42f 933d
000000a0: fb53 c2bd 6398 0bbc eee3 e93d 8001 0ebd
000000b0: f9f9 fabb d6af fe3c d502 e5bd b823 e2bd
000000c0: c739 30bd 67be d93c 1ac3 003e 11ee 1f3d
000000d0: ae5b fbbd 03e4 ae3d 3d26 5ebd db55 223c
000000e0: bcdb b73d 4786 913d 18d8 5e3d b6d3 eb3c
000000f0: 9899 d4bd 0075 cfbc 0b07 d83d 9d06 fcbd
0.039810453 0.05213781 0.013812972 0.0989232 -0.084113084 0.02848756 0.02989216 0.022033023
0.08135188 0.105312735 0.08383195 -0.02121513 0.11391006 0.052865196 0.035018176 0.0039073047
-0.06925967 0.06978903 0.0339111 0.02043195 -0.03984767 0.10641439 0.09145459 0.1176644
-0.029571684 0.0482902 -0.049737386 0.09702239 0.102017365 0.029920354 0.10685128 -0.09504525
0.033132404 0.0605915 -0.082325086 -0.0027226165 0.060211845 -0.03722844 -0.08700887 0.07186857
-0.09488674 -0.008520219 0.11420427 -0.0346694 -0.0076591936 0.031089704 -0.11182181 -0.11041969
-0.04302385 0.026580049 0.12574425 0.039045397 -0.12273346 0.085395835 -0.054235686 0.009908165
0.08977458 0.071056895 0.0544053 0.028787475 -0.10380858 -0.025324345 0.10548218 -0.12305949

feature_extract.mlps.0.batch_norms.0.weight f4 [64]
00000000: 97dd 7c3f e064 803f 48f4 803f 6f45 803f
00000010: 2aeb 7f3f 0b82 803f b558 813f 7e17 813f
00000020: 79f2 803f 8d1f 7f3f 2e57 803f 254b 803f
00000030: ef5a 7f3f 5b4f 803f 3604 813f 686e 7f3f
00000040: dee6 7f3f 0931 7f3f 310e 7f3f 9ff6 7f3f
00000050: 8c30 813f 0c89 7f3f f139 7f3f f7e6 803f
00000060: fa93 7e3f 44e5 7e3f 2ba4 7f3f 7345 803f
00000070: b4b4 7f3f ffe2 7f3f 4e58 803f 3df5 7e3f
00000080: 5185 823f e303 7f3f 5969 803f b00c 7f3f
00000090: e605 7f3f 3ea7 7f3f 06e0 7f3f cc97 7d3f
000000a0: 5ea6 7e3f 1b2f 803f 577e 7f3f 83c0 7e3f
000000b0: ee63 7f3f 523d 7f3f 8497 803f c8c4 7f3f
000000c0: 0a78 803f aa0c 7f3f 68c8 7e3f 497c 803f
000000d0: d08b 7e3f 5b7e 803f ffde 7e3f 127f 7d3f
000000e0: d9a6 803f 9f57 803f 696b 7e3f 123a 7e3f
000000f0: 7720 7f3f eadc 803f 3d88 7f3f 6610 803f
0.9877562 1.0030785 1.0074549 1.002119 0.99968207 1.0039686 1.0105196 1.0085294
1.0073997 0.9965752 1.0026605 1.0022932 0.9974813 1.0024217 1.007941 0.9977784
0.9996165 0.99684197 0.9963103 0.9998569 1.009294 0.9981849 0.99697787 1.0070485
0.99444544 0.9956858 0.99859875 1.0021194 0.99885106 0.99955744 1.0026948 0.99592954
1.0196935 0.99615306 1.003215 0.99628735 0.99618375 0.99864566 0.9995121 0.9905975
0.99472606 1.0014375 0.99802154 0.995125 0.99761856 0.9970294 1.0046239 0.9990964
1.0036633 0.996287 0.99524546 1.0037929 0.99432087 1.0038561 0.99559015 0.9902202
1.0050918 1.002674 0.99382645 0.9930736 0.9965891 1.0067418 0.9981726 1.0005004

feature_extract.mlps.0.batch_norms.0.bias f4 [64]
00000000: 2b56 f93b d9f6 0c3a d4f2 303c 3b7b 703b
00000010: 53a7 953b 8ede e33b 6531 3c3c 21b7 9e3b
00000020: 65d6 613b 70b6 d93b 1ff4 093b 14fe f6bb
00000030: b1da 09bc d3d7 fe3b 48f7 a9ba 2f6e 663b
00000040: 7b1f 1a3c 5bb2 ae3b c243 af39 a48a cabb
00000050: 6a39 cabb 3c3f fd3b 163b 30bc 660f f53b
00000060: 5c9d 683c bb34 19bc e5b5 ca3b 448c 933b
00000070: 099a a33a 77a3 353b 23c1 60bb 75e2 60bc
00000080: 3234 bf3c a137 90bc 4cf3 3a3b c036 b93b
00000090: a11a bfbb 74e6 5a3c affc 613c 184e 99bc
000000a0: 7cdd 06bc a1c7 d63b 549d 963a ab30 25bc
000000b0: c1ef c33b a62e 96bb f41c c23a 99d7 6c3b
000000c0: cd36 13bc 0051 72bc 22f4 c6bb 7fd9 7bbb
000000d0: c2ec b4bb f3dc 0b3b 26b1 873b d380 3abc
000000e0: a4d6 54bb d98f c43b 1928 b3ba 0e53 a0bb
000000f0: ea4d b2bb 4a45 a33a 7ee8 e2ba faf9 1bbc
0.007609149 0.00053773593 0.010800082 0.0036694545 0.0045670657 0.006954021 0.011486386 0.004843608
0.0034460064 0.0066440627 0.0021050049 -0.0075376127 -0.0084139565 0.007777193 -0.0012967372 0.003516089
0.00940692 0.00533132 0.00033429085 -0.006181078 -0.006171395 0.0077284854 -0.010756275 0.0074786423
0.014197674 -0.009350951 0.0061862343 0.004502805 0.0012481819 0.002771584 -0.0034294806 -0.013725867
0.023340318 -0.01760465 0.0028526364 0.0056522787 -0.005832032 0.013360608 0.013793155 -0.018713996
-0.008231517 0.0065545593 0.0011490979 -0.010082404 0.0059795086 -0.0045831976 0.0014809654 0.0036139248
-0.0089852335 -0.01478982 -0.0060715834 -0.0038429198 -0.005521388 0.0021341413 0.004140991 -0.011383253
-0.0032476569 0.0059985933 -0.0013668566 -0.0048927134 -0.005441417 0.0012456563 -0.001731172 -0.009520048

feature_extract.mlps.0.batch_norms.0.running_mean f4 [64]
00000000: eee9 f0be b3a8 fe3f a06b 62bf b852 f3bf
00000010: bf4c 3840 5c69 a8c0 631c 4bc0 c227 60c0
00000020: 7b12 a9bf 26dd 58c0 4c83 98be fb03 1fc0
00000030: e0c1 aa3f 0f7d f7bf 2d08 7e40 c952 4240
00000040: 3bb9 fb3f b592 c23f 6edd 33c0 d3b5 f73e
00000050: c62e 033f c2dd 06c0 0ecf bdbf fc28 a8be
00000060: 104e 7abe a2d9 81c0 e41d ae3f 824a 793f
00000070: d3bd 8ac0 e720 6cc0 3d75 b3bf 6472 6b40
00000080: 179a 4ebf 1789 85bf cc9a 8a40 2822 19c0
00000090: 494a 923e 6c2a f9bf 60a0 23c0 25bf 6340
000000a0: 88d9 5040 8a89 163e 6751 b53f 1671 00bf
000000b0: 814d bf3f f841 9040 4d43 e5bd 804a 6f3f
000000c0: 87b2 f33f a8d0 15c0 8ff8 d63f e09d cabf
000000d0: cf8e ff3c 6bc7 c4bf 2641 2840 14e1 cbbf
000000e0: 454c 91c0 9965 d13f 40de 62c0 1847 6540
000000f0: 7a85 b03f b67e 4f40 0e4b 213f 65ea 3bc0
-0.47053474 1.9895233 -0.8844547 -1.9009619 2.8796842 -5.2628613 -3.1736076 -3.5024266
-1.3208765 -3.3884978 -0.29787672 -2.484618 1.3340416 -1.933504 3.969249 3.0363028
1.9665903 1.5201021 -2.81039 0.48380908 0.51243246 -2.107285 -1.4828813 -0.3284377
-0.24443841 -4.0578165 1.3602872 0.97379315 -4.335672 -3.6895082 -1.4020153 3.6788568
-0.8070387 -1.0432462 4.331396 -2.3927097 0.285723 -1.9466071 -2.5566635 3.5585415
3.263277 0.14700904 1.4165467 -0.50172555 1.4945527 4.508053 -0.11194477 0.9347305
1.9038857 -2.3408604 1.6794604 -1.582943 0.031196026 -1.5373358 2.6289763 -1.5928063
-4.5405602 1.635913 -3.544815 3.5824642 1.3790734 3.2421088 0.6300515 -2.9361813

feature_extract.mlps.0.batch_norms.0.running_var f4 [64]
00000000: 172f af3f 1e03 5a40 d395 c13d da09 7640
00000010: 0cd8 7440 da26 d940 b2ea 2440 782b 2e3f
00000020: ba24 0640 7f7e f73f 15ba 0a40 a496 ac3f
00000030: c396 b73e 522c 1440 3381 ab40 b28f d940
00000040: 2f79 8340 7892 0340 39d3 8840 e0ad 623c
00000050: 9b09 813b 7465 dd3f e801 1b3f f4de d83a
00000060: 1d9d b63f 0ce1 b440 22a3 0040 c95c 4740
00000070: 53cf a540 bab3 7b40 bff4 8e3f ddcc 2740
00000080: 9ace f93c 8fbd e43f 7f7d 8140 e0d9 cf3f
00000090: 9c85 9e3d d7d8 a33d 3722 4740 2661 2640
000000a0: c49e cd40 72c2 153d e556 ba3e 6aa3 243d
000000b0: 1ea8 1f3d cd7e dc3f 40f8 bb3f 7728 a23f
000000c0: 7cb6 8440 419a 8540 08d7 c73e 25b9 3b40
000000d0: f704 2c3e 29fc 5640 f91c 803e de97 1a40
000000e0: 10e8 5140 4ee4 0a40 e864 2d40 74be d940
000000f0: a778 523f 9ce0 0c3f 9467 cc3f 2be6 1e40
1.3686246 3.4064403 0.09452405 3.8443513 3.8256865 6.7859926 2.5768247 0.6803508
2.0959916 1.9335479 2.1676075 1.3483472 0.3585721 2.315205 5.3595214 6.798791
4.108543 2.0558147 4.275784 0.0138354 0.0039379126 1.7296586 0.60549784 0.0016545937
1.4266697 5.6524715 2.0099568 3.1150382 5.181558 3.9328446 1.116844 2.6218789
0.030494023 1.7870349 4.0465693 1.6238365 0.07740328 0.08000343 3.1114633 2.5996795
6.4256306 0.03656239 0.3639442 0.040194906 0.03897869 1.7226197 1.4685135 1.2668599
4.147276 4.17508 0.39031243 2.9331753 0.16798769 3.3591406 0.25022104 2.4155192
3.279789 2.1701846 2.7092838 6.8044987 0.8221535 0.55030227 1.596911 2.4827983

feature_extract.mlps.1.linears.0.weight f4 [64, 64]
00000000: 41cb 023e 6a70 973d 37b2 c83d 07cd ff3d
00000010: 38c9 dcba 9d12 55bd addd 85bd 02e4 803c
00000020: 4584 443d d954 18bd 48c4 9b3d 9929 cfbd
00000030: 85fc d5bd a644 31bd c574 66bc 41df 4b3b
00000040: 02bf 48bd 452e 0cbd d286 8fbd fcea 0e3d
00000050: 7737 513d 6ba7 c53c 31c8 09bd f95c 05bd
00000060: 5114 b23d 12ff dcbc 0e4d ad3c 47bf 8abb
00000070: 8ce6 20bd e502 8339 8ce6 ed3d 5bc0 7f3d
00000080: afde dabc 3350 2b3d 5c38 9dbd 6389 c63d
00000090: 55b1 8ebd 10a9 433d 63b1 e4bd b1ba ee3d
000000a0: a824 df3d 78be 823d bc77 843d 9524 e83c
000000b0: a007 a93d c524 9f3d abc2 37bd 1d5d 01be
000000c0: a64c 8b3d 9fd9 f1bd ab35 133d c189 84bd
000000d0: 8ea8 303d ee1d 86bc 37e0 b03d 87a8 793d
000000e0: 6f75 883c 8dd5 89bd 75cd 853d 1a7e 27bd
000000f0: a699 cd3c d8fb 9a3d c430 f7bc dfca 533d
00000100: afcf 89bc ce75 bcbd 29bc c5bd 3544 b13d
00000110: 5b86 ccbc db36 d23d 00b4 afbd 3b52 ca3d
00000120: 1af7 78bd 6d9c c53d 60a3 05be a007 d53d
00000130: 025b 313d 93e3 8dbd b638 3f3d f1a0 adbd
00000140: 4568 ad3d 14e8 bfbc a829 a7bc b036 483d
00000150: e464 50bd 24b6 823d 72f6 d3bc 1050 4dbd
00000160: 862d d9bd 6d28 f13d 0998 fdbc 4ec9 b63d
00000170: 14c2 1c3c 36db acbd ad0e cb3d 6f82 9ebd
00000180: b5a5 9fbc bf28 163d d403 ccbd e9fb 89bc
00000190: e2c8 14bd 472b f2bb 6fa2 3abd ae40 f4bd
000001a0: 52ab 82bd 6bc6 24bc c18e d1bc c9ac 64bd
000001b0: f838 c23b c84b 2a3c 40f8 6fbd 8efe 30bd
000001c0: 1d73 ce3d d17f 733d 7754 bc3d 0cca b73d
000001d0: 97bd cf3d 094d e23d b0a0 8dbd 2fb7 3e3d
000001e0: 6131 3fbd ef3f a9bd d41e b5bd 8669 c0bd
000001f0: f3ff 253d 23cf 503d 269f 203d 398f 7dbd
00000200: 0d94 5dbd cf99 ba3d 32b3 91bd 8e89 873d
00000210: cb6a 82bd 5b20 cebd 567a e2bc 0ecf e53d
00000220: 6dcd e93d bf68 e9bd bfc7 453c 9dd4 fdbd
00000230: d5ce bebd d6d5 183d 7a4b 20bb 429d 7dbc
00000240: 9071 63bd cf0b e4bc dbdf 8c3c 3bd2 6fbc
00000250: 6ce8 46bd a03c 1ebd f021 e63d eac6 b63c
00000260: 5a4b bcbc 5a19 adbd ad66 36bd ef96 bebc
00000270: 86f1 f23d 0a19 c8bd db83 b3bd 8015 91bd
00000280: 6600 c2bc 1357 883d 26ba 11bd 0a8d 0abd
00000290: a76d d1bd 97bf 453d 93ae 553c 1a6b 2fbd
000002a0: e165 f03d 098d b93d a2d5 483c 70d2 1fbd
000002b0: 625b 19bb cc38 8e3b fe14 95bc f8aa 073e
000002c0: e729 893d 9948 8bbd 93af 9bbd 898b 483d
000002d0: 2d44 f83b c098 9bbc 420c bebd 7cc9 7fbd
000002e0: 8773 083e 4808 b73d 137c d6bc de1c 10bc
000002f0: f7bd 683d 1bcf 653c 97b0 093d 92c8 be3d
00000300: 6999 923d 37db 46bd f587 c43d 6473 453d
00000310: f1a5 7cbd 6ec1 c5bc a863 2c3d 5b3a 4fbd
00000320: 02b7 8ebd e6e0 9cbd 39fc a23d 6f3e a6bd
00000330: 1bb6 f4bd c1dd a33d db11 cdbd 8d79 e73d
00000340: 7ccb f6bd 9a82 463c 861d ef3c 54c6 983c
00000350: d1f7 3c3d 6bee ecbd 1058 363d 6bf3 64bc
00000360: bc3a 09bd 0e43 b73d 4ddd cabc f318 30bd
00000370: e0a4 cfbd bf82 04be 4ec8 c8bd c2a4 8a3c
00000380: 51a6 113d 1cc5 90bc 0c4d 80bd 9289 24bc
00000390: 3ea4 ccbc 83a6 203d 2d7f f03c bb75 3bbd
000003a0: 92e4 4ebd 56ca a8bd b2d8 043e 7f17 1d3d
000003b0: ac2a f9bd e24a 743d 7e5b 503d 38e4 8e3d
000003c0: 0706 cbbc 1941 c1bd 6b94 b43c 8c89 48bd
000003d0: 57bb d1bc 1f80 6cbd fba7 97bd a427 333d
000003e0: be59 9b3d 2f25 793b a932 da3d 9ff5 78bd
000003f0: e74b bbbd 8189 f9bd 6ffd ccbd de16 e5bd
0.12772848 0.07394488 0.09799617 0.12490278 -0.0016844636 -0.052019704 -0.06536422 0.015733723
0.047977705 -0.037190292 0.07605797 -0.10115356 -0.10448555 -0.04327836 -0.014065926 0.0031108411
-0.049010284 -0.034223814 -0.07008137 0.034892067 0.051078286 0.024127683 -0.033638183 -0.03255937
0.08695281 -0.026977096 0.021154907 -0.004234228 -0.039282367 0.00024988424 0.11616239 0.062439304
-0.026717512 0.04182453 -0.07676765 0.09694173 -0.06967417 0.047768652 -0.11166646 0.11656702
0.108956635 0.06383985 0.0646815 0.028337756 0.082534075 0.07770685 -0.044863384 -0.12633176
0.06801729 -0.11809086 0.035939854 -0.06471587 0.043129496 -0.016371693 0.086365156 0.060951736
0.01665756 -0.06730185 0.065333284 -0.040891744 0.02509768 0.07567567 -0.03017462 0.051707145
-0.016822664 -0.09202157 -0.09655029 0.086555876 -0.02496641 0.10264369 -0.08579254 0.098789655
-0.06078253 0.096489765 -0.13050604 0.10401845 0.043299682 -0.06928172 0.046684943 -0.08477963
0.084671535 -0.023426093 -0.020405605 0.04888028 -0.050877467 0.06382397 -0.02587435 -0.05012518
-0.10604386 0.11775289 -0.030956285 0.089251146 0.009567756 -0.08440249 0.099149086 -0.07739722
-0.019488195 0.036659952 -0.09961668 -0.016843753 -0.03632439 -0.007390413 -0.045565065 -0.11926399
-0.06380333 -0.010057072 -0.025580766 -0.055828843 0.0059272014 0.010394044 -0.05858636 -0.043211512
0.1008055 0.059448067 0.09195798 0.08974084 0.10143583 0.110498495 -0.06915414 0.046561416
-0.04667795 -0.082641475 -0.088437706 -0.09395127 0.040527295 0.05097879 0.039214276 -0.061904166
-0.05409627 0.09111368 -0.07114257 0.06618033 -0.063680254 -0.10064765 -0.027646225 0.11221133
0.11416135 -0.11396932 0.012071549 -0.123940684 -0.09316794 0.037313305 -0.002445905 -0.015479388
-0.055528224 -0.027837662 0.017196586 -0.014637525 -0.0485615 -0.038632035 0.11236942 0.022311646
-0.02298515 -0.08452101 -0.044531513 -0.02326533 0.11862473 -0.09770401 -0.08765384 -0.07084179
-0.02368183 0.06657233 -0.035577916 -0.03382591 -0.10225993 0.048278417 0.01304211 -0.04282675
0.11738182 0.090601034 0.012257965 -0.03901905 -0.0023400416 0.004340267 -0.018198486 0.13248813
0.06697445 -0.06800956 -0.076018475 0.048961196 0.0075764866 -0.018993735 -0.09279682 -0.06244801
0.1332532 0.089371264 -0.02618221 -0.008795945 0.05682179 0.014026429 0.033615675 0.093155995
0.07158167 -0.048548903 0.09596244 0.04820575 -0.06168169 -0.024140086 0.042087227 -0.05059276
-0.069685 -0.076600835 0.07958264 -0.08117377 -0.11948796 0.080012806 -0.10013171 0.11302481
-0.1205053 0.012116099 0.029188883 0.018649258 0.046134774 -0.11568912 0.044517577 -0.013974051
-0.03350328 0.089483365 -0.024763728 -0.042992543 -0.10138869 -0.129405 -0.0980383 0.016924266
0.035559002 -0.017672114 -0.062646955 -0.010042565 -0.02498066 0.039221298 0.029357517 -0.045766573
-0.05051095 -0.082417175 0.12973288 0.038352486 -0.12166342 0.059641726 0.050868504 0.06977123
-0.024783147 -0.094362445 0.022043427 -0.0489593 -0.025602026 -0.057739373 -0.074050866 0.043738976
0.07585476 0.0038016548 0.10654194 -0.060781118 -0.091453366 -0.1218443 -0.10009276 -0.11186002

feature_extract.mlps.1.linears.0.bias f4 [64]
00000000: 2395 8dbd ac3c 493d 9a0e 49bc ad4c 003d
00000010: d663 51bd d93c 97bd d13f 5cbd f076 ca3d
00000020: 109e af3d 307a cf3c f2e3 203c 83a5 53bc
00000030: 8d92 b93d ba8a 41bd 4f7c 203d 9c65 07bd
00000040: 98e1 f03d 3d2b 613c 4b5a ce3d 478b ec3d
00000050: 6fe6 69bd 9d15 c2bd dcea 9bb9 8682 d83c
00000060: 94ce f63d f0b8 d63d 21ea aabd c13a 9e3d
00000070: 3938 a73c 9f3b 99bd 8780 babd a7bc b03d
00000080: 0db9 a43d cb66 dfbd f165 96bd 188a 7b3d
00000090: 6195 613d e699 513d dd45 59bd 2f3a 873b
000000a0: bafb 4b3b 6648 8d39 994b 0f3d 9b6f 40bc
000000b0: e645 a13d 03c8 febd 8aac c03d fc73 df3d
000000c0: 0cd4 773c af80 953d e143 5dbd e24f d83d
000000d0: 758f 1e3c dbbf e5bd 6696 683d 6395 c93d
000000e0: 683c 113d 8a3a 853d 2401 eabb 01a3 653d
000000f0: c46e dd3d 6bec eabd d525 9cbd f319 ecbd
-0.06913211 0.049130127 -0.012271548 0.031323124 -0.0511206 -0.07384653 -0.053771798 0.09885967
0.0857507 0.025326818 0.009819971 -0.012917879 0.090611555 -0.04725144 0.03918105 -0.033055887
0.117617786 0.013743219 0.10075816 0.115500025 -0.057104524 -0.09476779 -0.00029738888 0.026429426
0.120511204 0.10484493 -0.08345438 0.0772605 0.020412551 -0.07482075 -0.09106546 0.086297326
0.08043108 -0.10908278 -0.073436625 0.061410993 0.0550741 0.05117216 -0.053045142 0.004126809
0.0031125383 0.00026947557 0.034984205 -0.011745359 0.0787466 -0.12440493 0.09407909 0.10910794
0.0151262395 0.07299935 -0.054019812 0.105621114 0.0096777575 -0.11218234 0.056784056 0.098429464
0.035458 0.06505306 -0.0071412493 0.056063656 0.108121425 -0.114708744 -0.076244034 -0.11528387

feature_extract.mlps.1.linears.1.weight f4 [64, 64]
00000000: d7cf 0cbd dd69 fc3d e492 d23d a976 b139
00000010: 5382 9fbd 5db2 8bbd 4fd6 a63d e6f0 0e3e
00000020: 2541 6f3d 96c8 6abc b278 02be 4b98 6abd
00000030: d977 bcbd 7e0c 9c3d ec5a 09bd e398 e33d
00000040: b7d9 243e 49fe 8c3d 9a33 433c b624 393d
00000050: d8d9 1a3e 050b 89bd b522 9a3c b5fd 133e
00000060: 18a3 14bd 9e1a 08bd c212 debd ed88 25bd
00000070: 2d57 8a3d c91a 5cbc 3fe2 223d e115 1ebb
00000080: 83d1 c93d 539c 2a3b 08f4 5cbd e5e3 75bd
00000090: 55ea 0fbc fa52 233d c45b 04be 5966 cabb
000000a0: 837c 51bd ab82 863d c288 aabc b936 c0bc
000000b0: d9f2 ad3d 2017 87bd c667 d73d 3ae6 293c
000000c0: 1cfa 043d 4715 82bd e254 b93a f023 b33d
000000d0: 4969 c53d 4854 f83d 9ff9 0a3d 09bf 6b3c
000000e0: 1419 42bd 1ec5 acbd afce 8a3d 41ee 3ebd
000000f0: e1dc 323d 9343 d0bb a10f 31bd 46dc 573d
00000100: 5d6c 58bc 5a5d af3d d3d0 b03d 0f11 cebd
00000110: d6c7 f4bd 8975 ecbd 8293 ee3d eb80 af3d
00000120: b083 8cbb e2fa 5d3d 1e92 c43c d7ed 9ebd
00000130: 021f 063d bbef 86bd 4359 cbbd 5d05 043d
00000140: ddf5 9b3d 3153 d0bd d370 723c de44 d7bd
00000150: bcde 31bd a355 ccbb 6fff 9f3d fbde dabd
00000160: 6aaf 9cbd d31f 303d 63ad 573d 314a b33c
00000170: 8ac9 f23d f793 98bd 339b d93c ab9d 4fbd
00000180: fcc9 17bc f181 16bc c406 023d a30b 9cbd
00000190: a673 933d ed51 2d3d 3d71 cd3c 9f16 cf3c
000001a0: 15d0 07bd 0971 033c a8d7 cbbd dee0 383d
000001b0: 6c02 8cbd 74e6 de3d c22a 66bd 476b 173e
000001c0: 54b9 e13d 9793 22bd 471e 7f3d 852c 893d
000001d0: 8417 d7bd d0b4 823d 8cf9 663d 0fa4 74bd
000001e0: b484 7cbd cc9e eebd dbaa 6fbd 3240 eabd
000001f0: 8392 b7bd 141d 99bd ea20 e5bc c4e2 dcbc
00000200: 06de 3bbc a79e aa3d 04d5 773d 49e5 2ebd
00000210: e65b e1bd 727a f43d 66ca dd3d 3475 c4bc
00000220: 4ea2 ed3b 2556 933d f66d 0f3d 343c 2b3d
00000230: 33d9 cf3d fba9 813c b48c e9bc c776 f5bd
00000240: 556e 4a3d d034 21bd da9e 8dbd c5a0 8e3d
00000250: 5937 f1bd 45b4 a83d 33c0 dd3c 31f8 d73d
00000260: 0648 0ebd cd2e dc3d 1b0e bd3a 6b2c cdbd
00000270: bf9d 0c3a 9a6e 3bbc 4442 683d 3b2f 8b3c
00000280: 8456 40bb a586 fbbd 29a0 babd 95ad 95bd
00000290: 9847 3fbd 4723 47bd 1c0c 8bbd 24f4 9b3d
000002a0: fb0d 203d afd2 7ebb 5650 24be 40f6 e43d
000002b0: f957 653d 2adc fbbd ed41 c03d 26c1 9a3d
000002c0: 3fe0 b93d 789e 7abb 726b debd febc b3bc
000002d0: 931e c9bd d9fb ce3d fbc1 443d 4d29 e13c
000002e0: 29c5 1d3c 8784 5bbd 3935 85bd 5fdd 5f3d
000002f0: a72f db3d d68b 053d c540 d0bb 0bcc 673c
00000300: 9784 b5ba 5183 8cbc 9cd4 35bb ae63 983c
00000310: e5b6 9b3c 63aa f43d 6326 bcbd 9b86 2dbd
00000320: 156b fa3c f1b7 c43d 6dab db3d 1e38 963d
00000330: 6329 bf3b 5912 c13d 4f7d a0bd 63e0 b63c
00000340: 40fc 23bd f28e 983d 5ff1 57bd f1d6 013e
00000350: be0d b53c 5647 e9bd 75e5 9c3d 14c7 6ebb
00000360: a462 fcbd c264 f63d c314 a4bd 4daf b0bc
00000370: afb0 fe3d a709 aebc 92b2 e8bd 82f1 083e
00000380: ce28 c0bd a7fd e83d 9299 aa3d 1945 b43d
00000390: fd84 ae3d db04 b53b fccf 08be 2acb acbd
000003a0: 3acc bd3d af40 003e bb23 8a3d fe43 c4bd
000003b0: 429a 893d ef09 b1bb bc0f 87bc 7c62 e7bd
000003c0: f178 b7bd 6d7b f9bd d384 cd3c 8318 f23d
000003d0: adbf 7dbd cf15 46bd 2fca b3bd 758b dbbd
000003e0: 9e0b d53d 5fd2 973d c0e9 97bb 1a22 183d
000003f0: 7796 9f3d 6bda 40bc e4ca b6bd 0eeb af3c
-0.0343779 0.12324879 0.102819234 0.0003384848 -0.07788529 -0.068211295 0.08146345 0.13959083
0.058411736 -0.01433005 -0.12741354 -0.057274144 -0.092025466 0.0761957 -0.033533975 0.11113145
0.16098677 0.068844385 0.011914158 0.045201026 0.15122163 -0.06691555 0.018815378 0.1445225
-0.03628835 -0.03322851 -0.108434215 -0.040413786 0.06754909 -0.01343412 0.039766546 -0.0024121928
0.09854414 0.0026033118 -0.053943664 -0.06003179 -0.008783896 0.039874054 -0.12925631 -0.0061767516
-0.051144134 0.06567892 -0.020817164 -0.023463594 0.08493585 -0.065962076 0.1051784 0.010369832
0.032465085 -0.063517146 0.0014139677 0.08747089 0.09639222 0.121254504 0.033929463 0.014388808
-0.047387198 -0.084360346 0.06777703 -0.046613935 0.043667678 -0.0063557117 -0.043227796 0.052700303
-0.01320943 0.08562727 0.0863358 -0.100618474 -0.11952178 -0.115458556 0.11649229 0.08569511
-0.0042881593 0.05419434 0.023995455 -0.07760208 0.032744415 -0.06588694 -0.09929135 0.032231677
0.07615254 -0.101721175 0.014797407 -0.10511182 -0.043425307 -0.0062357946 0.07812392 -0.106870614
-0.07650645 0.0429991 0.05265559 0.021885963 0.11854847 -0.07450097 0.026563263 -0.050687473
-0.009264465 -0.009186254 0.031744733 -0.07619407 0.071997926 0.04231446 0.02507841 0.025279341
-0.033157427 0.008022555 -0.099532425 0.045136325 -0.068363994 0.10883799 -0.05619312 0.14787017
0.11021677 -0.039691534 0.062284734 0.066979446 -0.10502532 0.063821435 0.05639033 -0.05972677
-0.061649993 -0.11651382 -0.05851255 -0.114380255 -0.08963492 -0.07476249 -0.027969796 -0.026963599
-0.011466509 0.08331042 0.060505882 -0.042699132 -0.11003856 0.11937417 0.1082962 -0.023981668
0.0072520142 0.07194165 0.035016976 0.04180546 0.10148849 0.015828123 -0.028509475 -0.119855456
0.049421627 -0.039357007 -0.06915064 0.06964258 -0.11778135 0.08237509 0.027069187 0.10545386
-0.034736656 0.10751114 0.001442376 -0.10018238 0.0005364082 -0.011439944 0.05670382 0.016990295
-0.0029348442 -0.12281541 -0.091125794 -0.07308499 -0.046699136 -0.048617627 -0.06789419 0.076149255
0.039075833 -0.0038882901 -0.1604627 0.11179781 0.0559921 -0.12297852 0.09387574 0.075563714
0.09075975 -0.0038241427 -0.10860337 -0.021940704 -0.09820285 0.1010663 0.048036557 0.027485514
0.009629526 -0.053593185 -0.06504292 0.054654475 0.10702448 0.03260406 -0.0063553774 0.014147769
-0.0013848719 -0.01715246 -0.0027745133 0.018602218 0.01900811 0.11946561 -0.09187009 -0.042364698
0.030568639 0.096053965 0.10726056 0.07334922 0.005833791 0.09427328 -0.07836401 0.022323793
-0.040035486 0.0744914 -0.052720424 0.1267965 0.02210128 -0.113905594 0.07660953 -0.0036434578
-0.12323502 0.12030937 -0.080117725 -0.021567965 0.124360435 -0.021244837 -0.113621846 0.13373378
-0.09382783 0.11376505 0.083300725 0.08802242 0.08521459 0.0055242605 -0.1336059 -0.08437188
0.09267469 0.12524675 0.06745096 -0.09583281 0.067188755 -0.0054027955 -0.016486995 -0.11298081
-0.089586146 -0.12181745 0.02508775 0.118210815 -0.061950374 -0.048360642 -0.08778798 -0.10719959
0.104026064 0.07413172 -0.0046360195 0.037141897 0.07792371 -0.011770825 -0.08925417 0.021474387

feature_extract.mlps.1.linears.1.bias f4 [64]
00000000: 897d 993d f209 07bd 9b05 bebd 6334 243d
00000010: d677 fb3c cce1 1c3d 4e77 b3bc 8299 92bd
00000020: 8668 e23c dde5 a33d 0d5b fb3d 1ac9 adbd
00000030: 8009 15bd 143e bf3d 7557 acbd 1dd9 ca3d
00000040: a12a 1d3d ae0e 963d 1df0 26bd e78a d73d
00000050: 79a6 f9bd 7aec ab3d f6bd 133c a6de 173d
00000060: d500 833d 8372 fdbd c626 293b 2592 6e39
00000070: 3112 133d 3044 a8bc 62b1 9d3c 0160 103b
00000080: de24 dabd e7be 75bd ef77 af3d eb85 c5bd
00000090: 295a 2bbd c528 c5bd 67a3 02bb dc9b 653d
000000a0: eb8b 27bc 17b9 843d b395 b3bd 95e3 a7bd
000000b0: 4239 dbbd b9d8 5f3d 971b c03c 2286 a5bd
000000c0: 415c f0bd a4ce 13bd cd1d 71bb 07c7 a93d
000000d0: 9b9f a8bd 64da af3d fc94 4a3d c010 dfbd
000000e0: b2de 3e3d 0d10 a63d 8000 91bd a647 af3d
000000f0: 87bf ec3d 34a8 bdbd d7ba b63d ac11 aa3d
0.07494647 -0.03296847 -0.09278413 0.040089022 0.03069679 0.038301274 -0.021907475 -0.071581855
0.027637731 0.08002827 0.12273226 -0.08485623 -0.036386013 0.09338012 -0.084151186 0.09904692
0.038370732 0.07327019 -0.040756334 0.105245404 -0.12189955 0.08394714 0.009017458 0.03707757
0.06396643 -0.12375357 0.0025810464 0.00022751892 0.03590602 -0.020540327 0.019249622 0.002202988
-0.10651563 -0.05999651 0.085677974 -0.096446835 -0.04183403 -0.09626917 -0.0019933821 0.056056842
-0.01022623 0.064806156 -0.08768787 -0.08197705 -0.107042804 0.054650042 0.023450656 -0.080822244
-0.11736346 -0.03608574 -0.0036791444 0.082899146 -0.08233567 0.085865766 0.04945849 -0.10891867
0.046599098 0.0810853 -0.070801735 0.08558588 0.115599684 -0.09260598 0.089223556 0.08304152

feature_extract.mlps.1.batch_norms.0.weight f4 [64]
00000000: 463f 7d3f bfc3 7f3f f800 803f 7ce8 803f
00000010: 00b8 7d3f 3857 813f 1d12 7f3f fcef 813f
00000020: cf52 7b3f 5fdd 813f 7698 7f3f 1ad5 813f
00000030: a2d5 803f a518 7f3f eee7 803f d445 7e3f
00000040: 6eb3 7f3f 096e 7c3f cac4 7d3f 17e6 803f
00000050: 0df4 7f3f 0dd9 7b3f 9ef2 7a3f bc4a 813f
00000060: 4bf1 7d3f a6e2 7c3f 5b00 823f ce4a 813f
00000070: 12db 803f 15e3 7e3f 799d 7e3f 736f 803f
00000080: 570d 7f3f e505 7e3f a44d 803f 25d6 7e3f
00000090: fa98 7c3f 89c6 7e3f 77d1 823f e253 7b3f
000000a0: e001 803f 9cca 7e3f 5aba 7f3f cbe5 7f3f
000000b0: edac 7f3f 1413 813f 4ce1 803f e26c 803f
000000c0: b662 7f3f 3af6 793f 3928 803f 9b46 813f
000000d0: abdf 813f 32aa 803f 1f48 7c3f 0bef 7d3f
000000e0: 3f65 7a3f af90 803f 517d 7e3f dc18 813f
000000f0: 0dcb 7c3f 70ca 7a3f df1d 7f3f 570e 813f
0.9892467 0.9990806 1.0000296 1.0070949 0.99108887 1.0104742 0.99637014 1.0151362
0.9817323 1.0145682 0.9984201 1.0143158 1.0065196 0.9964698 1.0070779 0.993253
0.9988316 0.986054 0.991284 1.0070218 0.99981767 0.9837807 0.98026454 1.0100932
0.9919631 0.9878334 1.0156358 1.0100954 1.0066855 0.9956525 0.99459034 1.0034012
0.9962973 0.99227744 1.0023694 0.9954551 0.98670924 0.9952169 1.0220174 0.9817487
1.0000572 0.9952791 0.99893725 0.9996001 0.9987324 1.0083947 1.0068755 1.0033228
0.99759996 0.97641337 1.0012275 1.0099672 1.0146383 1.005194 0.9854755 0.99192876
0.9781074 1.0044154 0.9940997 1.0085711 0.9874733 0.97965145 0.99654955 1.0082501

feature_extract.mlps.1.batch_norms.0.bias f4 [64]
00000000: a9a0 57bc 07d0 953a 2bd0 cc3b 82cf 653c
00000010: 07ff 8abb d84c 8d3b 632d 303b 7926 aab9
00000020: a8ea 97bb 0cfb 093c 6509 beba b0d8 aa3c
00000030: 1cef b5bb 1d27 44bc 4130 55bc 30ee 933a
00000040: 245c 19ba f4d0 55bc 37f0 6cbc 9661 68ba
00000050: 6944 ef3a c8fa c3bb ea6c 5ebc a22b 4a3c
00000060: f935 9bbc 00cc 39bc 5428 e73b 4188 7e3c
00000070: 1f60 28bc e76c a33b bdd7 2abb f773 e73b
00000080: 4328 3b3c 8b68 4cbc 1756 4eb8 3983 d63b
00000090: 3126 653b a053 d339 3bac 71bb 669e 87bc
000000a0: ac2b 4cbb 5124 7fbb 3f9d 343c fd36 bfbb
000000b0: 46e6 be3a 4b33 ac3c e0fa 1ebc 4348 8d3b
000000c0: 3b75 393b 41e3 1fbc 9fd1 b53b b387 ad3c
000000d0: 4354 433a b4ba a03b 348d 15bc b406 c0bb
000000e0: 54a7 4bbc 3c00 873a 3177 a8bb b676 e8ba
000000f0: eb7b 2b3c 260c 8ebb ee8d ec3a 0b60 a23c
-0.013160863 0.0011429795 0.0062504015 0.0140265245 -0.0042418274 0.004312139 0.0026882521 -0.0003245359
-0.0046361275 0.008421671 -0.0014498649 0.020855278 -0.0055521857 -0.011972216 -0.013011993 0.0011286195
-0.0005850217 -0.013050307 -0.014461569 -0.0008864639 0.0018254641 -0.005980823 -0.013575772 0.012339504
-0.018946635 -0.011340141 0.007054368 0.015535415 -0.010276823 0.0049873474 -0.0026068531 0.0070633846
0.011423173 -0.012476097 -4.9194405e-05 0.0065464047 0.003496539 0.00040307362 -0.003687634 -0.016555022
-0.003115396 -0.0038931558 0.0110238185 -0.0058354125 0.0014564476 0.021020552 -0.009703368 0.004311593
0.0028298635 -0.009758771 0.0055486704 0.02118287 0.00074512156 0.0049050692 -0.009127904 -0.005860174
-0.012430031 0.0010299752 -0.005141162 -0.0017735574 0.010466556 -0.0043349443 0.001804767 0.019821187

feature_extract.mlps.1.batch_norms.0.running_mean f4 [64]
00000000: bc2d 613f 043c d0be 60d9 cebd 8e31 8bbf
00000010: e12b 21bf 34ad 24be 9220 d1be bffd 2f3b
00000020: 8803 a63f 667a 04bf d222 2cbf ee43 2dbf
00000030: a60b 143f 7dd9 07bf 5a92 213f b0a5 6a3f
00000040: d633 1f3f 682f 1dbf 149a 443f 50bf a4bd
00000050: fe16 233e 6a81 8ebe a24a 12bf 46be acbf
00000060: 4d96 e6bd 9793 2dbf 2bd0 23bf b4e6 a23e
00000070: 25cc 99be cddd 41be 5bf6 09bf c617 82be
00000080: 9017 acbf 55cd 4bbf 9f70 d2be d23e 73bd
00000090: 517c e4bd 8448 a4bf 2e8f 0d3f cf66 1dbf
000000a0: 9f5f 2f3f ff04 683f 29fc 2bbe 82af ce3e
000000b0: d736 1cbf 60b4 08bd 7e2a 14bf 71fd a33c
000000c0: 0d2f b93e 8aeb bb3e 45d9 69bf 9ae8 28be
000000d0: 7c23 2a3f 42d8 efbe 90ee 15be d440 423e
000000e0: 2e48 463f 35fe 10bf 33f8 3f3f e07e adbf
000000f0: 8193 d63e 5b72 7abe da7e 40bc 2dee 5abd
0.8796041 -0.40670788 -0.10100055 -1.0874498 -0.6295758 -0.16081697 -0.40845162 0.0026854125
1.2969828 -0.51749265 -0.6724063 -0.6768178 0.57830274 -0.53066236 0.6311394 0.9165907
0.6218847 -0.6140046 0.76797605 -0.080443025 0.1592674 -0.2783311 -0.5714513 -1.3495567
-0.11259136 -0.6780333 -0.63989514 0.31816638 -0.30038562 -0.18932267 -0.53891534 -0.25408763
-1.3444691 -0.79610187 -0.41101548 -0.059386082 -0.11156524 -1.283463 0.552966 -0.61485
0.6850528 0.90632623 -0.1679541 0.40368277 -0.6102118 -0.033375144 -0.5787734 0.020018311
0.3616871 0.3670314 -0.9134715 -0.1649498 0.66460395 -0.4684468 -0.14641786 0.18970042
0.7745389 -0.5663789 0.74988097 -1.3554344 0.41909412 -0.24457686 -0.011748994 -0.0534498

feature_extract.mlps.1.batch_norms.0.running_var f4 [64]
00000000: 2acb 003e 922e 033f 52f8 743f 4a5c 123f
00000010: d51f a83f f0fb 2b3d 3d1c 633e 7ac0 e43e
00000020: 7d01 d63e f992 e43e 7724 113f 4c7d 013f
00000030: 2b10 4c3e 2c6f fb3f 29b1 233f 7b32 353f
00000040: 955e f23e 87f8 063f 3a26 bc3f 13a4 b23e
00000050: f2c0 b83e b947 053e e1cf 2d3f c485 a63f
00000060: 27cb 5f3f ad1f b33f bb5c 053f 0032 ae3e
00000070: 5d5c e23f 2dc7 b73f 5ebb 3b3f 13c0 8b3e
00000080: 92e7 043f 9267 cd3e b846 923e f06b b43f
00000090: e7f3 a23e e082 393f fcb3 293e b01f 073f
000000a0: 9680 ec3e 303e a03e 1806 2f3e 35b7 323e
000000b0: cd8c a03f b19b e43f 1d0c 483d 369a 9b3e
000000c0: bc7e 1940 36ca 993f 8e63 d83e e65b b23e
000000d0: a146 ca3e 79d3 cc3f 5aa0 863e af74 a93e
000000e0: daff 233f 76f4 1d3e 2c40 5a3f e419 ab3e
000000f0: 12c9 493f 631b 8b3e c2be 703f 6260 ac3f
0.12577501 0.51242936 0.95691407 0.5717207 1.3134714 0.041988313 0.22178741 0.44678098
0.4179801 0.4464338 0.56696266 0.5058181 0.19928043 1.9643302 0.639422 0.7078015
0.47337785 0.5272297 1.4699166 0.34890804 0.36084706 0.13015641 0.67895323 1.3009572
0.8741936 1.3994042 0.5209462 0.34022522 1.7684437 1.4357659 0.73332775 0.27294978
0.5191585 0.4011808 0.2856958 1.409544 0.31826708 0.72465324 0.16572565 0.52782726
0.46191853 0.31297445 0.17092168 0.174527 1.2542969 1.7860013 0.048839677 0.3039109
2.3983603 1.2014835 0.42263454 0.34835738 0.3950701 1.6002036 0.26294214 0.33096835
0.64062274 0.15425286 0.8525417 0.3341819 0.78822434 0.27169332 0.94041073 1.3466914

feature_extract.batch_norms.0.weight f4 [64]
00000000: 73d5 813f c0be 7f3f 896f 803f 8acd 7e3f
00000010: 12e4 803f 90fe 7f3f b395 7f3f 624e 7e3f
00000020: 2dd9 7a3f f7a9 7d3f aa00 813f 2266 7e3f
00000030: 4154 813f f628 7e3f a231 813f 9a33 813f
00000040: faae 813f df64 7e3f 9936 7f3f 8e95 7f3f
00000050: 8cd4 7d3f 765c 803f c6d0 7e3f f1ea 803f
00000060: 7ba1 7f3f ee79 7d3f 324e 803f 8e06 803f
00000070: b0ed 7f3f b0be 7d3f 89f2 7f3f c012 803f
00000080: 446c 7f3f ea57 803f 6f80 7e3f fe15 803f
00000090: e347 7b3f e6cc 803f 5bf8 7d3f 41fc 7f3f
000000a0: 490b 813f 947a 7d3f d61e 7f3f c32c 803f
000000b0: 7386 7e3f fbbe 803f 1ce5 7e3f 4520 813f
000000c0: 77db 803f db0f 803f 19e0 7f3f 1f5d 803f
000000d0: 0ba4 803f ac84 803f c8aa 803f b4b2 7f3f
000000e0: ed04 803f 8bdc 803f 38a7 803f 6868 813f
000000f0: 2565 813f eae4 7f3f 996b 7f3f be84 7e3f
1.0143265 0.99900436 1.0034038 0.9953238 1.0069602 0.99997807 0.998378 0.9933835
0.97987634 0.9908747 1.0078328 0.9937459 1.0103837 0.9928125 1.0093272 1.0093873
1.0131524 0.9937267 0.99692684 0.9983758 0.99152446 1.0028217 0.99537313 1.0071698
0.99855775 0.99014175 1.0023863 1.0002 0.9997206 0.9911909 0.99979454 1.0005722
0.99774575 1.0026829 0.99414724 1.0006711 0.98156565 1.006253 0.99207085 0.99994284
1.0081569 0.99015164 0.99656427 1.001366 0.99423903 1.0058283 0.99568343 1.0087973
1.0066975 1.0004839 0.9995132 1.0028418 1.0050062 1.0040488 1.0052118 0.99882054
1.0001503 1.0067304 1.0051031 1.0109987 1.0108992 0.9995867 0.99773556 0.994213

feature_extract.batch_norms.0.bias f4 [64]
00000000: eab1 f63b 13f5 953b abe2 a23b fb58 4cbb
00000010: 301a 9c3b 1a42 5abc 082c bbbb 6134 1bbc
00000020: 5393 2cbc cc9c 3ebc 937c ae3b e963 edbb
00000030: 08f7 1e3c b504 b4bb caf6 98ba 12c2 423c
00000040: 2c7e 20bc 2bfb e5bb e854 6d3b 26ed 9fbc
00000050: 8acc 283b 71ec 8dbb a2b1 4aba d813 4cbb
00000060: 95f0 89bb e24d fdbb 598c b33b 9d47 42ba
00000070: e880 a3bb 5bfb 7d37 4ba0 8abc 54e4 b5bb
00000080: 841b 703b 7101 be3a 4f76 c437 b122 faba
00000090: 2475 183c c7a8 c93b a01f 33bb 43ed bcba
000000a0: 1120 debb cdd3 d0bb 8b02 13bc a6fd 17bc
000000b0: b2f2 b1ba de6b 8fb7 6b94 d3b9 7a6b 1e3c
000000c0: 1026 993c 0b7f 473c 2e14 503a 1eed d73a
000000d0: ab5b 083b e0dd 1c3b 38cb dc3b becc 893c
000000e0: fbf4 3fbc cca9 073c 5219 193c 861a 343c
000000f0: 2bdf 843b e864 89bb 908b 42bc a8f9 6abc
0.007528533 0.0045763343 0.0049708686 -0.0031180966 0.004763864 -0.013321424 -0.005712036 -0.009472937
-0.010533172 -0.011634063 0.005324909 -0.0072445762 0.0097024515 -0.005493725 -0.0011670229 0.01188709
-0.009795707 -0.007018467 0.0036213938 -0.01952226 0.002575668 -0.0043311645 -0.0007732158 -0.0031139757
-0.004209588 -0.0077302316 0.005479377 -0.0007411184 -0.004989732 1.5138498e-05 -0.016922137 -0.0055509005
0.0036637494 0.0014496279 2.3420112e-05 -0.0019083825 0.009305272 0.006154153 -0.0027332082 -0.0014413971
-0.006778725 -0.006372905 -0.008972774 -0.009276783 -0.0013576357 -1.7097158e-05 -0.00040355636 0.009669179
0.018694907 0.0121762855 0.00079375773 0.0016473865 0.0020806591 0.0023935959 0.0067380928 0.016821261
-0.011716123 0.008280229 0.009344416 0.010992652 0.004054924 -0.004192937 -0.011874095 -0.014341749

feature_extract.batch_norms.0.running_mean f4 [64]
00000000: 0497 b3bd 8e90 26bd f51f dbbd f26a c13d
00000010: 9e68 8ebd 5d99 433c 446f b03d 06fb bbbd
00000020: 926a 92be 9928 f23d 3cb7 85bc 5a0b c1bd
00000030: f4c5 e53d 4297 8a3e 3ba2 ca3d a8e2 6b3d
00000040: 9c1e cb3d c07e 56bc d21a 6fbe 10d4 da3e
00000050: a476 46bd e959 0e3f 6a60 c43e c8a9 c53e
00000060: 43db f83c 1945 363f 7da7 44be 7655 063e
00000070: 2318 843d db99 dcbe e327 bf3e ae37 8e3d
00000080: 5885 40be 7fdf 9fbe a9c1 0a3e efa3 163e
00000090: 4486 c5bc bd92 c1be 44a1 cf3e f12a 2d3e
000000a0: f94d 543e cc83 bcbe 6f74 b7bd 2420 5ebd
000000b0: 11b9 b23d 3214 803e 13f1 b13d d51b 61be
000000c0: aa5f 0cbe 102b 223e 0ad5 6b3e 71cb 4c3a
000000d0: 5ddb 96bd cd27 553e 8ffb 353e a143 733d
000000e0: 299a 043e 4c79 88bd 1ecb d43e b43c 1c3d
000000f0: d248 05bf f282 edbc c5b8 19be e63e 7b3e
-0.08769038 -0.0406652 -0.10699455 0.09444226 -0.06953548 0.01193842 0.08614972 -0.09178738
-0.28596932 0.1182415 -0.016322725 -0.09425993 0.11219397 0.27068526 0.09894224 0.057589203
0.09917948 -0.013091743 -0.23350075 0.42739916 -0.04845299 0.5560594 0.38354808 0.38606095
0.03037799 0.71199185 -0.19204517 0.13118538 0.06449916 -0.43086132 0.3733512 0.06944214
-0.18800867 -0.312252 0.13550438 0.14710973 -0.024111874 -0.37807265 0.40552723 0.16910912
0.20732869 -0.36819303 -0.08957755 -0.05422987 0.08726705 0.25015408 0.086885594 -0.21983273
-0.13708368 0.1583674 0.23030487 0.00078122976 -0.07366059 0.20815964 0.17771743 0.059390668
0.12949432 -0.066637605 0.41561216 0.03814383 -0.5206424 -0.028993104 -0.1501189 0.24535713

feature_extract.batch_norms.0.running_var f4 [64]
00000000: 11e5 993c 3b73 083c e22b 073e 0694 ac3d
00000010: 5215 be3c 0c78 833d a3c1 fa3c d343 b93e
00000020: c81c 453e d14c 693c 0092 883e b6d4 953c
00000030: 3dd8 963e 075b e63d e05e 593c ce8a d63c
00000040: cbab c23c 183e 333e 9b65 133e 9611 433e
00000050: 8f86 863b 356b 393e bac6 f73c 35c3 d53c
00000060: 3420 9c3b e65c 203e 1682 743d 37eb 583d
00000070: 282b 3f3d 4bdf 133e aa4c 563d d071 b73d
00000080: 4bfb 4b3d ed46 6b3e bd53 9b3c 616a 063e
00000090: c18b 4a3c 2489 9c3d 7c26 2a3e ff0a 8e3d
000000a0: 57ee 973d 6467 793d 4eb4 513d ea6d cc3c
000000b0: b2db 773c 0890 6e3d 5179 f83d 5121 4d3d
000000c0: cb4d 133f a7d4 0c3e 5b09 7e3e 2722 b23c
000000d0: b4c0 0b3d 4705 423d 0a3c 193d 2dc7 373e
000000e0: 6597 803c a3ca 4e3e de13 bb3d 20b4 833d
000000f0: fda7 5c3d 7142 bc3d 0475 d63e 423c 9f3d
0.018785985 0.008328254 0.13200334 0.08426671 0.023203526 0.064193815 0.030609911 0.36184558
0.1924926 0.014239506 0.2667389 0.018289905 0.29461852 0.11247831 0.013267249 0.026189234
0.023763558 0.17504156 0.14394228 0.19049677 0.004105396 0.18107302 0.030246127 0.026094059
0.004764581 0.15660438 0.059694372 0.052958693 0.046672016 0.14440648 0.052319206 0.08957255
0.0498002 0.22976275 0.018960828 0.13126518 0.0123624215 0.07643345 0.16616243 0.06935691
0.074185066 0.060889617 0.051197343 0.024954755 0.015128063 0.058242828 0.12132514 0.0500806
0.5754058 0.13752995 0.24808256 0.0217448 0.034119323 0.047368314 0.037410773 0.17947073
0.01569719 0.20194487 0.09134649 0.064308405 0.053871144 0.0919236 0.4188615 0.07775165

feature_extract.batch_norms.1.weight f4 [64]
00000000: 818b 8f3f 04a0 913f 3b7d 8d3f f75f 8b3f
00000010: c6a7 903f a4ac 933f ab6f 8e3f 64ee 893f
00000020: a3fc 903f 6546 8c3f d0e4 8d3f 6c0e 8a3f
00000030: 797c 8e3f b765 8c3f cf78 8c3f d634 8f3f
00000040: c6e3 8a3f 937e 903f 09d8 8e3f 493a 8c3f
00000050: ed37 8a3f eff1 8b3f 7a8e 8b3f 0dda 933f
00000060: 83e6 8c3f 48c7 8c3f 3684 8b3f dcd8 8c3f
00000070: aa62 8f3f 66ae 903f ab34 8f3f 6fb1 8d3f
00000080: 02bb 8b3f b4bb 8d3f 7f49 933f 0d66 893f
00000090: 7ca8 8a3f be3b 8c3f fb05 963f eae5 8f3f
000000a0: f8dc 8e3f 51d0 8f3f f9f3 8a3f eeb5 903f
000000b0: 1d2f 8e3f 49c5 8d3f fe48 8d3f d962 8f3f
000000c0: 39a1 853f 8760 893f 9420 913f 0f13 8f3f
000000d0: 0e2e 8c3f b6ac 8b3f 203b 8b3f 6f92 8c3f
000000e0: 0fda 903f 9b7b 923f cc52 8c3f 30bc 8c3f
000000f0: 6c8c 943f 62f0 903f 9558 8d3f bf8f 8b3f
1.1214448 1.1376958 1.1053842 1.0888661 1.13012 1.1537061 1.1127828 1.0775876
1.1327099 1.0958983 1.1085453 1.0785651 1.1131736 1.0968541 1.0974368 1.1187999
1.0850761 1.1288627 1.1159679 1.0955287 1.0798317 1.0933207 1.0902855 1.1550919
1.1007847 1.0998316 1.0899723 1.100368 1.1201985 1.1303222 1.1187948 1.1069773
1.0916445 1.1072907 1.1506804 1.0734268 1.0832667 1.0955732 1.1720575 1.1242039
1.1161184 1.1235448 1.0855705 1.130552 1.1108128 1.1075832 1.10379 1.1202041
1.0439826 1.0732583 1.1338067 1.1177691 1.0951555 1.0912082 1.0877419 1.0982188
1.1316546 1.1443971 1.0962768 1.099493 1.1605353 1.1323359 1.1042658 1.0903243

feature_extract.batch_norms.1.bias f4 [64]
00000000: b6cb ea3d b9a3 eb3d b868 993d 280f e53d
00000010: 96d7 e53d ac20 033e 92e9 bd3d f709 733d
00000020: 8163 be3d 4d6b ed3d 4a44 8f3d ae30 ce3d
00000030: c0e3 053e 6862 fe3d ffbd b23d 6d29 873d
00000040: 8653 433d 9052 d93d 1fd5 e03d fb61 fe3d
00000050: b5c8 963d 8e8f c43d 9a21 a03d 85de db3d
00000060: d294 873d 1ae6 723d db11 fa3d 60dc d43d
00000070: 3508 b63d 0b89 c53d 6d60 b33d df1b f53d
00000080: fb0b 9e3d 8392 b53d 474a de3d 897f 713d
00000090: 5369 8b3d d67c b93d 38c0 d23d 189c 073e
000000a0: 159e c53d 2fbc e93d 118b 9f3d beaa 933d
000000b0: b7f3 a33d 058d ab3d b635 c23d 0a57 b23d
000000c0: 4f82 1e3d 5a86 8c3d 6afc f33d 6367 ba3d
000000d0: 3b54 b93d a2c5 af3d 8593 be3d 0ca7 8f3d
000000e0: 30e3 b93d 9b2c fc3d 70b4 9a3d 5612 a03d
000000f0: e986 003e 0e9a d33d 14ef 773d 0311 ce3d
0.11464636 0.11505837 0.07490677 0.111845315 0.112227604 0.12805432 0.092730656 0.059335675
0.092963226 0.115927316 0.06995447 0.10067879 0.13075161 0.12421113 0.08727645 0.06599698
0.047687076 0.10611451 0.109781496 0.12421032 0.073625006 0.095976934 0.07818909 0.107358016
0.06620182 0.059301473 0.12210437 0.10393596 0.08888284 0.096452795 0.08758626 0.119682066
0.07717129 0.088658355 0.10854011 0.058959518 0.068071984 0.09057014 0.10290569 0.13243139
0.096492924 0.11412846 0.07790197 0.07210301 0.08005469 0.08376507 0.09482901 0.08708008
0.03869849 0.06861563 0.119133785 0.09101751 0.09049269 0.08582617 0.09305481 0.070142835
0.09076536 0.12313195 0.07553947 0.07815997 0.12551464 0.10332118 0.060530737 0.100618385
