SavedNetwork/6_6_1_99.pth (torch_old, 86560 bytes, 30 tensors)

feature_extract.mlps.0.linears.0.weight f4 [64, 2]
0	0xbe9a29c8	-0.30110002
1	0x3ed6cdd6	0.41953915
2	0x3eff47a4	0.49859345
3	0xbe74c1bb	-0.23902027
4	0x3d86f31f	0.065893404
5	0xbedcff73	-0.43163642
6	0xbf08fa5e	-0.5350703
7	0x3eb22d88	0.34800363
8	0x3f024e91	0.5090113
9	0xbcb819e4	-0.022473283
10	0xbf30251c	-0.68806624
11	0xbe52213d	-0.20520492
12	0xbeda6acd	-0.42659608
13	0xbe40e324	-0.18836647
14	0xbe533510	-0.2062571
15	0xbf15908d	-0.5842369
16	0xbec3337d	-0.3812522
17	0x3e93f0a6	0.28894538
18	0xbeb93c1d	-0.36178675
19	0xbea7e8ea	-0.32794887
20	0xbecfe2d2	-0.40602738
21	0x3f0b481a	0.54406893
22	0xbea14f30	-0.31505728
23	0xbe5ba642	-0.21450141
24	0xbe0c10d9	-0.13678302
25	0x3f2afca7	0.66791767
26	0xbed1a43d	-0.40945616
27	0x3e80c077	0.2514684
28	0x3f1a8e94	0.60373807
29	0x3e1b10b2	0.15143088
30	0x3f34e158	0.7065635
31	0xbeaf6854	-0.34259284
32	0x3f08ccc7	0.53437465
33	0xbf20291c	-0.6256273
34	0x3ec59a44	0.38594258
35	0xbf0737d8	-0.52819586
36	0xbf0ba082	-0.5454179
37	0x3e0ba585	0.1363736
38	0xbc2df334	-0.010617066
39	0x3e60a817	0.21939121
40	0x3c781377	0.0151413595
41	0x3c6792be	0.014134107
42	0xbeb1533a	-0.3463381
43	0x3e664288	0.22486317
44	0xbe48f150	-0.19623303
45	0x3e242a3a	0.16031733
46	0x3d15ca6f	0.03657001
47	0xbcc16a7a	-0.023610342
48	0xbe9e4714	-0.30913603
49	0x3f028058	0.5097709
50	0xbf1fe5cf	-0.62460035
51	0xbcc5b24a	-0.024132866
52	0x3ec5166e	0.38493675
53	0xbe329168	-0.1743828
54	0x3eebf4d6	0.46085232
55	0xbeff49db	-0.49861035
56	0xbf1b64aa	-0.60700476
57	0xbea72aeb	-0.3264993
58	0xbf04afcf	-0.5183076
59	0xbcc6a022	-0.02424628
60	0xbe915038	-0.28381515
61	0x3e6803ff	0.22657774
62	0x3ee1391f	0.43988892
63	0x3df99986	0.121874854
64	0xbc84784b	-0.016170641
65	0xbe89d410	-0.26919603
66	0xbeb88368	-0.36037755
67	0x3f0df69b	0.55454415
68	0x3f020bc6	0.50799215
69	0x3eb95074	0.36194193
70	0xbea37db4	-0.3193184
71	0xbe854d2c	-0.2603544
72	0x3da35010	0.07974255
73	0x3d4b0797	0.049567785
74	0xbd382ecb	-0.0449665
75	0xbedd75a4	-0.43253815
76	0xbeed1b67	-0.4630997
77	0x3ec12526	0.37723655
78	0x3ed3ff00	0.41405487
79	0x3f0cae34	0.5495331
80	0x3f2bafa6	0.67064893
81	0xbe1cba1b	-0.15305369
82	0xbd55fe24	-0.05224432
83	0x3d0c893e	0.03431057
84	0x3e0bf67e	0.13668248
85	0x3e1975ad	0.14986296
86	0x3cc7b1c8	0.024376765
87	0xbeadd367	-0.3395035
88	0xbc57cce6	-0.01317141
89	0x3ec1a5fb	0.37821946
90	0x3eadadd1	0.33921674
91	0x3f1f9d3f	0.62349313
92	0x3ea7060b	0.32621798
93	0xbf2aa62d	-0.66659814
94	0x3e9942cd	0.29933777
95	0xbf0bee0b	-0.546601
96	0x3f0d1d6e	0.5512303
97	0xbf0ed2ad	-0.55790216
98	0xbf0a2433	-0.53961486
99	0x3e372e2c	0.17888707
100	0x3e0aa3de	0.13539073
101	0x3f0293df	0.51006883
102	0xbeeddd2d	-0.46457806
103	0x3f0cb939	0.5497013
104	0x3e006168	0.12537158
105	0xbdf3db03	-0.119070075
106	0xbf032ba1	-0.5123845
107	0x3ea946af	0.3306174
108	0x3dbe4573	0.0929059
109	0x3f0eb32a	0.5574213
110	0xbed23f87	-0.41064093
111	0x3f1909ef	0.5978078
112	0xbef2869c	-0.47368324
113	0xbed58fb6	-0.41711205
114	0x3ec36c60	0.3816862
115	0xbdd2dfa2	-0.10296561
116	0xbed9dc1c	-0.42550743
117	0xbd677002	-0.056503303
118	0x3f30eecb	0.6911437
119	0xbd043533	-0.032277297
120	0x3e7e1168	0.24811327
121	0xbe242418	-0.16029394
122	0x3e2f1baa	0.17100397
123	0x3f2e07f5	0.6798089
124	0x3eae3db4	0.3403145
125	0xbefd40b2	-0.4946342
126	0xbeda1c47	-0.425997
127	0xbdc8cb5c	-0.09804413

feature_extract.mlps.0.linears.0.bias f4 [64]
0	0x3ea45a7b	0.3210028
1	0xbec8bf9e	-0.39208692
2	0xbd402896	-0.046913706
3	0x3eb15aae	0.34639496
4	0xbeb1112a	-0.34583408
5	0xbec4d3f3	-0.38442954
6	0x3c3a2c0d	0.011363042
7	0xbf1459c6	-0.57949483
8	0x3e95c8ee	0.2925486
9	0xbe488e42	-0.19585517
10	0x3f100f10	0.56272984
11	0x3d551b03	0.052027714
12	0x3eada31e	0.3391351
13	0xbdf75b76	-0.12077992
14	0xbe81991f	-0.25312135
15	0xbe9c0a4f	-0.30476615
16	0x3eaf7a13	0.34272823
17	0x3f2451c8	0.6418729
18	0x3e81eb7d	0.25374976
19	0xbe28e5bf	-0.16493891
20	0x3ebcbf87	0.36864874
21	0xbf08b0e6	-0.53394926
22	0xbf1b7d40	-0.6073799
23	0xbe6b29f3	-0.22965221
24	0x3ea13d30	0.31491995
25	0xbd988db9	-0.074489065
26	0xbef98fa7	-0.4874241
27	0xbf164568	-0.58699656
28	0x3eb4d864	0.35321343
29	0xbebb4867	-0.36578676
30	0xbe9181a0	-0.2841921
31	0x3f21f104	0.63258386
32	0x3dd879cc	0.10570106
33	0xbed364b6	-0.41287774
34	0x3d5697ea	0.05239097
35	0x3ec7b240	0.3900318
36	0xbea9d519	-0.33170393
37	0xbee27034	-0.4422623
38	0xbf28f140	-0.6599312
39	0xbf19bf74	-0.6005776
40	0xbf070baf	-0.527522
41	0x3eba9af5	0.36446348
42	0x3d81a53b	0.06330343
43	0x3e5ff5e5	0.21871145
44	0x3ecefede	0.40428823
45	0x3f233cbe	0.6376456
46	0xbe3fb8e4	-0.18722874
47	0x3f213772	0.6297523
48	0x3de6444d	0.11243496
49	0x3f10ff82	0.56639874
50	0xbf294472	-0.66120064
51	0xbe9e01bd	-0.308607
52	0xbe8933d4	-0.26797354
53	0x3f04b44b	0.51837605
54	0x3ed602bb	0.41798958
55	0xbf32e135	-0.6987489
56	0xbecb521c	-0.39711082
57	0xbf0cb05a	-0.5495659
58	0xbf332147	-0.6997265
59	0xbf2800ea	-0.65626395
60	0x3eab9bf7	0.3351743
61	0x3e7e58ef	0.24838613
62	0xbd59fc34	-0.053219035
63	0xbd04a390	-0.032382548

feature_extract.mlps.0.linears.1.weight f4 [64, 64]
0	0xbd93d432	-0.072182074
1	0x3d863a35	0.06554071
2	0xbdcf0770	-0.101088405
3	0xbdc46cc3	-0.09591057
4	0xbdea6130	-0.11444318
5	0xbd6ddf8b	-0.058074515
6	0xbdc9b3c1	-0.098487385
7	0x3db0e614	0.08637634
8	0xbdfd8ce3	-0.12380388
9	0x3c79b2d9	0.0152403945
10	0x3caf572e	0.021403875
11	0x3b401452	0.0029308987
12	0x3d56bcc1	0.052426104
13	0x3decad23	0.11556461
14	0x3d449977	0.047997918
15	0x3cffa488	0.031206384
16	0xbd40071b	-0.046881776
17	0xbc161bf4	-0.009161938
18	0x3df2559b	0.11832734
19	0x3d1fe51a	0.039036848
20	0xbd3c10e2	-0.04591454
21	0xbc85d04d	-0.016334677
22	0xbde61403	-0.11234286
23	0xbdbabed1	-0.091184266
24	0x3d8c5d85	0.06853775
25	0x3c10c2cc	0.008835506
26	0x3dbda24e	0.09259473
27	0x3da2f32d	0.07956538
28	0xbc902bbc	-0.01759898
29	0x3dcccaa9	0.09999592
30	0x3d0ec5e7	0.034856703
31	0x3d97551e	0.07389282
32	0x3db1ec63	0.08687665
33	0x3de0390f	0.10948383
34	0xbdc2e357	-0.09516018
35	0xbc6d313b	-0.0144770695
36	0x3d565ae5	0.052332778
37	0xbdd27123	-0.10275485
38	0x3caf4c4f	0.021398691
39	0xbdf1952f	-0.11796033
40	0xbd7c8988	-0.061654598
41	0xbd564422	-0.05231107
42	0xbd95d9c1	-0.07316924
43	0x3d268414	0.040653303
44	0x3dbd5112	0.092439786
45	0xbdf206c1	-0.118176945
46	0x3dbdbbb6	0.09264319
47	0xbd1bc035	-0.0380251
48	0xbc3154c6	-0.010823434
49	0xbc9ac01b	-0.018890431
50	0xbd0d5db8	-0.034513205
51	0xbc208182	-0.009796502
52	0xbd095d4e	-0.033536248
53	0xbdaf60f5	-0.08563415
54	0xbb858993	-0.004075238
55	0x3d4d36c6	0.050101064
56	0x3cd8e5b4	0.026476718
57	0x3d816ff0	0.063201785
58	0xbd298967	-0.041390803
59	0xba10877a	-0.00055133516
60	0x3da88723	0.082289
61	0x3dde52af	0.108556144
62	0xbdea0283	-0.1142626
63	0x3db9d7c5	0.09074358
64	0x3dbb27c3	0.09138443
65	0xbdbf8071	-0.0935067
66	0xbd5d3bc9	-0.054012094
67	0x3d43b21b	0.047777276
68	0x3d988b33	0.07448425
69	0xbdeb1127	-0.11477881
70	0x3c40c946	0.011766737
71	0xbc84e871	-0.016224118
72	0xbbe7837f	-0.007065236
73	0x3dc7d2f5	0.09757034
74	0x3bc3f79c	0.005980445
75	0xbd608686	-0.05481579
76	0x3db4340c	0.0879899
77	0xbd0723ac	-0.032993004
78	0x3dadb655	0.08482043
79	0x3dc45c50	0.0958792
80	0x3d118fc0	0.03553748
81	0xbdb57b94	-0.08861461
82	0xbd633813	-0.0554734
83	0xbdd05b13	-0.10173621
84	0xbd8990d4	-0.06717077
85	0xbdf0ee23	-0.11764171
86	0x3b6e66aa	0.003637711
87	0xbd79600e	-0.06088262
88	0x3ddbf327	0.10739737
89	0x3ccf96e6	0.025340509
90	0xbd83ec15	-0.064415134
91	0xbe089bcc	-0.13340682
92	0x3d7ea24f	0.06216651
93	0xbde463ad	-0.11151824
94	0xbd3a2896	-0.045448862
95	0x3d443727	0.04790416
96	0x3d3db566	0.046315573
97	0xbd1a7f89	-0.037719283
98	0x3da6faef	0.081533305
99	0xbd86ce63	-0.06582334
100	0xbd9bb569	-0.076029606
101	0x3d8c2e8a	0.06844814
102	0x3bdae2c9	0.006679867
103	0x3d40c0a1	0.047058705
104	0x3c15024d	0.009094787
105	0x3d1ee883	0.03879596
106	0xbd9d76d2	-0.07688679
107	0x3cd71ce6	0.026258897
108	0xbcb4b997	-0.022061152
109	0xbdafc8c3	-0.08583214
110	0x3ddb54ef	0.10709559
111	0x3d819800	0.0632782
112	0xbc2824ef	-0.010262712
113	0x3df1ed40	0.1181283
114	0xbdf9155c	-0.12162277
115	0x3dae8545	0.08521513
116	0xbc6b6ca8	-0.014369167
117	0xbda2935d	-0.079382636
118	0x3df773a4	0.120826036
119	0x3de1a0a5	0.11016969
120	0xbd614b30	-0.055003345
121	0xbd8f2d49	-0.06991059
122	0xbd446b81	-0.047954086
123	0xbd3a9e44	-0.04556109
124	0x3cca6c5f	0.024709878
125	0x3d3d5d91	0.04623181
126	0x3c42b9e3	0.011885139
127	0xbdf19fef	-0.11798083
128	0xbd9bb599	-0.076029964
129	0xbd369250	-0.04457313
130	0xbc880e0f	-0.016608266
131	0xbbfbf228	-0.0076887794
132	0x3af8af35	0.0018973114
133	0xbbd457c3	-0.0064801886
134	0xbdaacf36	-0.083403036
135	0x3d22d4b9	0.03975365
136	0xbdc6c8b6	-0.09706251
137	0xbdbf58d3	-0.09343114
138	0x3c5bfe11	0.013427273
139	0x3df91be1	0.121635206
140	0xbd5dfdd7	-0.05419716
141	0xbdd195e8	-0.102336705
142	0x3be4cd17	0.0069824564
143	0x3d444bd9	0.047923896
144	0x3d17a0a9	0.03701845
145	0xba7594ff	-0.00093682104
146	0xbd8baa8c	-0.068196386
147	0x3b07955c	0.002068839
148	0x3c37f4a8	0.011227764
149	0xbddea442	-0.108711734
150	0x3d3d069d	0.046148885
151	0x3cf981b0	0.030457348
152	0x3d4527f7	0.048133817
153	0x3dd08641	0.10181857
154	0xbd6a64d9	-0.057225082
155	0x3d59f6bf	0.05321383
156	0x3dd0d91f	0.101976626
157	0xbdd62f44	-0.10458234
158	0xbdd723bf	-0.10504865
159	0x3ca30e67	0.019904329
160	0xbd52e54a	-0.0514882
161	0x3d9b3345	0.07578138
162	0x3e038582	0.12843898
163	0xbc03da71	-0.008047686
164	0x3c88cc71	0.016699048
165	0xbdaa1921	-0.08305574
166	0x3dea752a	0.114481285
167	0xbcf8cec0	-0.030372024
168	0xbda83a34	-0.08214226
169	0xbdf0a3d6	-0.11749999
170	0xbd95f591	-0.07322229
171	0xbc6d8ab2	-0.0144984
172	0xbd867e04	-0.06567004
173	0xbb294eee	-0.00258344
174	0x3b9858f1	0.0046492745
175	0xbb93d958	-0.0045119934
176	0x3ba406fb	0.005005715
177	0xbb9dffca	-0.004821752
178	0x3d7f4489	0.06232122
179	0xbde7d3ee	-0.11319719
180	0xbdb15f5c	-0.086607665
181	0xbc80a55d	-0.015703851
182	0xbd8e02a7	-0.069341
183	0x3db25b02	0.087087646
184	0x3db0b984	0.08629134
185	0x3ce38e28	0.027777746
186	0xbcd50208	-0.026001945
187	0xbb8f3491	-0.00437028
188	0x3dbb1828	0.09135467
189	0x3be57360	0.007002279
190	0x3dcdcc1f	0.10048699
191	0x3df47e66	0.11938171
192	0x3ca3fbb2	0.020017479
193	0x3dbdd090	0.09268296
194	0xbbe27d5c	-0.0069119167
195	0xbca0908a	-0.019600172
196	0xbad8c1bc	-0.001653723
197	0xbdd11cd3	-0.10210576
198	0x3dd2c8ae	0.10292183
199	0x3df7a567	0.12092095
200	0xbcb05f02	-0.021529678
201	0xbdb64176	-0.088992044
202	0xbd2026ae	-0.039099388
203	0xbc0e1826	-0.00867275
204	0xbdc1afe3	-0.09457376
205	0x3d41eecc	0.047346875
206	0xbd8dcc9d	-0.069237925
207	0x3d8f7541	0.07004786
208	0x3cc1ecfe	0.023672577
209	0x3dac5659	0.08414907
210	0x3d7ed779	0.06221721
211	0x3dd9ad52	0.10628761
212	0x3de75f8f	0.11297523
213	0x3d8ccbe8	0.068748295
214	0xbda25154	-0.07925668
215	0xbd9899f3	-0.074512385
216	0x3d4b0326	0.04956355
217	0x3deadd85	0.11468033
218	0xbd98e7ca	-0.07466085
219	0xbda5465e	-0.08070062
220	0xbdfaf651	-0.122540124
221	0x3d132a77	0.03592917
222	0xbdad4fbb	-0.08462473
223	0xbd652c57	-0.05595049
224	0x3d08392d	0.033257652
225	0xbd8d7491	-0.06906999
226	0x3dcb6b58	0.099325836
227	0xbc837ab2	-0.016049717
228	0x3d03a963	0.03214396
229	0x3d0e5a27	0.034753945
230	0x3bc3fa6a	0.0059807794
231	0x3da591bf	0.080844395
232	0xbdd887a9	-0.1057275
233	0x3d9fc0cf	0.07800447
234	0x3d734996	0.05939635
235	0x3c358a8b	0.0110803945
236	0x3d95c3b8	0.07312721
237	0x3dd5ca0c	0.10438928
238	0xbd77b6a9	-0.060476933
239	0x3decf1c3	0.1156955
240	0xbcbc1262	-0.022957984
241	0xbde1d981	-0.11027814
242	0x3d7ca396	0.061679445
243	0xbd9a3dec	-0.07531342
244	0x3c12344c	0.008923601
245	0xbdbe2d7b	-0.092860185
246	0x3cc9da8a	0.02464034
247	0x3c82af14	0.015952624
248	0xbdef452f	-0.116831176
249	0xbd4467ff	-0.04795074
250	0xbd2982ed	-0.041384626
251	0xbdb5918c	-0.088656515
252	0x3d01c7ce	0.03168469
253	0xbd263bd7	-0.04058441
254	0x3c0df877	0.008665196
255	0x3d932cba	0.07186265

feature_extract.mlps.0.linears.1.bias f4 [64]
0	0x3d2dc7c7	0.04242685
1	0x3d60da0b	0.054895442
2	0x3c401f00	0.011726141
3	0x3dd4318d	0.103610136
4	0xbdb179b9	-0.08665795
5	0x3cf227fe	0.029560085
6	0x3cd97b11	0.02654794
7	0x3cc25922	0.023724142
8	0x3da8d903	0.08244517
9	0x3ddb46c6	0.10706858
10	0x3db116e8	0.08646947
11	0xbc900894	-0.017582215
12	0x3ddb252d	0.1070045
13	0x3d4433ff	0.04790115
14	0x3d223eed	0.039610792
15	0x3b98a3a1	0.004658178
16	0xbd8b8161	-0.068117864
17	0x3d9230d6	0.07138221
18	0x3d024704	0.031806007
19	0x3ccbd4f3	0.024881816
20	0xbd17f8bb	-0.037102442
21	0x3de4a5d8	0.11164445
22	0x3db585c4	0.088634044
23	0x3deec1f9	0.11658091
24	0xbce2eeac	-0.027701698
25	0x3d456e9d	0.048201192
26	0xbd417ab7	-0.04723617
27	0x3dc32aed	0.09529672
28	0x3dde3953	0.108507775
29	0x3d06933a	0.03285525
30	0x3dd7afed	0.10531602
31	0xbdbf2cf8	-0.09334749
32	0x3d01d088	0.03169301
33	0x3d86092a	0.06544717
34	0xbdad01aa	-0.08447583
35	0xbb464466	-0.003025317
36	0x3d836a95	0.06416813
37	0xbd1a2ede	-0.037642352
38	0xbda9de13	-0.082943104
39	0x3d88da50	0.06682265
40	0xbdbe8d00	-0.09304237
41	0xbbeceaa5	-0.0072301202
42	0x3df03d5e	0.11730455
43	0xbd0e2091	-0.034699026
44	0xbbb5a070	-0.0055428073
45	0x3cfe8116	0.031067412
46	0xbde578f6	-0.11204712
47	0xbddb30a5	-0.107026376
48	0xbd34bf9c	-0.044128045
49	0x3ccefeb5	0.025267938
50	0x3dfcb9ba	0.12340112
51	0x3d231d9a	0.039823152
52	0xbdfc6c29	-0.123253174
53	0x3db6cc62	0.08925702
54	0xbd5217a0	-0.05129206
55	0x3c50bd06	0.012740379
56	0x3db33723	0.08750751
57	0x3d8b75c6	0.06809573
58	0x3d4b55fb	0.049642544
59	0x3cd4e436	0.025987726
60	0xbdd0fe2b	-0.10204729
61	0xbcd7c967	-0.026341153
62	0x3ddd5c51	0.108086236
63	0xbdfc65cd	-0.123241045

feature_extract.mlps.0.batch_norms.0.weight f4 [64]
0	0x3f80e76a	1.0070622
1	0x3f80b8d0	1.00564
2	0x3f801f5b	1.0009569
3	0x3f80ab91	1.0052358
4	0x3f7c3df9	0.9853206
5	0x3f803e4e	1.0019014
6	0x3f809dcc	1.0048156
7	0x3f80a16d	1.0049263
8	0x3f7fa2d3	0.99857825
9	0x3f80ebdb	1.0071977
10	0x3f805ec3	1.0028919
11	0x3f805a38	1.0027533
12	0x3f7e822b	0.9941737
13	0x3f7fd9ae	0.9994153
14	0x3f7e8d7b	0.9943463
15	0x3f7d6f15	0.9899762
16	0x3f7ff7c6	0.9998745
17	0x3f7fca54	0.99918103
18	0x3f7ffebc	0.9999807
19	0x3f801e43	1.0009235
20	0x3f8007d8	1.0002394
21	0x3f7ebe03	0.99508685
22	0x3f804390	1.0020618
23	0x3f80ad4d	1.0052887
24	0x3f7f7310	0.99784946
25	0x3f7fa071	0.9985419
26	0x3f80f6a8	1.0075274
27	0x3f7f4ae0	0.99723625
28	0x3f80156a	1.0006535
29	0x3f7ec8f4	0.9952538
30	0x3f802141	1.0010148
31	0x3f7f4112	0.99708664
32	0x3f804d1e	1.0023534
33	0x3f7ec198	0.9951415
34	0x3f7eadf3	0.99484175
35	0x3f7fca04	0.99917626
36	0x3f7fc77b	0.9991376
37	0x3f7e6b57	0.9938254
38	0x3f7fd613	0.99936026
39	0x3f80f947	1.0076073
40	0x3f80075a	1.0002244
41	0x3f804d86	1.0023658
42	0x3f801c92	1.0008719
43	0x3f80219d	1.0010258
44	0x3f7df3a0	0.9919987
45	0x3f80207f	1.0009917
46	0x3f80deb7	1.0067967
47	0x3f80eaaa	1.0071614
48	0x3f7ef196	0.9958738
49	0x3f7ea192	0.99465287
50	0x3f7f45d2	0.9971591
51	0x3f8023c5	1.0010916
52	0x3f7d3721	0.98912245
53	0x3f813095	1.0092951
54	0x3f7f3dd9	0.9970375
55	0x3f8022a3	1.001057
56	0x3f80af9a	1.0053589
57	0x3f8166c1	1.0109483
58	0x3f800bbf	1.0003585
59	0x3f8000d1	1.0000249
60	0x3f808363	1.0040096
61	0x3f80fa31	1.0076352
62	0x3f7dc7fb	0.9913327
63	0x3f7f5655	0.9974111

feature_extract.mlps.0.batch_norms.0.bias f4 [64]
0	0x3c086012	0.008323686
1	0xba0daf6a	-0.0005404862
2	0x3b671726	0.00352616
3	0x3bd442f5	0.0064777085
4	0xbb8c9fcf	-0.0042915116
5	0x3a76de30	0.0009417264
6	0x3b97027d	0.004608451
7	0x3a7a1963	0.0009540526
8	0x3a7e54cf	0.00097019685
9	0x3b272592	0.0025504571
10	0x3a0624cb	0.0005117177
11	0xbaab7bbe	-0.0013083143
12	0xbb815292	-0.0039466107
13	0x3b2ead7c	0.0026653698
14	0xbc1632db	-0.009167398
15	0xb91602ad	-0.00014306112
16	0x3b9cd1a1	0.004785732
17	0x3b810563	0.0039374097
18	0x3b71f36e	0.0036918777
19	0x3b2f936a	0.0026790746
20	0xbbfd8e94	-0.007737944
21	0xbbb7c0b3	-0.0056076883
22	0x3c24a463	0.0100489585
23	0x3b673400	0.0035278797
24	0xbaed93c6	-0.0018125705
25	0x3baebd6f	0.005332641
26	0x3a5501dd	0.0008125583
27	0x3b18a927	0.0023294182
28	0xbbdeb1ce	-0.0067960983
29	0xba0cde18	-0.0005373671
30	0xbb498906	-0.0030751838
31	0x3bada1ee	0.0052988445
32	0xba8e89b1	-0.0010874775
33	0x3b143cbd	0.002261921
34	0xba52726f	-0.0008027916
35	0x3ad7b936	0.0016458395
36	0x35a053e1	1.1945341e-06
37	0xbc01b029	-0.007915535
38	0x3bf5d2db	0.0075019426
39	0x3b41a2c2	0.0029546474
40	0xbbc6153e	-0.0060450127
41	0x3b53990c	0.0032287268
42	0x3b637197	0.0034705156
43	0xbb911fb1	-0.0044288267
44	0xbbd88619	-0.0066077826
45	0x3bcc6f69	0.006238867
46	0x3c3fbe26	0.01170305
47	0x3ba59180	0.0050527453
48	0xbb9fae2a	-0.004873057
49	0xba800959	-0.0009768411
50	0xb9aea0c1	-0.00033307637
51	0x3bba25ca	0.0056807743
52	0xbc12ff92	-0.0089720655
53	0x3b0a1aa8	0.0021073017
54	0x3aaf3d50	0.0013369713
55	0x3a42c187	0.00074293505
56	0x3b96c36c	0.004600933
57	0x3b2aa420	0.0026037768
58	0x3a90ebf6	0.001105665
59	0xba92e833	-0.0011208117
60	0x3bcdd2ba	0.006281224
61	0x3c0c4d60	0.0085633695
62	0xbc1c3714	-0.009534616
63	0xbbd48cde	-0.0064865192

feature_extract.mlps.0.batch_norms.0.running_mean f4 [64]
0	0x3f78ab36	0.9713625
1	0xbf0bb413	-0.54571646
2	0xbf60b574	-0.87776875
3	0x3f325797	0.696649
4	0xbd5c5e52	-0.05380089
5	0xbfa0d581	-1.2565156
6	0xbf273860	-0.65320396
7	0xbff33400	-1.9000244
8	0x3f2009f3	0.6251518
9	0xbf8cd525	-1.1002547
10	0x3fb2aa28	1.3958178
11	0xbf176df8	-0.59152174
12	0x3fcd0504	1.6017156
13	0x3deffefc	0.11718556
14	0x3ee87e05	0.45408645
15	0xbf07c371	-0.53032595
16	0xbf120bac	-0.5704906
17	0xbe3082d7	-0.17237411
18	0x3e2c63f1	0.16835
19	0x3e8b89ec	0.27253664
20	0x3ed08d41	0.40732768
21	0xbe9db633	-0.3080307
22	0xbed34c83	-0.4126931
23	0xbe81a856	-0.25323743
24	0x3f924659	1.1427718
25	0xbf09a0c1	-0.53760916
26	0xbf15e0fd	-0.5854643
27	0xbfa553d1	-1.2916204
28	0xbf35fbcd	-0.7108734
29	0xbf42368f	-0.758645
30	0xbc5a7d8f	-0.0133356
31	0x3f95eb5d	1.1712452
32	0xbee6a182	-0.45045096
33	0x3ef183ce	0.47170871
34	0x3f8fb234	1.1226258
35	0xbeb2d0a4	-0.34924805
36	0xbe36ab98	-0.17838895
37	0xbfac9a7d	-1.3484646
38	0xbe4f9530	-0.20271754
39	0x3f499606	0.7874454
40	0xbec925ec	-0.39286745
41	0x3ecc757c	0.39933383
42	0x3eea4972	0.4575916
43	0xbee7effd	-0.45300284
44	0x3f94b867	1.1618775
45	0x40080e97	2.1258905
46	0xbfa9271c	-1.321506
47	0xbe8ef608	-0.27922082
48	0xbf2702b5	-0.65238506
49	0x3f122c1c	0.57098556
50	0x3eec92c9	0.46205738
51	0x3efe7f0f	0.49706313
52	0xbeda275e	-0.4260816
53	0x3f5933e0	0.8484478
54	0x3fcdf435	1.6090151
55	0x3e75ed09	0.24016203
56	0xbfc7374b	-1.5563749
57	0xbf014bab	-0.50506085
58	0xbf8c56c9	-1.0963985
59	0xbe86d052	-0.2633081
60	0x3e3323bd	0.17494102
61	0x3fde9d66	1.7391784
62	0xbf5468dc	-0.829725
63	0xbf0377cd	-0.51354676

feature_extract.mlps.0.batch_norms.0.running_var f4 [64]
0	0x3e253efd	0.1613731
1	0x3d951c89	0.07280833
2	0x3e2e2e60	0.17009878
3	0x3e04ed70	0.129812
4	0x3d08980c	0.03334813
5	0x3deeb9cc	0.11656532
6	0x3d862170	0.065493464
7	0x3eab6a3f	0.33479497
8	0x3dad4538	0.08460468
9	0x3e04c4ba	0.1296567
10	0x3e8b51dc	0.2721089
11	0x3d80faaf	0.06297814
12	0x3ecfd009	0.40588406
13	0x3d8e72b5	0.069554724
14	0x3da1fa75	0.07909099
15	0x3e17ecd8	0.14836442
16	0x3eba71bd	0.364149
17	0x3e831db3	0.25608596
18	0x3d4627bf	0.04837775
19	0x3d35ab0a	0.04435257
20	0x3979e619	0.00023832209
21	0x3d5e28ff	0.054238316
22	0x3cd0cc30	0.02548799
23	0x3a1d21ac	0.0005994092
24	0x3e71fff2	0.23632792
25	0x3d5b42c3	0.053530466
26	0x3d25a832	0.040443607
27	0x3e6f1aad	0.2335002
28	0x3e2cadca	0.1686317
29	0x3d18a8bb	0.03727029
30	0x3d51d7aa	0.051231064
31	0x3d3863c5	0.045017023
32	0x3d8a843a	0.067635015
33	0x3e8f9508	0.2804339
34	0x3e335c02	0.17515567
35	0x3dae73aa	0.08518155
36	0x3b67f5e2	0.003539436
37	0x3e33e4fb	0.17567818
38	0x3e109fa5	0.141234
39	0x3ea759ac	0.32685602
40	0x3d8f0fac	0.06985411
41	0x3aa4b711	0.0012566765
42	0x3cd0adac	0.025473438
43	0x3dd902f6	0.10596268
44	0x3e072c0c	0.13200396
45	0x3ecbd069	0.39807442
46	0x3ecdee16	0.40220708
47	0x3e8ab7f5	0.27093473
48	0x3e972380	0.29519272
49	0x3d6bd5ce	0.057576947
50	0x3e807290	0.25087404
51	0x3e8fc67a	0.28081113
52	0x3c5eb9b1	0.013594077
53	0x3df0c5ce	0.11756478
54	0x3e96d0d1	0.2945619
55	0x3ea75270	0.32680082
56	0x3e591ab1	0.21201588
57	0x3ccae24e	0.024766114
58	0x3cf0bfce	0.029388335
59	0x3d7bb71e	0.06145393
60	0x3ce243e3	0.027620262
61	0x3ee39550	0.44449854
62	0x3e651f32	0.22375181
63	0x3d18c945	0.03730132

feature_extract.mlps.1.linears.0.weight f4 [64, 64]
0	0x3dd4aede	0.10384916
1	0x3d8f4e44	0.0699735
2	0x3dbff51a	0.09372921
3	0x3e013637	0.12618338
4	0xbbc517ae	-0.0060147857
5	0xbd3d08d7	-0.04615101
6	0xbd5c2af3	-0.053751897
7	0x3c1468cd	0.00905819
8	0x3d2be5b7	0.04196712
9	0xbd21ed67	-0.039533045
10	0x3da09195	0.078402676
11	0xbe06788b	-0.13131921
12	0xbdde0e8a	-0.10842617
13	0xbd3fa73f	-0.046790358
14	0xbc310d08	-0.01080633
15	0xba39cf5a	-0.0007088088
16	0xbcf9b3a6	-0.03048117
17	0xbcf8bc55	-0.030363241
18	0xbd9ee26c	-0.0775803
19	0x3d0679db	0.032831054
20	0x3d6279ea	0.055292048
21	0x3d0352da	0.032061435
22	0xbd098048	-0.033569604
23	0xbd0d19d5	-0.034448463
24	0x3d984d6d	0.07436643
25	0xbbcea0b2	-0.0063057775
26	0x3bccecad	0.0062538
27	0x3b4111e2	0.0029460122
28	0xbd51752e	-0.051137142
29	0x3d0ed18d	0.034867812
30	0x3df357a6	0.11881952
31	0x3d4c9768	0.04994908
32	0xbd3ef3b8	-0.046619147
33	0x3cdece7c	0.027198069
34	0xbd95a9e1	-0.073077925
35	0x3db92c20	0.09041619
36	0xbd11f43c	-0.03563331
37	0x3d9f4df4	0.0777854
38	0xbdf42761	-0.119215734
39	0x3dda9e4a	0.106747225
40	0x3dcda335	0.10040895
41	0x3d839ecf	0.06426775
42	0x3db959e3	0.09050348
43	0x3d5ad15a	0.05342231
44	0x3daf1b42	0.08550121
45	0x3d8e1378	0.06937307
46	0xbd59f2b2	-0.053209968
47	0xbdea76b2	-0.114484206
48	0x3d92b11a	0.07162686
49	0xbde3f90d	-0.11131487
50	0x3d10054c	0.0351613
51	0xbd941eec	-0.072324604
52	0x3d40813c	0.046998248
53	0xbc189653	-0.009313184
54	0x3d9aa167	0.07550316
55	0x3d748670	0.059698522
56	0x3bc72d99	0.0060784337
57	0xbd919a86	-0.07109551
58	0x3d97c33f	0.07410287
59	0xbcfd207c	-0.030899279
60	0x3d9bacc5	0.076013125
61	0x3d914218	0.070926845
62	0xbd2bcf6d	-0.041945864
63	0x3d527a42	0.051386125
64	0xbb96e755	-0.0046052136
65	0xbded6403	-0.11591341
66	0xbdb58306	-0.08862881
67	0x3d988f4c	0.07449207
68	0xbd5fbc50	-0.05462295
69	0x3dd8d857	0.105881386
70	0xbdc44e33	-0.09585228
71	0x3df241e2	0.118289724
72	0xbd7ffacc	-0.062495038
73	0x3daa5f73	0.08318987
74	0xbdfe6433	-0.12421455
75	0x3de35b9d	0.11101458
76	0x3d0602fc	0.03271769
77	0xbd7f2bb9	-0.062297557
78	0x3d805993	0.06267085
79	0xbdb82e0e	-0.08993159
80	0x3d91285f	0.07087778
81	0xbcbbc69f	-0.022921858
82	0xbd1496da	-0.036276676
83	0x3d5561f9	0.052095387
84	0xbd33f7c1	-0.04393745
85	0x3d5b1341	0.05348516
86	0xbbb0e900	-0.0053988695
87	0xbd827a1f	-0.06370949
88	0xbde087dd	-0.10963414
89	0x3dd910c5	0.10598902
90	0xbd677fdd	-0.056518424
91	0x3d9690c5	0.07351831
92	0x3cea87ad	0.028629148
93	0xbda1b5a6	-0.07895975
94	0x3dcdce5d	0.10049126
95	0xbd49d569	-0.04927579
96	0xbc167183	-0.009182337
97	0x3d04b944	0.032403246
98	0xbdf82924	-0.12117222
99	0xba0a441e	-0.00052744325
100	0xbd4a91ad	-0.049455334
101	0x3a238f6d	0.00062393286
102	0xbd0f6bea	-0.035015024
103	0xbdebde4e	-0.11517011
104	0xbd61a5c6	-0.055089734
105	0xbbc0e093	-0.0058861463
106	0xbc6b6f7f	-0.014369844
107	0xbce1edcd	-0.027579213
108	0x3ab9c650	0.0014173482
109	0x3ce9c9a3	0.02853853
110	0xbd617260	-0.055040717
111	0xbd35d151	-0.044389073
112	0x3dd9d2c1	0.10635901
113	0x3d8dc367	0.06922036
114	0x3da7dce2	0.08196427
115	0x3da52bb1	0.08064974
116	0x3db1c029	0.0867923
117	0x3df8e0fd	0.12152288
118	0xbd519d1b	-0.051175218
119	0x3d75c524	0.06000246
120	0xbd5e3883	-0.054253113
121	0xbd950913	-0.072771214
122	0xbdd26919	-0.10273952
123	0xbdd9c788	-0.10633761
124	0x3d714d13	0.058911394
125	0x3d08a9bb	0.033364993
126	0x3d3847e4	0.044990435
127	0xbd993e18	-0.074825466
128	0xbd6476a1	-0.055777196
129	0x3ddaa595	0.106761135
130	0xbdad2d4a	-0.08455904
131	0x3dc5c37b	0.096564256
132	0xbd363962	-0.04448832
133	0xbd99a955	-0.07503001
134	0xbce4a7dc	-0.027912073
135	0x3de191b3	0.11014118
136	0x3e0413e1	0.12898208
137	0xbdf09837	-0.11747783
138	0x3b055491	0.0020344595
139	0xbde8192e	-0.11332928
140	0xbd89419d	-0.06701968
141	0x3cc9b31d	0.02462154
142	0xbcc621ef	-0.024186103
143	0xbcc53f29	-0.024077969
144	0xbd5f28ac	-0.054482147
145	0xbd34ad3d	-0.044110525
146	0x3d136cf7	0.03599259
147	0xbd049bf4	-0.03237529
148	0xbd93b036	-0.07211344
149	0xbcb6ada9	-0.022299604
150	0x3df743f4	0.12073508
151	0x3ca1d403	0.019754415
152	0xbc79a1c5	-0.015236323
153	0xbd7c6b18	-0.06162557
154	0xbd245f18	-0.04012975
155	0xbc9c7809	-0.019100206
156	0x3df067d0	0.11738551
157	0xbde14a53	-0.11000504
158	0xbda90699	-0.082532115
159	0xbd8d49c7	-0.068988375
160	0x3c19cf9d	0.009387878
161	0x3db6333f	0.08896493
162	0xbcba90c0	-0.0227741
163	0xbcf626a5	-0.030047724
164	0xbe0600b9	-0.13086213
165	0x3d06957d	0.032857407
166	0x3cc3cb6b	0.023900708
167	0xbd49fd27	-0.04931369
168	0x3deb8724	0.115003854
169	0x3db1d003	0.08682253
170	0xbb70bbf8	-0.0036733132
171	0xbd7b8c8a	-0.061413325
172	0xbb409329	-0.002938459
173	0x3ccd357b	0.025049916
174	0xbcb86979	-0.02251123
175	0x3de7203e	0.112854466
176	0x3da662a2	0.081242815
177	0xbd970a72	-0.07375039
178	0xbd772eab	-0.06034724
179	0x3d8a2800	0.06745911
180	0x3c782006	0.015144354
181	0xbd1ad7dd	-0.03780352
182	0xbdb9c043	-0.09069874
183	0xbd2208e6	-0.039559267
184	0x3de5b9c6	0.11217074
185	0x3db1f016	0.08688371
186	0xbc7d3ba0	-0.01545611
187	0xbcccaebb	-0.024985662
188	0x3d1d8a79	0.038462136
189	0x3cf0a8d8	0.029377386
190	0x3d64590c	0.055748984
191	0x3dc8a310	0.09796727
192	0x3d8d3b8c	0.06896123
193	0xbd97c624	-0.07410839
194	0x3dbebd45	0.09313444
195	0x3ced491d	0.028965527
196	0xbda1ff6c	-0.07910046
197	0xbd39467c	-0.045233235
198	0x3d4e7513	0.05040462
199	0xbd4c48d9	-0.04987416
200	0xbdade289	-0.08490474
201	0xbda53a2f	-0.08067738
202	0x3dc0fa85	0.09422783
203	0xbdaff251	-0.0859114
204	0xbe0b8c19	-0.13627662
205	0x3db368b1	0.08760203
206	0xbda53540	-0.08066797
207	0x3dcac7f7	0.099014215
208	0xbe0918b1	-0.13388325
209	0x3c9f7e06	0.019469272
210	0xb9759c16	-0.00023423167
211	0x3ccffa76	0.025387984
212	0x3d30f4be	0.043202154
213	0xbe075be8	-0.13218653
214	0x3d3a0b9a	0.04542122
215	0x3b2d065a	0.002640149
216	0xbccb52db	-0.024819782
217	0x3db615ba	0.08890863
218	0xbd13685d	-0.0359882
219	0xbd577a72	-0.052607007
220	0xbdb15c82	-0.086602226
221	0xbddf2af5	-0.10896865
222	0xbdb24a77	-0.08705609
223	0x3cf47ea4	0.029845543
224	0x3cf3826b	0.029725274
225	0xbce583a5	-0.028016875
226	0xbdb55493	-0.08854022
227	0xbc28e536	-0.010308554
228	0xbcc54c76	-0.024084311
229	0x3bddbba4	0.0067667533
230	0x3d2c5b84	0.042079464
231	0xbd564013	-0.0523072
232	0xbcd08381	-0.025453331
233	0xbd9f5359	-0.07779569
234	0x3df90222	0.1215861
235	0x3d640100	0.055665016
236	0xbddc1a9d	-0.107472636
237	0x3d35ba6f	0.04436725
238	0x3d464011	0.048400942
239	0x3d53d1d8	0.051713794
240	0xbc24b868	-0.0100537315
241	0xbda39245	-0.07986883
242	0x3c9fcd0f	0.01950696
243	0xbd0fa62d	-0.035070587
244	0xbd571b7c	-0.052516446
245	0xbd29caa3	-0.041453015
246	0xbdb2584d	-0.08708248
247	0x3d30bf4a	0.043151177
248	0x3d63dede	0.055632465
249	0x3c87bb44	0.016568787
250	0x3db3746e	0.087624416
251	0xbd8727f3	-0.065994166
252	0xbdbee1e2	-0.093204275
253	0xbe0c6668	-0.1371094
254	0xbde29fc2	-0.11065628
255	0xbde7b004	-0.11312869

feature_extract.mlps.1.linears.0.bias f4 [64]
0	0xbd91a9b2	-0.07112445
1	0x3d425236	0.047441684
2	0xbc48c3a2	-0.012253674
3	0x3d0e0f25	0.03468241
4	0xbd4bfd7a	-0.04980228
5	0xbd9b8e94	-0.07595554
6	0xbd370b48	-0.044688493
7	0x3dc89198	0.09793395
8	0x3db4105c	0.08792183
9	0x3ce95b2e	0.02848586
10	0x3c2a1304	0.01038051
11	0xbc81220d	-0.015763307
12	0x3dbb89f7	0.09157174
13	0xbd3e5e7a	-0.04647682
14	0x3d28e8b2	0.04123754
15	0xbd1648d4	-0.036690548
16	0x3df44cd7	0.119287185
17	0x3c341dc5	0.010993426
18	0x3dcc80f0	0.099855304
19	0x3deb2196	0.114810154
20	0xbd6e0b9d	-0.058116544
21	0xbdbe2a1d	-0.09285376
22	0x3a57f2e5	0.0008237793
23	0x3cdd602d	0.0270234
24	0x3df4f659	0.119610496
25	0x3dda19cc	0.106494516
26	0xbda8da03	-0.082447074
27	0x3da0ae7a	0.07845779
28	0x3ca5492d	0.020176494
29	0xbd8f743e	-0.07004593
30	0xbdb7a2b4	-0.0896658
31	0x3db0ce14	0.08633056
32	0x3da0b9a1	0.07847906
33	0xbde291bd	-0.110629536
34	0xbd995758	-0.074873626
35	0x3d82ed0c	0.06392869
36	0x3d5e26fa	0.05423639
37	0x3d53177b	0.051536065
38	0xbd5a34ff	-0.053273197
39	0x3bc26c94	0.0059333537
40	0x3ac61c8f	0.0015114712
41	0xb9943207	-0.00028266033
42	0x3d106438	0.035251826
43	0xbc10a2a9	-0.008827844
44	0x3d9d75db	0.07688495
45	0xbdfd1ab9	-0.123586126
46	0x3dd04018	0.10168475
47	0x3de1eaca	0.110311106
48	0x3c786777	0.015161387
49	0x3d8e302d	0.069427826
50	0xbd67e5ae	-0.056615524
51	0x3de14f58	0.11001462
52	0x3c0bd7d7	0.008535347
53	0xbde6cce8	-0.112695515
54	0x3d735aaf	0.059412654
55	0x3dcf4ad8	0.10121697
56	0x3d1185ae	0.035527878
57	0x3d851c4a	0.06499536
58	0xbbcc4256	-0.006233494
59	0x3d50720d	0.050890017
60	0x3de04dc9	0.10952336
61	0xbdf16249	-0.117863245
62	0xbd9ba226	-0.07599287
63	0xbdeb1b68	-0.11479837

feature_extract.mlps.1.linears.1.weight f4 [64, 64]
0	0xbcfb0073	-0.030639863
1	0x3dca6e61	0.09884334
2	0x3d901672	0.07035531
3	0xbccfad93	-0.025351321
4	0xbdb78e02	-0.08962633
5	0xbdb67e58	-0.08910817
6	0x3de2f584	0.11081985
7	0x3da0821d	0.07837317
8	0x3d60b360	0.054858565
9	0x3bfa8fc8	0.0076465346
10	0xbe0027f7	-0.12515245
11	0xbdcc9aa8	-0.09990436
12	0xbdaedcb4	-0.085381895
13	0x3dba1fd5	0.09088103
14	0xbd3d579b	-0.046226125
15	0x3dc9ca6d	0.09853063
16	0x3dd27fba	0.10278268
17	0x3dc95b4a	0.09831865
18	0xbc6f2d99	-0.014598274
19	0xba821815	-0.000992539
20	0x3dd39611	0.10331357
21	0xbdebdbcb	-0.115165316
22	0x3d5b8a63	0.053598773
23	0x3dbb3e13	0.09142699
24	0xbc3412f0	-0.010990843
25	0xbd6233b5	-0.055225093
26	0xbdbc1a67	-0.09184723
27	0xbd17acb8	-0.03702995
28	0x3d08f7d7	0.033439483
29	0xbd854d56	-0.06508891
30	0x3d6a5419	0.057209108
31	0xbd229767	-0.03969517
32	0x3d889559	0.06669111
33	0x3d105235	0.03523465
34	0xbde0bb33	-0.109732054
35	0xbdb93abb	-0.09044405
36	0xbdb5b942	-0.08873226
37	0x3de8855e	0.11353563
38	0xbdb4c0de	-0.08825849
39	0x3d6e36b8	0.058157653
40	0xbdd68851	-0.10475219
41	0x3d381117	0.044938173
42	0xbd0d2a5b	-0.03446422
43	0xbd5aebab	-0.053447407
44	0x3dcf3030	0.10116613
45	0xbde1b631	-0.110210784
46	0x3dc8f7cc	0.098128885
47	0x3d24c348	0.040225297
48	0x3b204ce3	0.002445989
49	0xbd577ce1	-0.05260933
50	0xbce5f525	-0.028070996
51	0x3d75e5de	0.06003367
52	0x3d86e3f1	0.06586445
53	0x3dd7ae95	0.10531346
54	0xbc4d4aa5	-0.012530004
55	0x3c1c6b10	0.00954701
56	0xbd30eace	-0.043192677
57	0xbdd0aa10	-0.10188687
58	0x3d55a1f4	0.052156404
59	0xbde50f09	-0.11184508
60	0x3d9c2206	0.07623677
61	0xbab45d03	-0.001376063
62	0xba988be2	-0.0011638368
63	0x3d825f23	0.06365802
64	0x3a92cf4e	0.0011200698
65	0x3d9fe6ca	0.078076914
66	0x3dc4703c	0.095917195
67	0xbd884045	-0.066528834
68	0xbde5e64a	-0.11225565
69	0xbdf428b4	-0.11921826
70	0x3dee8ecc	0.1164833
71	0x3e0d32b1	0.13788868
72	0xbc4289ec	-0.011873703
73	0x3d080a77	0.033213105
74	0x3d62c0ac	0.055359527
75	0xbddfa447	-0.10920005
76	0x3cad9989	0.021191375
77	0xbcd5fa56	-0.026120346
78	0xbdc8fd0b	-0.09813889
79	0x3c01d115	0.007923384
80	0x3d80f83e	0.062973484
81	0xbdc2e534	-0.09516373
82	0x3d15ad47	0.036542203
83	0xbd8308eb	-0.06398185
84	0xbd77dd39	-0.06051371
85	0xbd0ed1f1	-0.034868184
86	0x3d93d75e	0.072188124
87	0xbdd441f8	-0.10364145
88	0xbd29426a	-0.041323103
89	0x3d644efc	0.055739388
90	0x3c413f71	0.011794911
91	0x3d0b4a17	0.034006204
92	0x3dd8f357	0.105932884
93	0xbd1726b0	-0.03690213
94	0x3d4b4c28	0.049633175
95	0xbd4a62c9	-0.049410615
96	0xbbc6cf02	-0.0060671577
97	0xbbc42c2a	-0.00598671
98	0xbc08dd2f	-0.0083535155
99	0xbdd9226d	-0.10602269
100	0x3dacfa45	0.084461726
101	0x3d5cf8b0	0.053948104
102	0x3d7e4ec9	0.062086854
103	0x3d9449ea	0.072406605
104	0xbd1d9123	-0.03846849
105	0xbc321efb	-0.010871644
106	0xbdae0115	-0.084963
107	0x3d80d0d4	0.06289831
108	0xbc841e3c	-0.016127698
109	0x3dec2322	0.115301386
110	0xbd5ecec9	-0.054396424
111	0x3e08fb38	0.13377082
112	0x3de99a06	0.11406331
113	0xbd6fdfc3	-0.058563005
114	0x3d8d72c8	0.069066584
115	0x3d945ecc	0.072446436
116	0xbe0aeca1	-0.1356683
117	0x3dbd4e91	0.09243501
118	0x3d0fdc2a	0.035122074
119	0xbdfb5b89	-0.12273318
120	0xbd089cf6	-0.033352815
121	0xbdd78bd9	-0.10524721
122	0xbd1f036c	-0.038821623
123	0xbd854a9e	-0.06508373
124	0xbda062ba	-0.078313306
125	0xbd5a47fb	-0.053291302
126	0xbd030f65	-0.031997103
127	0xbd3260a9	-0.043549214
128	0xbcc425b8	-0.023943767
129	0x3da5c7bc	0.08094737
130	0x3d8a4ad7	0.06752556
131	0xbd1866ab	-0.037207287
132	0xbd51481a	-0.051094152
133	0x3de5c70f	0.11219608
134	0x3de6336f	0.11240279
135	0xbcd190f4	-0.025581814
136	0x3c82640d	0.015916849
137	0x3d8fc297	0.07019537
138	0x3d483785	0.048881073
139	0x3d1fee2c	0.039045498
140	0x3dbd62ec	0.092473835
141	0x3d10c8f8	0.03534791
142	0xbd08b609	-0.033376727
143	0xbdcb3860	-0.09922862
144	0x3d809764	0.062788755
145	0xbcf6d5f8	-0.030131325
146	0xbd9b1451	-0.075722344
147	0x3d5aefc2	0.053451307
148	0xbde7ec6f	-0.11324393
149	0x3da713c0	0.08158064
150	0x3c115407	0.008870131
151	0x3e018053	0.12646608
152	0xbda4f5b5	-0.080546774
153	0x3dcce4da	0.100045875
154	0xbc6485ac	-0.0139478855
155	0xbddac332	-0.10681762
156	0x3a8f0132	0.001091039
157	0xbc93cf82	-0.018043283
158	0x3d66a7b7	0.05631229
159	0x3a995ee9	0.0011701259
160	0x3c0c2f87	0.008556253
161	0xbdec8649	-0.1154905
162	0xbdc02596	-0.09382169
163	0xbdbd462c	-0.092419
164	0xbd593233	-0.05302639
165	0xbd96f5e0	-0.07371116
166	0xbca254aa	-0.019815762
167	0x3d5726ed	0.052527357
168	0x3d476e7c	0.04868935
169	0xbc954582	-0.01822162
170	0xbe0e3e67	-0.13890992
171	0x3de95519	0.11393184
172	0x3da4beb3	0.080441855
173	0xbdef8aa5	-0.11696366
174	0x3dad215f	0.08453631
175	0x3dd63453	0.10459199
176	0x3dd37d14	0.10326591
177	0xbc283162	-0.01026568
178	0xbdf06e7c	-0.11739823
179	0xbc99aaa4	-0.018758126
180	0xbddf7f5d	-0.109129645
181	0x3dbd66b9	0.092481084
182	0x3d90e55c	0.07074997
183	0x3c3c80c2	0.011505308
184	0x3c73b284	0.014874104
185	0xbd573d9f	-0.052549
186	0xbd3c41de	-0.045961253
187	0x3d6a0fd1	0.05714399
188	0x3dba3b97	0.09093397
189	0x3d2e46ee	0.042548113
190	0xbc81a5ee	-0.015826192
191	0x3befb07e	0.0073147407
192	0xbc104286	-0.008804923
193	0xbc9a10e5	-0.018806884
194	0xbc2dc2cc	-0.010605525
195	0x3cda6df7	0.026663763
196	0x3c5fa511	0.013650195
197	0x3df39c1c	0.1189501
198	0xbdd5d61c	-0.10441229
199	0xbd3622a3	-0.044466626
200	0x3ccda3bb	0.025102487
201	0x3dc069b2	0.0939516
202	0x3de8fa83	0.11375906
203	0x3d93dc5c	0.072197646
204	0xbc0eb5d3	-0.008710342
205	0x3d81eea7	0.063443474
206	0xbdaf5c84	-0.08562568
207	0x3b3d60be	0.0028896774
208	0xbd1a831d	-0.037722696
209	0x3d76cc6b	0.060253542
210	0xbd99645f	-0.074898474
211	0x3ddfef46	0.1093431
212	0x3ca58efc	0.020209782
213	0xbdfed91d	-0.12443755
214	0x3deb1df4	0.114803225
215	0x3b507a64	0.0031811232
216	0xbe11c91a	-0.1423687
217	0x3e0088ee	0.12552235
218	0xbd555a5e	-0.052088134
219	0xbbf9b475	-0.007620389
220	0x3dff30e7	0.12460499
221	0xbd352edf	-0.044234153
222	0xbdb70dbe	-0.08938168
223	0x3e054c3b	0.13017361
224	0xbdc084bb	-0.09400316
225	0x3debb38d	0.11508856
226	0x3dd8d2ef	0.105871074
227	0x3d831ab0	0.064015746
228	0x3d6ee082	0.058319576
229	0x3cac95c9	0.021067517
230	0xbe07ad91	-0.13249804
231	0xbdac17ed	-0.08403001
232	0x3dac2857	0.08406132
233	0x3ddbcf50	0.10732901
234	0x3d850cd0	0.064965844
235	0xbded4f1f	-0.11587357
236	0x3d5ac3be	0.05340933
237	0xbc94bea3	-0.018157309
238	0xbc4930b6	-0.01227968
239	0xbdf7632d	-0.12079463
240	0xbdb9782d	-0.09056125
241	0xbe098739	-0.1343049
242	0x3cdb2d5c	0.026755027
243	0x3e032361	0.12806465
244	0xbd92681b	-0.07148763
245	0xbd4c661a	-0.04990206
246	0xbdc4592a	-0.09587319
247	0xbde056bb	-0.109540425
248	0x3dbe833f	0.09302377
249	0x3d92d49d	0.07169459
250	0xbc66610b	-0.014061223
251	0x3ccbafca	0.024864096
252	0x3d932c30	0.071861625
253	0xbc8d15a4	-0.017222233
254	0xbdc4505d	-0.095856406
255	0x3cb9030a	0.022584457

feature_extract.mlps.1.linears.1.bias f4 [64]
0	0x3d9a4562	0.07532765
1	0xbd0add17	-0.033902254
2	0xbdbc551e	-0.09195922
3	0x3d258d6b	0.04041807
4	0x3ce2fac3	0.027707463
5	0x3d1f8f4b	0.038955014
6	0xbcaef94e	-0.021359112
7	0xbd8aedbc	-0.067836255
8	0x3cedf352	0.029046688
9	0x3d9c33d1	0.07627071
10	0x3dfc8613	0.1233026
11	0xbdb83ed0	-0.089963555
12	0xbd124d08	-0.035717994
13	0x3dcae50e	0.0990697
14	0xbda7f3ae	-0.08200775
15	0x3dd18108	0.10229689
16	0x3d10396c	0.03521101
17	0x3d9177cc	0.071029276
18	0xbd211a9b	-0.039332014
19	0x3dd3351d	0.10312865
20	0xbdf74324	-0.12073353
21	0x3daa43fb	0.083137475
22	0x3c0005ee	0.007813914
23	0x3d102801	0.0351944
24	0x3d858580	0.06519604
25	0xbdfe42fc	-0.1241512
26	0x3bbd5594	0.005778024
27	0x3b21f9b5	0.0024715487
28	0x3d14c4ff	0.036320683
29	0xbc9bfb98	-0.019040868
30	0x3c8b3030	0.016990751
31	0xbbbc6eec	-0.0057505276
32	0xbde5b6d3	-0.112165116
33	0xbd7d6003	-0.061859142
34	0x3db5e8b9	0.08882279
35	0xbdd150bb	-0.10220476
36	0xbd3dd590	-0.046346247
37	0xbdc4176c	-0.0957478
38	0xbb910301	-0.004425407
39	0x3d54b130	0.05192679
40	0xbc570d59	-0.013125741
41	0x3d82c8fc	0.06385991
42	0xbdaafaaf	-0.08348595
43	0xbda9ac24	-0.08284786
44	0xbddc0a31	-0.10744131
45	0x3d6c8498	0.05774364
46	0x3ca1d92b	0.019756874
47	0xbda87121	-0.082247026
48	0xbdf020e5	-0.11725024
49	0xbd217bc7	-0.039424684
50	0xbb944559	-0.0045248684
51	0x3dac75ef	0.084209315
52	0xbda6deec	-0.08147988
53	0x3da6e09f	0.08148312
54	0x3d468609	0.04846767
55	0xbde3bf8c	-0.11120519
56	0x3d41fbf7	0.047359433
57	0x3da4a0b7	0.080384664
58	0xbd9250f4	-0.07144347
59	0x3db5bdec	0.08874115
60	0x3de5ad81	0.11214734
61	0xbdb858be	-0.09001301
62	0x3db7bb64	0.08971289
63	0x3da3efd7	0.0800473

feature_extract.mlps.1.batch_norms.0.weight f4 [64]
0	0x3f7c3fd3	0.9853489
1	0x3f7f6a61	0.99771696
2	0x3f80972a	1.0046132
3	0x3f7cf19f	0.98806185
4	0x3f7c36dc	0.9852121
5	0x3f7e1098	0.9924407
6	0x3f81f9dc	1.0154376
7	0x3f7f2f06	0.9968113
8	0x3f7d89b2	0.9903823
9	0x3f814a91	1.0100881
10	0x3f8143e2	1.0098841
11	0x3f805e1f	1.0028723
12	0x3f7a71d6	0.9782995
13	0x3f7fb1c1	0.99880606
14	0x3f7ef7a1	0.995966
15	0x3f809d65	1.0048033
16	0x3f808427	1.004033
17	0x3f7d6e84	0.9899676
18	0x3f7eafbf	0.9948692
19	0x3f799ed1	0.9750796
20	0x3f830dd1	1.0238591
21	0x3f80552f	1.0025996
22	0x3f8121e5	1.0088469
23	0x3f7dad8a	0.99092925
24	0x3f83116f	1.0239695
25	0x3f7f613f	0.9975776
26	0x3f7bddfd	0.983856
27	0x3f7ca204	0.98684716
28	0x3f80ee82	1.0072787
29	0x3f80095d	1.0002857
30	0x3f7e84c6	0.99421346
31	0x3f7cd02d	0.9875515
32	0x3f80978c	1.0046248
33	0x3f7fa4db	0.99860924
34	0x3f80ab86	1.0052345
35	0x3f7f41f4	0.9971001
36	0x3f7f98c1	0.9984246
37	0x3f816f6a	1.0112126
38	0x3f7fae01	0.99874884
39	0x3f8032aa	1.0015461
40	0x3f7f28b3	0.9967148
41	0x3f7e2f15	0.9929059
42	0x3f7e31dc	0.9929483
43	0x3f775265	0.966101
44	0x3f7b8d76	0.9826273
45	0x3f83cc8d	1.0296799
46	0x3f80e751	1.0070592
47	0x3f8042a2	1.0020335
48	0x3f7fbf3b	0.9990117
49	0x3f814b05	1.0101019
50	0x3f81599a	1.0105469
51	0x3f8125d2	1.0089667
52	0x3f813472	1.009413
53	0x3f807412	1.0035422
54	0x3f810c71	1.0081922
55	0x3f7f5c68	0.99750376
56	0x3f7cf26e	0.9880742
57	0x3f7c6618	0.9859328
58	0x3f7ea136	0.9946474
59	0x3f8051c3	1.0024952
60	0x3f7e54e9	0.9934831
61	0x3f7d0205	0.98831207
62	0x3f8248e5	1.0178496
63	0x3f81af47	1.0131615

feature_extract.mlps.1.batch_norms.0.bias f4 [64]
0	0x3aa0a962	0.0012257511
1	0xbbe10145	-0.0068666064
2	0x3c1a1b44	0.009405915
3	0x3b0c121e	0.0021373103
4	0xba795e91	-0.00095126877
5	0xbc10fd67	-0.008849478
6	0xbb0de89f	-0.0021653546
7	0x3867fafa	5.5308432e-05
8	0x3b9d95fe	0.00480914
9	0x3bb935a2	0.0056521455
10	0x3ba5c2dd	0.00505863
11	0x3aa8512b	0.0012841573
12	0xbbb81f6e	-0.005618981
13	0xbafea75f	-0.0019428543
14	0xbbee453c	-0.007271437
15	0xb8a23b95	-7.73586e-05
16	0x3b5d4b52	0.0033766818
17	0xbbc61349	-0.0060447794
18	0xbb0a36a0	-0.0021089688
19	0xbcbe5917	-0.02323584
20	0x380be70f	3.3355373e-05
21	0xbbcb91c4	-0.006212445
22	0x3b5af7fc	0.003341197
23	0xbb440b76	-0.0029914058
24	0xbac2e477	-0.0014869113
25	0xbc0b75f8	-0.008512013
26	0xbc2d7f84	-0.010589484
27	0xbc3833c9	-0.011242815
28	0x3ab8b8af	0.0014093126
29	0x3bae871a	0.005326164
30	0x39658da3	0.00021891906
31	0xbc5cf47d	-0.013486025
32	0x3a8e7d64	0.001087111
33	0x3b4f65ca	0.0031646364
34	0xbc0c31ed	-0.008556825
35	0xbbfe0ac1	-0.007752747
36	0xbb268c6e	-0.0025413292
37	0x3c1bd260	0.0095106065
38	0xbb66ec82	-0.0035236184
39	0xba019d7d	-0.0004944427
40	0x3baa6e35	0.005201126
41	0xbb40bb06	-0.002940835
42	0xbb2db657	-0.0026506388
43	0xbc5e114a	-0.013553927
44	0xbc5a2ef6	-0.01331686
45	0xb9b28992	-0.00034053304
46	0x3be16375	0.0068783113
47	0x3c83bdb1	0.016081663
48	0xba85964f	-0.001019189
49	0xbc83cf12	-0.01608995
50	0x3c5092a9	0.012730279
51	0x3bbddb3d	0.0057939575
52	0x3bbebd54	0.0058209095
53	0x3c3d12f3	0.011540162
54	0x3c0806bc	0.008302387
55	0x3a369564	0.000696501
56	0xbc444e2e	-0.01198153
57	0xbc189682	-0.009313228
58	0xbb32ff9f	-0.0027313007
59	0x3b456a9b	0.0030123356
60	0xbb2c7cda	-0.0026319535
61	0xbbbbb776	-0.0057286574
62	0xbb0cf93a	-0.0021510855
63	0xbb63e26c	-0.003477241

feature_extract.mlps.1.batch_norms.0.running_mean f4 [64]
0	0x3f2c14b5	0.67219096
1	0xbe7488d1	-0.23880316
2	0x3defa6b6	0.117017195
3	0xbf9ac4bf	-1.2091292
4	0xbdd03cdd	-0.10167859
5	0xbe5547b4	-0.20828134
6	0xbdf5533c	-0.11978766
7	0xbef80adf	-0.48445794
8	0x3f2ae784	0.66759515
9	0xbe340012	-0.17578152
10	0xbf1f272f	-0.62169164
11	0xbf3b64e9	-0.7320085
12	0x3e08edd8	0.1337198
13	0x3e33e2e9	0.17567028
14	0x3f3da58d	0.74080735
15	0x3f881dab	1.0634054
16	0x3ec9568b	0.3932384
17	0xbea6e4dd	-0.32596484
18	0x3f1ea977	0.6197733
19	0xbe86e855	-0.2634913
20	0x3f131e0a	0.5746771
21	0xbe41b414	-0.1891635
22	0xbf3cd26b	-0.7375857
23	0xbfa3bf17	-1.2792691
24	0xbda20436	-0.079109594
25	0xbe5120ca	-0.20422664
26	0xbf049be5	-0.51800376
27	0x3f0b3b1a	0.54387057
28	0xbf31007b	-0.6914136
29	0xbe690748	-0.22756684
30	0xbf018a59	-0.50601727
31	0x3cc88224	0.024476118
32	0xbf2df591	-0.6795283
33	0xbf55eb08	-0.83561754
34	0xbe018a05	-0.12650307
35	0x3ee62a34	0.44954073
36	0x3d15641a	0.036472417
37	0xbf21d02c	-0.6320827
38	0x3f50c449	0.8154951
39	0xbede03a6	-0.4336216
40	0x3d909515	0.07059685
41	0x3f4508f9	0.76966816
42	0x3d5eb4b7	0.05437156
43	0x3d0a7ac5	0.03380849
44	0xbe62768f	-0.22115539
45	0xbe9fe6d2	-0.3123079
46	0xbf40b179	-0.752708
47	0x3e16ce06	0.14727029
48	0xbecad46e	-0.39615196
49	0x3e9d7d7e	0.30759805
50	0xbf2dc7f1	-0.6788321
51	0xbe2d387b	-0.16916077
52	0x3f0830eb	0.5319964
53	0xbea4f00a	-0.32214385
54	0x3e9166c0	0.28398705
55	0x3eedd07f	0.46448132
56	0x3f086344	0.5327647
57	0xbd653271	-0.055956308
58	0x3f06eab6	0.5270189
59	0xbf81ea22	-1.0149577
60	0x3ef2e3e0	0.4743948
61	0xbdcc0b6b	-0.09963115
62	0x3d31dcb4	0.04342337
63	0xbdaaf872	-0.083481684

feature_extract.mlps.1.batch_norms.0.running_var f4 [64]
0	0x3ea385cd	0.3193802
1	0x3e39f824	0.18161064
2	0x3f07abfa	0.5299679
3	0x3f93ab75	1.15367
4	0x3ee5d195	0.4488646
5	0x3e0741d5	0.13208707
6	0x3e29eee3	0.16595034
7	0x3e7f07a9	0.24905266
8	0x3e874f34	0.26427615
9	0x3dd3063d	0.10303924
10	0x3e8a04a4	0.26956666
11	0x3ee9b029	0.45642212
12	0x3d9cd2f1	0.076574214
13	0x3e0f83b1	0.1401508
14	0x3ee3743a	0.4442461
15	0x3e94df6b	0.29076704
16	0x3f1aa255	0.6040395
17	0x3f781526	0.9690727
18	0x3e302b0d	0.17203923
19	0x3f0c5a2e	0.54825103
20	0x3f707ffc	0.9394529
21	0x3f05c8cd	0.5225952
22	0x3dbf1ede	0.09332059
23	0x3f051956	0.51991785
24	0x3e60bfcd	0.21948166
25	0x3e37b413	0.17939787
26	0x3f31a302	0.69389355
27	0x3f113523	0.56721705
28	0x3f8fe9ba	1.1243203
29	0x3f3406b3	0.7032272
30	0x3e2dacb1	0.16960408
31	0x3ed71002	0.420044
32	0x3e27bb34	0.16380006
33	0x3f40087d	0.7501295
34	0x3e39b638	0.18135917
35	0x3efd2f33	0.49450073
36	0x3ea3ce47	0.31993315
37	0x3e8c77f0	0.27435255
38	0x3f0bf107	0.54664654
39	0x3eca44d5	0.3950564
40	0x3edac4a4	0.4272815
41	0x3ec4aab8	0.38411498
42	0x3e91dc25	0.2848827
43	0x3ea21443	0.31656083
44	0x3e9a01a1	0.30079368
45	0x3e08fc91	0.13377596
46	0x3e0a1889	0.13485922
47	0x3e651bcc	0.22373885
48	0x3e7866d7	0.2425798
49	0x3d796800	0.060890198
50	0x3ec36126	0.38160056
51	0x3eb566bb	0.3542994
52	0x3eca0d80	0.39463425
53	0x3ea1194c	0.31464612
54	0x3d896e67	0.06710511
55	0x3e8dd34e	0.27700275
56	0x3e715323	0.2356687
57	0x3e297a70	0.16550612
58	0x3e32a8d5	0.17447217
59	0x3ec7c177	0.3901479
60	0x3dee0b01	0.116231926
61	0x3f11cc4e	0.5695237
62	0x3eac5120	0.33655643
63	0x3e0d9a66	0.1382843

feature_extract.batch_norms.0.weight f4 [64]
0	0x3f7e3c12	0.9931041
1	0x3f7ffb75	0.9999307
2	0x3f809f2f	1.0048579
3	0x3f7ff9cc	0.99990535
4	0x3f800ede	1.0004537
5	0x3f80444f	1.0020846
6	0x3f7f42c3	0.99711245
7	0x3f7d35b1	0.9891005
8	0x3f8084b6	1.00405
9	0x3f820c14	1.0159936
10	0x3f7deaf1	0.9918662
11	0x3f8067c9	1.0031673
12	0x3f7dc9d6	0.991361
13	0x3f7c5e15	0.9858106
14	0x3f7fc2e6	0.99906766
15	0x3f807626	1.0036056
16	0x3f8141b2	1.0098174
17	0x3f805f07	1.0029
18	0x3f808f75	1.004378
19	0x3f802543	1.0011371
20	0x3f80bb96	1.0057247
21	0x3f80d3b3	1.0064605
22	0x3f80742c	1.0035453
23	0x3f804665	1.0021483
24	0x3f7f5484	0.99738336
25	0x3f7cc63e	0.98739994
26	0x3f807281	1.0034944
27	0x3f7c9a0d	0.9867256
28	0x3f80bf77	1.005843
29	0x3f7d3350	0.9890642
30	0x3f7ecde4	0.99532914
31	0x3f7e7834	0.99402165
32	0x3f809a7f	1.0047148
33	0x3f80d2cc	1.006433
34	0x3f8039bd	1.001762
35	0x3f7e979e	0.994501
36	0x3f7f6e6f	0.99777883
37	0x3f80f41f	1.00745
38	0x3f7fe0fa	0.9995266
39	0x3f7ff611	0.9998484
40	0x3f7e528e	0.9934472
41	0x3f7cc4db	0.9873788
42	0x3f80e49f	1.006977
43	0x3f7f3e01	0.99703985
44	0x3f8245c5	1.0177542
45	0x3f80956a	1.0045598
46	0x3f808b76	1.004256
47	0x3f829d9c	1.0204349
48	0x3f7df13b	0.99196213
49	0x3f7e69d3	0.99380225
50	0x3f7f7380	0.99785614
51	0x3f7ec6e9	0.9952226
52	0x3f804c9f	1.0023383
53	0x3f80e129	1.0068713
54	0x3f7d855d	0.9903162
55	0x3f7d06b3	0.9883835
56	0x3f7fd7df	0.9993877
57	0x3f80e2eb	1.006925
58	0x3f80442a	1.0020802
59	0x3f809af0	1.0047283
60	0x3f7fd989	0.9994131
61	0x3f7f1940	0.99647903
62	0x3f80e680	1.0070343
63	0x3f8030e1	1.0014917

feature_extract.batch_norms.0.bias f4 [64]
0	0x3b5948a4	0.003315487
1	0x3aae32da	0.0013290301
2	0xbb8d7427	-0.004316825
3	0xba444d26	-0.00074883027
4	0x39e009eb	0.00042732
5	0x3b027aad	0.0019909546
6	0x3bcb75e3	0.0062091216
7	0xbbed368b	-0.007239168
8	0x3ba5f865	0.0050650113
9	0x3bef3c65	0.0073009008
10	0xbbd6e287	-0.006557766
11	0xbba25510	-0.004953988
12	0xbbf87543	-0.007582338
13	0xbb64a3ef	-0.003488775
14	0x3a405886	0.000733741
15	0x3c55d015	0.013050099
16	0x3c38f545	0.011288946
17	0x3beb9008	0.0071888007
18	0x3b72bbf4	0.0037038298
19	0xb832f117	-4.266304e-05
20	0x3c39b15e	0.011333792
21	0xba176d6f	-0.00057765
22	0xbc438e2e	-0.011935754
23	0xba62be93	-0.00086496136
24	0x39e10712	0.00042920612
25	0xbc20785f	-0.009794324
26	0x3c56e605	0.013116364
27	0xbb29fb02	-0.0025936966
28	0x3b3e8677	0.0029071847
29	0xbb9af2fd	-0.0047286735
30	0x3a0b6bb3	0.00053184776
31	0x3b50cd99	0.0031860827
32	0xbb1d6a57	-0.0024019682
33	0x3bf527ff	0.0074815745
34	0x3afc65be	0.0019256396
35	0xbb36aa57	-0.0027872527
36	0xbb758eda	-0.003746918
37	0x3c973624	0.018458433
38	0xbc028574	-0.007966388
39	0x3adcc55b	0.0016843484
40	0xbbe6da2d	-0.0070450515
41	0xbc7209f3	-0.01477288
42	0x3bb2d6f9	0.0054577556
43	0x3b816f6d	0.0039500506
44	0x3c76b621	0.015058071
45	0xbbbc13e5	-0.0057396763
46	0x3b2b6796	0.0026154271
47	0x3cab4a79	0.020909535
48	0xbc8a72f2	-0.016900513
49	0xbc17e52e	-0.009270949
50	0x3bbd7fd0	0.0057830587
51	0xbaf37d55	-0.001857678
52	0x3bd1be1d	0.006400837
53	0x3a95228f	0.0011378097
54	0xbc29986d	-0.010351283
55	0xbc84ce7b	-0.016211739
56	0x3b830d48	0.003999386
57	0xbbfefd4c	-0.00778166
58	0x3a520863	0.0008012114
59	0x3bab2c70	0.005223803
60	0x3b389c3b	0.0028169292
61	0x3999cb68	0.00029333984
62	0x3b88fde0	0.004180655
63	0x3be323ec	0.0069317725

feature_extract.batch_norms.0.running_mean f4 [64]
0	0x3c871c31	0.016492935
1	0xbd4cd95d	-0.05001198
2	0xbdd1bff8	-0.10241693
3	0x3e35b0af	0.1774318
4	0xbe71e18d	-0.23621197
5	0x3cba2661	0.022723379
6	0x3cdd8c1f	0.027044354
7	0xbe128ff8	-0.14312732
8	0xbe3e2a08	-0.18570721
9	0x3dd3319c	0.103121966
10	0x3dcece82	0.10097982
11	0xbdcb4033	-0.099243544
12	0xbb3adc98	-0.0028512832
13	0xbd93a0ca	-0.072084025
14	0x3de101a5	0.10986642
15	0xbe0195dc	-0.12654823
16	0x3cdad919	0.026714848
17	0xbe87a49d	-0.26492777
18	0xbe565993	-0.20932607
19	0x3ec536c8	0.38518357
20	0xbd77c5ab	-0.060491245
21	0x3eda1b15	0.42598787
22	0x3eaaee97	0.33385155
23	0x3e8fdeb8	0.28099608
24	0x3d8d54c7	0.069009356
25	0x3f2ab4d5	0.6668218
26	0xbe9dafd0	-0.30798197
27	0x3e4dea58	0.20108926
28	0x3dc8bd77	0.098017626
29	0xbed7cd22	-0.4214869
30	0x3eb65f75	0.35619703
31	0xbe00d7d2	-0.12582329
32	0xbe81fa39	-0.25386217
33	0xbea4862c	-0.32133615
34	0xbdb21df4	-0.08697119
35	0xbcb5b8af	-0.02218279
36	0xbd377821	-0.0447923
37	0xbefc6417	-0.49295112
38	0x3ec581b7	0.38575527
39	0x3dc3d903	0.09562876
40	0x3beb9471	0.0071893265
41	0xbe8fbcca	-0.28073722
42	0xbe0b2038	-0.13586509
43	0xbe5d8967	-0.21634446
44	0x3de44c0f	0.111473195
45	0x3e825f5c	0.25463378
46	0x3e651a63	0.22373347
47	0xbe938e75	-0.28819624
48	0x3e4b7343	0.19868188
49	0x3e8433ba	0.25820714
50	0x3ea03a77	0.31294605
51	0xbe23316c	-0.15936822
52	0xbe5fec70	-0.21867537
53	0x3ebfb70e	0.37444347
54	0x3e4bce4a	0.19902912
55	0x3eac7ecd	0.3369049
56	0x3d592d5f	0.053021785
57	0xbe3c3c1e	-0.18382308
58	0x3ec1dad6	0.3786227
59	0x3eadfff4	0.3398434
60	0xbefecf5e	-0.49767584
61	0xbe5b4725	-0.21413858
62	0xbe902257	-0.281512
63	0x3d38d843	0.04512812

feature_extract.batch_norms.0.running_var f4 [64]
0	0x3bf4985f	0.007464453
1	0x3d85bfff	0.06530761
2	0x3da6b3e7	0.081397824
3	0x3d033b19	0.03203878
4	0x3e3e9c62	0.18614343
5	0x3d469df5	0.048490483
6	0x3df85451	0.12125457
7	0x3d427716	0.04747685
8	0x3e88eeb5	0.2674462
9	0x3cb619c7	0.022229088
10	0x3edbd36e	0.42934746
11	0x3cc5b3a3	0.024133509
12	0x3e002c74	0.12516958
13	0x3e423fab	0.189696
14	0x3e6b2926	0.22964916
15	0x3e34f69e	0.17672202
16	0x3cfe0541	0.031008365
17	0x3d03c167	0.032166865
18	0x3e361e89	0.17785086
19	0x3e99adb3	0.30015334
20	0x3dab3424	0.083595544
21	0x3e007ee2	0.12548402
22	0x3cb52af9	0.022115218
23	0x3d2d49a1	0.042306546
24	0x3d33a6a9	0.04386011
25	0x3dc899d3	0.09794965
26	0x3dcfb54b	0.10142001
27	0x3c8e0499	0.017336177
28	0x3bd70bc5	0.0065626823
29	0x3e050471	0.12989976
30	0x3e52ebf7	0.20597826
31	0x3d7c11a9	0.06154028
32	0x3dfb3c63	0.12267377
33	0x3ec957e9	0.39324883
34	0x3e1110aa	0.14166513
35	0x3dadcc76	0.084862635
36	0x3deb20c1	0.11480857
37	0x3e0a6067	0.13513337
38	0x3d2e8cf7	0.042614903
39	0x3d666661	0.05624998
40	0x3d84d047	0.06485038
41	0x3d146e7b	0.036238175
42	0x3d97b587	0.074076705
43	0x3ebbe5fe	0.36698908
44	0x3c4dbb47	0.012556857
45	0x3d8eb962	0.06968953
46	0x3d6ce5a9	0.05783621
47	0x3d448b00	0.047984123
48	0x3e533e88	0.20629323
49	0x3d06bd63	0.032895457
50	0x3e6ee2ae	0.23328659
51	0x3cee08f3	0.029057002
52	0x3dd0a31b	0.1018736
53	0x3e13e687	0.14443408
54	0x3d59f570	0.053212583
55	0x3db7ee88	0.08981043
56	0x3bdd0861	0.0067453836
57	0x3d6492f6	0.055804215
58	0x3dd2e290	0.102971196
59	0x3dfb564b	0.122723185
60	0x3df4f66c	0.11961064
61	0x3e90c6fd	0.28276816
62	0x3f03da0d	0.51504594
63	0x3edcdf4c	0.43139112
